,acc_test,acc_train,data_desc,dropout,epochs,f1_test,f1_train,init_function,lr,model_desc,model_type,noise_level_test,noise_level_train,run_name,task,trainable_params
0,0.71944,0.9927529411764706,"MaxWordLen 8, MaxTexLen 128",0.5,30,0.7259728082512892,0.9927692741102451,,0.001,"AttentionedYoonKimModel(
  (embedding): Linear(in_features=74, out_features=74, bias=True)
  (chars_cnn): Sequential(
    (0): Conv1d(74, 256, kernel_size=(5,), stride=(1,), padding=(2,))
    (1): ReLU()
    (2): MaxPool1d(kernel_size=8, stride=8, padding=0, dilation=1, ceil_mode=False)
  )
  (words_rnn): GRU(256, 128, dropout=0.5)
  (attention): MultiHeadAttention(
    (query_layer): Linear(in_features=128, out_features=128, bias=False)
    (key_layer): Linear(in_features=128, out_features=128, bias=False)
    (value_layer): Linear(in_features=128, out_features=128, bias=False)
    (bn): BatchNorm1d(128, eps=1e-05, momentum=0.1, affine=True)
  )
  (dropout): Dropout(p=0.5)
  (projector): Linear(in_features=128, out_features=2, bias=True)
)",charCNN,0.0,0.0,runs/May16_14-56-20_phobos-aijun_AttentionedYoonKim_lr3_dropout0.5_noise_level0_spacy_wordlen8_heads1_IMDB,Mokoron binary classification,298416
1,0.7128,0.9927529411764706,"MaxWordLen 8, MaxTexLen 128",0.5,30,0.7191362854013457,0.9927692741102451,,0.001,"AttentionedYoonKimModel(
  (embedding): Linear(in_features=74, out_features=74, bias=True)
  (chars_cnn): Sequential(
    (0): Conv1d(74, 256, kernel_size=(5,), stride=(1,), padding=(2,))
    (1): ReLU()
    (2): MaxPool1d(kernel_size=8, stride=8, padding=0, dilation=1, ceil_mode=False)
  )
  (words_rnn): GRU(256, 128, dropout=0.5)
  (attention): MultiHeadAttention(
    (query_layer): Linear(in_features=128, out_features=128, bias=False)
    (key_layer): Linear(in_features=128, out_features=128, bias=False)
    (value_layer): Linear(in_features=128, out_features=128, bias=False)
    (bn): BatchNorm1d(128, eps=1e-05, momentum=0.1, affine=True)
  )
  (dropout): Dropout(p=0.5)
  (projector): Linear(in_features=128, out_features=2, bias=True)
)",charCNN,0.005,0.0,runs/May16_14-56-20_phobos-aijun_AttentionedYoonKim_lr3_dropout0.5_noise_level0_spacy_wordlen8_heads1_IMDB,Mokoron binary classification,298416
2,0.70336,0.9927529411764706,"MaxWordLen 8, MaxTexLen 128",0.5,30,0.7091764705882353,0.9927692741102451,,0.001,"AttentionedYoonKimModel(
  (embedding): Linear(in_features=74, out_features=74, bias=True)
  (chars_cnn): Sequential(
    (0): Conv1d(74, 256, kernel_size=(5,), stride=(1,), padding=(2,))
    (1): ReLU()
    (2): MaxPool1d(kernel_size=8, stride=8, padding=0, dilation=1, ceil_mode=False)
  )
  (words_rnn): GRU(256, 128, dropout=0.5)
  (attention): MultiHeadAttention(
    (query_layer): Linear(in_features=128, out_features=128, bias=False)
    (key_layer): Linear(in_features=128, out_features=128, bias=False)
    (value_layer): Linear(in_features=128, out_features=128, bias=False)
    (bn): BatchNorm1d(128, eps=1e-05, momentum=0.1, affine=True)
  )
  (dropout): Dropout(p=0.5)
  (projector): Linear(in_features=128, out_features=2, bias=True)
)",charCNN,0.01,0.0,runs/May16_14-56-20_phobos-aijun_AttentionedYoonKim_lr3_dropout0.5_noise_level0_spacy_wordlen8_heads1_IMDB,Mokoron binary classification,298416
3,0.67904,0.9927529411764706,"MaxWordLen 8, MaxTexLen 128",0.5,30,0.6846903489468721,0.9927692741102451,,0.001,"AttentionedYoonKimModel(
  (embedding): Linear(in_features=74, out_features=74, bias=True)
  (chars_cnn): Sequential(
    (0): Conv1d(74, 256, kernel_size=(5,), stride=(1,), padding=(2,))
    (1): ReLU()
    (2): MaxPool1d(kernel_size=8, stride=8, padding=0, dilation=1, ceil_mode=False)
  )
  (words_rnn): GRU(256, 128, dropout=0.5)
  (attention): MultiHeadAttention(
    (query_layer): Linear(in_features=128, out_features=128, bias=False)
    (key_layer): Linear(in_features=128, out_features=128, bias=False)
    (value_layer): Linear(in_features=128, out_features=128, bias=False)
    (bn): BatchNorm1d(128, eps=1e-05, momentum=0.1, affine=True)
  )
  (dropout): Dropout(p=0.5)
  (projector): Linear(in_features=128, out_features=2, bias=True)
)",charCNN,0.025,0.0,runs/May16_14-56-20_phobos-aijun_AttentionedYoonKim_lr3_dropout0.5_noise_level0_spacy_wordlen8_heads1_IMDB,Mokoron binary classification,298416
4,0.64292,0.9927529411764706,"MaxWordLen 8, MaxTexLen 128",0.5,30,0.6462452942341986,0.9927692741102451,,0.001,"AttentionedYoonKimModel(
  (embedding): Linear(in_features=74, out_features=74, bias=True)
  (chars_cnn): Sequential(
    (0): Conv1d(74, 256, kernel_size=(5,), stride=(1,), padding=(2,))
    (1): ReLU()
    (2): MaxPool1d(kernel_size=8, stride=8, padding=0, dilation=1, ceil_mode=False)
  )
  (words_rnn): GRU(256, 128, dropout=0.5)
  (attention): MultiHeadAttention(
    (query_layer): Linear(in_features=128, out_features=128, bias=False)
    (key_layer): Linear(in_features=128, out_features=128, bias=False)
    (value_layer): Linear(in_features=128, out_features=128, bias=False)
    (bn): BatchNorm1d(128, eps=1e-05, momentum=0.1, affine=True)
  )
  (dropout): Dropout(p=0.5)
  (projector): Linear(in_features=128, out_features=2, bias=True)
)",charCNN,0.05,0.0,runs/May16_14-56-20_phobos-aijun_AttentionedYoonKim_lr3_dropout0.5_noise_level0_spacy_wordlen8_heads1_IMDB,Mokoron binary classification,298416
5,0.61392,0.9927529411764706,"MaxWordLen 8, MaxTexLen 128",0.5,30,0.617348556929908,0.9927692741102451,,0.001,"AttentionedYoonKimModel(
  (embedding): Linear(in_features=74, out_features=74, bias=True)
  (chars_cnn): Sequential(
    (0): Conv1d(74, 256, kernel_size=(5,), stride=(1,), padding=(2,))
    (1): ReLU()
    (2): MaxPool1d(kernel_size=8, stride=8, padding=0, dilation=1, ceil_mode=False)
  )
  (words_rnn): GRU(256, 128, dropout=0.5)
  (attention): MultiHeadAttention(
    (query_layer): Linear(in_features=128, out_features=128, bias=False)
    (key_layer): Linear(in_features=128, out_features=128, bias=False)
    (value_layer): Linear(in_features=128, out_features=128, bias=False)
    (bn): BatchNorm1d(128, eps=1e-05, momentum=0.1, affine=True)
  )
  (dropout): Dropout(p=0.5)
  (projector): Linear(in_features=128, out_features=2, bias=True)
)",charCNN,0.075,0.0,runs/May16_14-56-20_phobos-aijun_AttentionedYoonKim_lr3_dropout0.5_noise_level0_spacy_wordlen8_heads1_IMDB,Mokoron binary classification,298416
6,0.58764,0.9927529411764706,"MaxWordLen 8, MaxTexLen 128",0.5,30,0.5890700362737673,0.9927692741102451,,0.001,"AttentionedYoonKimModel(
  (embedding): Linear(in_features=74, out_features=74, bias=True)
  (chars_cnn): Sequential(
    (0): Conv1d(74, 256, kernel_size=(5,), stride=(1,), padding=(2,))
    (1): ReLU()
    (2): MaxPool1d(kernel_size=8, stride=8, padding=0, dilation=1, ceil_mode=False)
  )
  (words_rnn): GRU(256, 128, dropout=0.5)
  (attention): MultiHeadAttention(
    (query_layer): Linear(in_features=128, out_features=128, bias=False)
    (key_layer): Linear(in_features=128, out_features=128, bias=False)
    (value_layer): Linear(in_features=128, out_features=128, bias=False)
    (bn): BatchNorm1d(128, eps=1e-05, momentum=0.1, affine=True)
  )
  (dropout): Dropout(p=0.5)
  (projector): Linear(in_features=128, out_features=2, bias=True)
)",charCNN,0.1,0.0,runs/May16_14-56-20_phobos-aijun_AttentionedYoonKim_lr3_dropout0.5_noise_level0_spacy_wordlen8_heads1_IMDB,Mokoron binary classification,298416
7,0.56876,0.9927529411764706,"MaxWordLen 8, MaxTexLen 128",0.5,30,0.5709054726368158,0.9927692741102451,,0.001,"AttentionedYoonKimModel(
  (embedding): Linear(in_features=74, out_features=74, bias=True)
  (chars_cnn): Sequential(
    (0): Conv1d(74, 256, kernel_size=(5,), stride=(1,), padding=(2,))
    (1): ReLU()
    (2): MaxPool1d(kernel_size=8, stride=8, padding=0, dilation=1, ceil_mode=False)
  )
  (words_rnn): GRU(256, 128, dropout=0.5)
  (attention): MultiHeadAttention(
    (query_layer): Linear(in_features=128, out_features=128, bias=False)
    (key_layer): Linear(in_features=128, out_features=128, bias=False)
    (value_layer): Linear(in_features=128, out_features=128, bias=False)
    (bn): BatchNorm1d(128, eps=1e-05, momentum=0.1, affine=True)
  )
  (dropout): Dropout(p=0.5)
  (projector): Linear(in_features=128, out_features=2, bias=True)
)",charCNN,0.125,0.0,runs/May16_14-56-20_phobos-aijun_AttentionedYoonKim_lr3_dropout0.5_noise_level0_spacy_wordlen8_heads1_IMDB,Mokoron binary classification,298416
8,0.5566,0.9927529411764706,"MaxWordLen 8, MaxTexLen 128",0.5,30,0.5607291460273429,0.9927692741102451,,0.001,"AttentionedYoonKimModel(
  (embedding): Linear(in_features=74, out_features=74, bias=True)
  (chars_cnn): Sequential(
    (0): Conv1d(74, 256, kernel_size=(5,), stride=(1,), padding=(2,))
    (1): ReLU()
    (2): MaxPool1d(kernel_size=8, stride=8, padding=0, dilation=1, ceil_mode=False)
  )
  (words_rnn): GRU(256, 128, dropout=0.5)
  (attention): MultiHeadAttention(
    (query_layer): Linear(in_features=128, out_features=128, bias=False)
    (key_layer): Linear(in_features=128, out_features=128, bias=False)
    (value_layer): Linear(in_features=128, out_features=128, bias=False)
    (bn): BatchNorm1d(128, eps=1e-05, momentum=0.1, affine=True)
  )
  (dropout): Dropout(p=0.5)
  (projector): Linear(in_features=128, out_features=2, bias=True)
)",charCNN,0.15,0.0,runs/May16_14-56-20_phobos-aijun_AttentionedYoonKim_lr3_dropout0.5_noise_level0_spacy_wordlen8_heads1_IMDB,Mokoron binary classification,298416
9,0.54844,0.9927529411764706,"MaxWordLen 8, MaxTexLen 128",0.5,30,0.5536709761594117,0.9927692741102451,,0.001,"AttentionedYoonKimModel(
  (embedding): Linear(in_features=74, out_features=74, bias=True)
  (chars_cnn): Sequential(
    (0): Conv1d(74, 256, kernel_size=(5,), stride=(1,), padding=(2,))
    (1): ReLU()
    (2): MaxPool1d(kernel_size=8, stride=8, padding=0, dilation=1, ceil_mode=False)
  )
  (words_rnn): GRU(256, 128, dropout=0.5)
  (attention): MultiHeadAttention(
    (query_layer): Linear(in_features=128, out_features=128, bias=False)
    (key_layer): Linear(in_features=128, out_features=128, bias=False)
    (value_layer): Linear(in_features=128, out_features=128, bias=False)
    (bn): BatchNorm1d(128, eps=1e-05, momentum=0.1, affine=True)
  )
  (dropout): Dropout(p=0.5)
  (projector): Linear(in_features=128, out_features=2, bias=True)
)",charCNN,0.175,0.0,runs/May16_14-56-20_phobos-aijun_AttentionedYoonKim_lr3_dropout0.5_noise_level0_spacy_wordlen8_heads1_IMDB,Mokoron binary classification,298416
10,0.53228,0.9927529411764706,"MaxWordLen 8, MaxTexLen 128",0.5,30,0.5376616187576608,0.9927692741102451,,0.001,"AttentionedYoonKimModel(
  (embedding): Linear(in_features=74, out_features=74, bias=True)
  (chars_cnn): Sequential(
    (0): Conv1d(74, 256, kernel_size=(5,), stride=(1,), padding=(2,))
    (1): ReLU()
    (2): MaxPool1d(kernel_size=8, stride=8, padding=0, dilation=1, ceil_mode=False)
  )
  (words_rnn): GRU(256, 128, dropout=0.5)
  (attention): MultiHeadAttention(
    (query_layer): Linear(in_features=128, out_features=128, bias=False)
    (key_layer): Linear(in_features=128, out_features=128, bias=False)
    (value_layer): Linear(in_features=128, out_features=128, bias=False)
    (bn): BatchNorm1d(128, eps=1e-05, momentum=0.1, affine=True)
  )
  (dropout): Dropout(p=0.5)
  (projector): Linear(in_features=128, out_features=2, bias=True)
)",charCNN,0.2,0.0,runs/May16_14-56-20_phobos-aijun_AttentionedYoonKim_lr3_dropout0.5_noise_level0_spacy_wordlen8_heads1_IMDB,Mokoron binary classification,298416
11,0.7202,0.9927529411764706,"MaxWordLen 8, MaxTexLen 128",0.5,30,0.7267257881783021,0.9927692741102451,,0.001,"AttentionedYoonKimModel(
  (embedding): Linear(in_features=74, out_features=74, bias=True)
  (chars_cnn): Sequential(
    (0): Conv1d(74, 256, kernel_size=(5,), stride=(1,), padding=(2,))
    (1): ReLU()
    (2): MaxPool1d(kernel_size=8, stride=8, padding=0, dilation=1, ceil_mode=False)
  )
  (words_rnn): GRU(256, 128, dropout=0.5)
  (attention): MultiHeadAttention(
    (query_layer): Linear(in_features=128, out_features=128, bias=False)
    (key_layer): Linear(in_features=128, out_features=128, bias=False)
    (value_layer): Linear(in_features=128, out_features=128, bias=False)
    (bn): BatchNorm1d(128, eps=1e-05, momentum=0.1, affine=True)
  )
  (dropout): Dropout(p=0.5)
  (projector): Linear(in_features=128, out_features=2, bias=True)
)",charCNN,-1.0,0.0,runs/May16_14-56-20_phobos-aijun_AttentionedYoonKim_lr3_dropout0.5_noise_level0_spacy_wordlen8_heads1_IMDB,Mokoron binary classification,298416
12,0.69032,0.9794823529411765,"MaxWordLen 8, MaxTexLen 128",0.5,30,0.692191475826972,0.9796337817638266,,0.001,"AttentionedYoonKimModel(
  (embedding): Linear(in_features=74, out_features=74, bias=True)
  (chars_cnn): Sequential(
    (0): Conv1d(74, 256, kernel_size=(5,), stride=(1,), padding=(2,))
    (1): ReLU()
    (2): MaxPool1d(kernel_size=8, stride=8, padding=0, dilation=1, ceil_mode=False)
  )
  (words_rnn): GRU(256, 128, dropout=0.5)
  (attention): MultiHeadAttention(
    (query_layer): Linear(in_features=128, out_features=128, bias=False)
    (key_layer): Linear(in_features=128, out_features=128, bias=False)
    (value_layer): Linear(in_features=128, out_features=128, bias=False)
    (bn): BatchNorm1d(128, eps=1e-05, momentum=0.1, affine=True)
  )
  (dropout): Dropout(p=0.5)
  (projector): Linear(in_features=128, out_features=2, bias=True)
)",charCNN,0.0,0.005,runs/May16_16-25-29_phobos-aijun_AttentionedYoonKim_lr3_dropout0.5_noise_level0.005_spacy_wordlen8_heads1_IMDB,Mokoron binary classification,298416
13,0.68292,0.9794823529411765,"MaxWordLen 8, MaxTexLen 128",0.5,30,0.6848988353142267,0.9796337817638266,,0.001,"AttentionedYoonKimModel(
  (embedding): Linear(in_features=74, out_features=74, bias=True)
  (chars_cnn): Sequential(
    (0): Conv1d(74, 256, kernel_size=(5,), stride=(1,), padding=(2,))
    (1): ReLU()
    (2): MaxPool1d(kernel_size=8, stride=8, padding=0, dilation=1, ceil_mode=False)
  )
  (words_rnn): GRU(256, 128, dropout=0.5)
  (attention): MultiHeadAttention(
    (query_layer): Linear(in_features=128, out_features=128, bias=False)
    (key_layer): Linear(in_features=128, out_features=128, bias=False)
    (value_layer): Linear(in_features=128, out_features=128, bias=False)
    (bn): BatchNorm1d(128, eps=1e-05, momentum=0.1, affine=True)
  )
  (dropout): Dropout(p=0.5)
  (projector): Linear(in_features=128, out_features=2, bias=True)
)",charCNN,0.005,0.005,runs/May16_16-25-29_phobos-aijun_AttentionedYoonKim_lr3_dropout0.5_noise_level0.005_spacy_wordlen8_heads1_IMDB,Mokoron binary classification,298416
14,0.67776,0.9794823529411765,"MaxWordLen 8, MaxTexLen 128",0.5,30,0.6799618623867789,0.9796337817638266,,0.001,"AttentionedYoonKimModel(
  (embedding): Linear(in_features=74, out_features=74, bias=True)
  (chars_cnn): Sequential(
    (0): Conv1d(74, 256, kernel_size=(5,), stride=(1,), padding=(2,))
    (1): ReLU()
    (2): MaxPool1d(kernel_size=8, stride=8, padding=0, dilation=1, ceil_mode=False)
  )
  (words_rnn): GRU(256, 128, dropout=0.5)
  (attention): MultiHeadAttention(
    (query_layer): Linear(in_features=128, out_features=128, bias=False)
    (key_layer): Linear(in_features=128, out_features=128, bias=False)
    (value_layer): Linear(in_features=128, out_features=128, bias=False)
    (bn): BatchNorm1d(128, eps=1e-05, momentum=0.1, affine=True)
  )
  (dropout): Dropout(p=0.5)
  (projector): Linear(in_features=128, out_features=2, bias=True)
)",charCNN,0.01,0.005,runs/May16_16-25-29_phobos-aijun_AttentionedYoonKim_lr3_dropout0.5_noise_level0.005_spacy_wordlen8_heads1_IMDB,Mokoron binary classification,298416
15,0.6572,0.9794823529411765,"MaxWordLen 8, MaxTexLen 128",0.5,30,0.6587017124651533,0.9796337817638266,,0.001,"AttentionedYoonKimModel(
  (embedding): Linear(in_features=74, out_features=74, bias=True)
  (chars_cnn): Sequential(
    (0): Conv1d(74, 256, kernel_size=(5,), stride=(1,), padding=(2,))
    (1): ReLU()
    (2): MaxPool1d(kernel_size=8, stride=8, padding=0, dilation=1, ceil_mode=False)
  )
  (words_rnn): GRU(256, 128, dropout=0.5)
  (attention): MultiHeadAttention(
    (query_layer): Linear(in_features=128, out_features=128, bias=False)
    (key_layer): Linear(in_features=128, out_features=128, bias=False)
    (value_layer): Linear(in_features=128, out_features=128, bias=False)
    (bn): BatchNorm1d(128, eps=1e-05, momentum=0.1, affine=True)
  )
  (dropout): Dropout(p=0.5)
  (projector): Linear(in_features=128, out_features=2, bias=True)
)",charCNN,0.025,0.005,runs/May16_16-25-29_phobos-aijun_AttentionedYoonKim_lr3_dropout0.5_noise_level0.005_spacy_wordlen8_heads1_IMDB,Mokoron binary classification,298416
16,0.63088,0.9794823529411765,"MaxWordLen 8, MaxTexLen 128",0.5,30,0.635516233509756,0.9796337817638266,,0.001,"AttentionedYoonKimModel(
  (embedding): Linear(in_features=74, out_features=74, bias=True)
  (chars_cnn): Sequential(
    (0): Conv1d(74, 256, kernel_size=(5,), stride=(1,), padding=(2,))
    (1): ReLU()
    (2): MaxPool1d(kernel_size=8, stride=8, padding=0, dilation=1, ceil_mode=False)
  )
  (words_rnn): GRU(256, 128, dropout=0.5)
  (attention): MultiHeadAttention(
    (query_layer): Linear(in_features=128, out_features=128, bias=False)
    (key_layer): Linear(in_features=128, out_features=128, bias=False)
    (value_layer): Linear(in_features=128, out_features=128, bias=False)
    (bn): BatchNorm1d(128, eps=1e-05, momentum=0.1, affine=True)
  )
  (dropout): Dropout(p=0.5)
  (projector): Linear(in_features=128, out_features=2, bias=True)
)",charCNN,0.05,0.005,runs/May16_16-25-29_phobos-aijun_AttentionedYoonKim_lr3_dropout0.5_noise_level0.005_spacy_wordlen8_heads1_IMDB,Mokoron binary classification,298416
17,0.608,0.9794823529411765,"MaxWordLen 8, MaxTexLen 128",0.5,30,0.6116350955060632,0.9796337817638266,,0.001,"AttentionedYoonKimModel(
  (embedding): Linear(in_features=74, out_features=74, bias=True)
  (chars_cnn): Sequential(
    (0): Conv1d(74, 256, kernel_size=(5,), stride=(1,), padding=(2,))
    (1): ReLU()
    (2): MaxPool1d(kernel_size=8, stride=8, padding=0, dilation=1, ceil_mode=False)
  )
  (words_rnn): GRU(256, 128, dropout=0.5)
  (attention): MultiHeadAttention(
    (query_layer): Linear(in_features=128, out_features=128, bias=False)
    (key_layer): Linear(in_features=128, out_features=128, bias=False)
    (value_layer): Linear(in_features=128, out_features=128, bias=False)
    (bn): BatchNorm1d(128, eps=1e-05, momentum=0.1, affine=True)
  )
  (dropout): Dropout(p=0.5)
  (projector): Linear(in_features=128, out_features=2, bias=True)
)",charCNN,0.075,0.005,runs/May16_16-25-29_phobos-aijun_AttentionedYoonKim_lr3_dropout0.5_noise_level0.005_spacy_wordlen8_heads1_IMDB,Mokoron binary classification,298416
18,0.5824,0.9794823529411765,"MaxWordLen 8, MaxTexLen 128",0.5,30,0.5858786195953987,0.9796337817638266,,0.001,"AttentionedYoonKimModel(
  (embedding): Linear(in_features=74, out_features=74, bias=True)
  (chars_cnn): Sequential(
    (0): Conv1d(74, 256, kernel_size=(5,), stride=(1,), padding=(2,))
    (1): ReLU()
    (2): MaxPool1d(kernel_size=8, stride=8, padding=0, dilation=1, ceil_mode=False)
  )
  (words_rnn): GRU(256, 128, dropout=0.5)
  (attention): MultiHeadAttention(
    (query_layer): Linear(in_features=128, out_features=128, bias=False)
    (key_layer): Linear(in_features=128, out_features=128, bias=False)
    (value_layer): Linear(in_features=128, out_features=128, bias=False)
    (bn): BatchNorm1d(128, eps=1e-05, momentum=0.1, affine=True)
  )
  (dropout): Dropout(p=0.5)
  (projector): Linear(in_features=128, out_features=2, bias=True)
)",charCNN,0.1,0.005,runs/May16_16-25-29_phobos-aijun_AttentionedYoonKim_lr3_dropout0.5_noise_level0.005_spacy_wordlen8_heads1_IMDB,Mokoron binary classification,298416
19,0.5628,0.9794823529411765,"MaxWordLen 8, MaxTexLen 128",0.5,30,0.5666137985725614,0.9796337817638266,,0.001,"AttentionedYoonKimModel(
  (embedding): Linear(in_features=74, out_features=74, bias=True)
  (chars_cnn): Sequential(
    (0): Conv1d(74, 256, kernel_size=(5,), stride=(1,), padding=(2,))
    (1): ReLU()
    (2): MaxPool1d(kernel_size=8, stride=8, padding=0, dilation=1, ceil_mode=False)
  )
  (words_rnn): GRU(256, 128, dropout=0.5)
  (attention): MultiHeadAttention(
    (query_layer): Linear(in_features=128, out_features=128, bias=False)
    (key_layer): Linear(in_features=128, out_features=128, bias=False)
    (value_layer): Linear(in_features=128, out_features=128, bias=False)
    (bn): BatchNorm1d(128, eps=1e-05, momentum=0.1, affine=True)
  )
  (dropout): Dropout(p=0.5)
  (projector): Linear(in_features=128, out_features=2, bias=True)
)",charCNN,0.125,0.005,runs/May16_16-25-29_phobos-aijun_AttentionedYoonKim_lr3_dropout0.5_noise_level0.005_spacy_wordlen8_heads1_IMDB,Mokoron binary classification,298416
20,0.55132,0.9794823529411765,"MaxWordLen 8, MaxTexLen 128",0.5,30,0.55489861513432,0.9796337817638266,,0.001,"AttentionedYoonKimModel(
  (embedding): Linear(in_features=74, out_features=74, bias=True)
  (chars_cnn): Sequential(
    (0): Conv1d(74, 256, kernel_size=(5,), stride=(1,), padding=(2,))
    (1): ReLU()
    (2): MaxPool1d(kernel_size=8, stride=8, padding=0, dilation=1, ceil_mode=False)
  )
  (words_rnn): GRU(256, 128, dropout=0.5)
  (attention): MultiHeadAttention(
    (query_layer): Linear(in_features=128, out_features=128, bias=False)
    (key_layer): Linear(in_features=128, out_features=128, bias=False)
    (value_layer): Linear(in_features=128, out_features=128, bias=False)
    (bn): BatchNorm1d(128, eps=1e-05, momentum=0.1, affine=True)
  )
  (dropout): Dropout(p=0.5)
  (projector): Linear(in_features=128, out_features=2, bias=True)
)",charCNN,0.15,0.005,runs/May16_16-25-29_phobos-aijun_AttentionedYoonKim_lr3_dropout0.5_noise_level0.005_spacy_wordlen8_heads1_IMDB,Mokoron binary classification,298416
21,0.53948,0.9794823529411765,"MaxWordLen 8, MaxTexLen 128",0.5,30,0.5417346654460057,0.9796337817638266,,0.001,"AttentionedYoonKimModel(
  (embedding): Linear(in_features=74, out_features=74, bias=True)
  (chars_cnn): Sequential(
    (0): Conv1d(74, 256, kernel_size=(5,), stride=(1,), padding=(2,))
    (1): ReLU()
    (2): MaxPool1d(kernel_size=8, stride=8, padding=0, dilation=1, ceil_mode=False)
  )
  (words_rnn): GRU(256, 128, dropout=0.5)
  (attention): MultiHeadAttention(
    (query_layer): Linear(in_features=128, out_features=128, bias=False)
    (key_layer): Linear(in_features=128, out_features=128, bias=False)
    (value_layer): Linear(in_features=128, out_features=128, bias=False)
    (bn): BatchNorm1d(128, eps=1e-05, momentum=0.1, affine=True)
  )
  (dropout): Dropout(p=0.5)
  (projector): Linear(in_features=128, out_features=2, bias=True)
)",charCNN,0.175,0.005,runs/May16_16-25-29_phobos-aijun_AttentionedYoonKim_lr3_dropout0.5_noise_level0.005_spacy_wordlen8_heads1_IMDB,Mokoron binary classification,298416
22,0.53308,0.9794823529411765,"MaxWordLen 8, MaxTexLen 128",0.5,30,0.5363625531238829,0.9796337817638266,,0.001,"AttentionedYoonKimModel(
  (embedding): Linear(in_features=74, out_features=74, bias=True)
  (chars_cnn): Sequential(
    (0): Conv1d(74, 256, kernel_size=(5,), stride=(1,), padding=(2,))
    (1): ReLU()
    (2): MaxPool1d(kernel_size=8, stride=8, padding=0, dilation=1, ceil_mode=False)
  )
  (words_rnn): GRU(256, 128, dropout=0.5)
  (attention): MultiHeadAttention(
    (query_layer): Linear(in_features=128, out_features=128, bias=False)
    (key_layer): Linear(in_features=128, out_features=128, bias=False)
    (value_layer): Linear(in_features=128, out_features=128, bias=False)
    (bn): BatchNorm1d(128, eps=1e-05, momentum=0.1, affine=True)
  )
  (dropout): Dropout(p=0.5)
  (projector): Linear(in_features=128, out_features=2, bias=True)
)",charCNN,0.2,0.005,runs/May16_16-25-29_phobos-aijun_AttentionedYoonKim_lr3_dropout0.5_noise_level0.005_spacy_wordlen8_heads1_IMDB,Mokoron binary classification,298416
23,0.68396,0.9794823529411765,"MaxWordLen 8, MaxTexLen 128",0.5,30,0.6871015009306561,0.9796337817638266,,0.001,"AttentionedYoonKimModel(
  (embedding): Linear(in_features=74, out_features=74, bias=True)
  (chars_cnn): Sequential(
    (0): Conv1d(74, 256, kernel_size=(5,), stride=(1,), padding=(2,))
    (1): ReLU()
    (2): MaxPool1d(kernel_size=8, stride=8, padding=0, dilation=1, ceil_mode=False)
  )
  (words_rnn): GRU(256, 128, dropout=0.5)
  (attention): MultiHeadAttention(
    (query_layer): Linear(in_features=128, out_features=128, bias=False)
    (key_layer): Linear(in_features=128, out_features=128, bias=False)
    (value_layer): Linear(in_features=128, out_features=128, bias=False)
    (bn): BatchNorm1d(128, eps=1e-05, momentum=0.1, affine=True)
  )
  (dropout): Dropout(p=0.5)
  (projector): Linear(in_features=128, out_features=2, bias=True)
)",charCNN,-1.0,0.005,runs/May16_16-25-29_phobos-aijun_AttentionedYoonKim_lr3_dropout0.5_noise_level0.005_spacy_wordlen8_heads1_IMDB,Mokoron binary classification,298416
24,0.66696,0.9696941176470588,"MaxWordLen 8, MaxTexLen 128",0.5,30,0.6654343807763401,0.9701630837657524,,0.001,"AttentionedYoonKimModel(
  (embedding): Linear(in_features=74, out_features=74, bias=True)
  (chars_cnn): Sequential(
    (0): Conv1d(74, 256, kernel_size=(5,), stride=(1,), padding=(2,))
    (1): ReLU()
    (2): MaxPool1d(kernel_size=8, stride=8, padding=0, dilation=1, ceil_mode=False)
  )
  (words_rnn): GRU(256, 128, dropout=0.5)
  (attention): MultiHeadAttention(
    (query_layer): Linear(in_features=128, out_features=128, bias=False)
    (key_layer): Linear(in_features=128, out_features=128, bias=False)
    (value_layer): Linear(in_features=128, out_features=128, bias=False)
    (bn): BatchNorm1d(128, eps=1e-05, momentum=0.1, affine=True)
  )
  (dropout): Dropout(p=0.5)
  (projector): Linear(in_features=128, out_features=2, bias=True)
)",charCNN,0.0,0.01,runs/May16_17-30-18_phobos-aijun_AttentionedYoonKim_lr3_dropout0.5_noise_level0.01_spacy_wordlen8_heads1_IMDB,Mokoron binary classification,298416
25,0.66072,0.9696941176470588,"MaxWordLen 8, MaxTexLen 128",0.5,30,0.6592479511489635,0.9701630837657524,,0.001,"AttentionedYoonKimModel(
  (embedding): Linear(in_features=74, out_features=74, bias=True)
  (chars_cnn): Sequential(
    (0): Conv1d(74, 256, kernel_size=(5,), stride=(1,), padding=(2,))
    (1): ReLU()
    (2): MaxPool1d(kernel_size=8, stride=8, padding=0, dilation=1, ceil_mode=False)
  )
  (words_rnn): GRU(256, 128, dropout=0.5)
  (attention): MultiHeadAttention(
    (query_layer): Linear(in_features=128, out_features=128, bias=False)
    (key_layer): Linear(in_features=128, out_features=128, bias=False)
    (value_layer): Linear(in_features=128, out_features=128, bias=False)
    (bn): BatchNorm1d(128, eps=1e-05, momentum=0.1, affine=True)
  )
  (dropout): Dropout(p=0.5)
  (projector): Linear(in_features=128, out_features=2, bias=True)
)",charCNN,0.005,0.01,runs/May16_17-30-18_phobos-aijun_AttentionedYoonKim_lr3_dropout0.5_noise_level0.01_spacy_wordlen8_heads1_IMDB,Mokoron binary classification,298416
26,0.65352,0.9696941176470588,"MaxWordLen 8, MaxTexLen 128",0.5,30,0.6531037244693633,0.9701630837657524,,0.001,"AttentionedYoonKimModel(
  (embedding): Linear(in_features=74, out_features=74, bias=True)
  (chars_cnn): Sequential(
    (0): Conv1d(74, 256, kernel_size=(5,), stride=(1,), padding=(2,))
    (1): ReLU()
    (2): MaxPool1d(kernel_size=8, stride=8, padding=0, dilation=1, ceil_mode=False)
  )
  (words_rnn): GRU(256, 128, dropout=0.5)
  (attention): MultiHeadAttention(
    (query_layer): Linear(in_features=128, out_features=128, bias=False)
    (key_layer): Linear(in_features=128, out_features=128, bias=False)
    (value_layer): Linear(in_features=128, out_features=128, bias=False)
    (bn): BatchNorm1d(128, eps=1e-05, momentum=0.1, affine=True)
  )
  (dropout): Dropout(p=0.5)
  (projector): Linear(in_features=128, out_features=2, bias=True)
)",charCNN,0.01,0.01,runs/May16_17-30-18_phobos-aijun_AttentionedYoonKim_lr3_dropout0.5_noise_level0.01_spacy_wordlen8_heads1_IMDB,Mokoron binary classification,298416
27,0.63424,0.9696941176470588,"MaxWordLen 8, MaxTexLen 128",0.5,30,0.6331246990852191,0.9701630837657524,,0.001,"AttentionedYoonKimModel(
  (embedding): Linear(in_features=74, out_features=74, bias=True)
  (chars_cnn): Sequential(
    (0): Conv1d(74, 256, kernel_size=(5,), stride=(1,), padding=(2,))
    (1): ReLU()
    (2): MaxPool1d(kernel_size=8, stride=8, padding=0, dilation=1, ceil_mode=False)
  )
  (words_rnn): GRU(256, 128, dropout=0.5)
  (attention): MultiHeadAttention(
    (query_layer): Linear(in_features=128, out_features=128, bias=False)
    (key_layer): Linear(in_features=128, out_features=128, bias=False)
    (value_layer): Linear(in_features=128, out_features=128, bias=False)
    (bn): BatchNorm1d(128, eps=1e-05, momentum=0.1, affine=True)
  )
  (dropout): Dropout(p=0.5)
  (projector): Linear(in_features=128, out_features=2, bias=True)
)",charCNN,0.025,0.01,runs/May16_17-30-18_phobos-aijun_AttentionedYoonKim_lr3_dropout0.5_noise_level0.01_spacy_wordlen8_heads1_IMDB,Mokoron binary classification,298416
28,0.60644,0.9696941176470588,"MaxWordLen 8, MaxTexLen 128",0.5,30,0.6043986972779543,0.9701630837657524,,0.001,"AttentionedYoonKimModel(
  (embedding): Linear(in_features=74, out_features=74, bias=True)
  (chars_cnn): Sequential(
    (0): Conv1d(74, 256, kernel_size=(5,), stride=(1,), padding=(2,))
    (1): ReLU()
    (2): MaxPool1d(kernel_size=8, stride=8, padding=0, dilation=1, ceil_mode=False)
  )
  (words_rnn): GRU(256, 128, dropout=0.5)
  (attention): MultiHeadAttention(
    (query_layer): Linear(in_features=128, out_features=128, bias=False)
    (key_layer): Linear(in_features=128, out_features=128, bias=False)
    (value_layer): Linear(in_features=128, out_features=128, bias=False)
    (bn): BatchNorm1d(128, eps=1e-05, momentum=0.1, affine=True)
  )
  (dropout): Dropout(p=0.5)
  (projector): Linear(in_features=128, out_features=2, bias=True)
)",charCNN,0.05,0.01,runs/May16_17-30-18_phobos-aijun_AttentionedYoonKim_lr3_dropout0.5_noise_level0.01_spacy_wordlen8_heads1_IMDB,Mokoron binary classification,298416
29,0.58116,0.9696941176470588,"MaxWordLen 8, MaxTexLen 128",0.5,30,0.5797310856913507,0.9701630837657524,,0.001,"AttentionedYoonKimModel(
  (embedding): Linear(in_features=74, out_features=74, bias=True)
  (chars_cnn): Sequential(
    (0): Conv1d(74, 256, kernel_size=(5,), stride=(1,), padding=(2,))
    (1): ReLU()
    (2): MaxPool1d(kernel_size=8, stride=8, padding=0, dilation=1, ceil_mode=False)
  )
  (words_rnn): GRU(256, 128, dropout=0.5)
  (attention): MultiHeadAttention(
    (query_layer): Linear(in_features=128, out_features=128, bias=False)
    (key_layer): Linear(in_features=128, out_features=128, bias=False)
    (value_layer): Linear(in_features=128, out_features=128, bias=False)
    (bn): BatchNorm1d(128, eps=1e-05, momentum=0.1, affine=True)
  )
  (dropout): Dropout(p=0.5)
  (projector): Linear(in_features=128, out_features=2, bias=True)
)",charCNN,0.075,0.01,runs/May16_17-30-18_phobos-aijun_AttentionedYoonKim_lr3_dropout0.5_noise_level0.01_spacy_wordlen8_heads1_IMDB,Mokoron binary classification,298416
30,0.5582,0.9696941176470588,"MaxWordLen 8, MaxTexLen 128",0.5,30,0.5570838513052893,0.9701630837657524,,0.001,"AttentionedYoonKimModel(
  (embedding): Linear(in_features=74, out_features=74, bias=True)
  (chars_cnn): Sequential(
    (0): Conv1d(74, 256, kernel_size=(5,), stride=(1,), padding=(2,))
    (1): ReLU()
    (2): MaxPool1d(kernel_size=8, stride=8, padding=0, dilation=1, ceil_mode=False)
  )
  (words_rnn): GRU(256, 128, dropout=0.5)
  (attention): MultiHeadAttention(
    (query_layer): Linear(in_features=128, out_features=128, bias=False)
    (key_layer): Linear(in_features=128, out_features=128, bias=False)
    (value_layer): Linear(in_features=128, out_features=128, bias=False)
    (bn): BatchNorm1d(128, eps=1e-05, momentum=0.1, affine=True)
  )
  (dropout): Dropout(p=0.5)
  (projector): Linear(in_features=128, out_features=2, bias=True)
)",charCNN,0.1,0.01,runs/May16_17-30-18_phobos-aijun_AttentionedYoonKim_lr3_dropout0.5_noise_level0.01_spacy_wordlen8_heads1_IMDB,Mokoron binary classification,298416
31,0.53912,0.9696941176470588,"MaxWordLen 8, MaxTexLen 128",0.5,30,0.5345774761673938,0.9701630837657524,,0.001,"AttentionedYoonKimModel(
  (embedding): Linear(in_features=74, out_features=74, bias=True)
  (chars_cnn): Sequential(
    (0): Conv1d(74, 256, kernel_size=(5,), stride=(1,), padding=(2,))
    (1): ReLU()
    (2): MaxPool1d(kernel_size=8, stride=8, padding=0, dilation=1, ceil_mode=False)
  )
  (words_rnn): GRU(256, 128, dropout=0.5)
  (attention): MultiHeadAttention(
    (query_layer): Linear(in_features=128, out_features=128, bias=False)
    (key_layer): Linear(in_features=128, out_features=128, bias=False)
    (value_layer): Linear(in_features=128, out_features=128, bias=False)
    (bn): BatchNorm1d(128, eps=1e-05, momentum=0.1, affine=True)
  )
  (dropout): Dropout(p=0.5)
  (projector): Linear(in_features=128, out_features=2, bias=True)
)",charCNN,0.125,0.01,runs/May16_17-30-18_phobos-aijun_AttentionedYoonKim_lr3_dropout0.5_noise_level0.01_spacy_wordlen8_heads1_IMDB,Mokoron binary classification,298416
32,0.52996,0.9696941176470588,"MaxWordLen 8, MaxTexLen 128",0.5,30,0.527027570939827,0.9701630837657524,,0.001,"AttentionedYoonKimModel(
  (embedding): Linear(in_features=74, out_features=74, bias=True)
  (chars_cnn): Sequential(
    (0): Conv1d(74, 256, kernel_size=(5,), stride=(1,), padding=(2,))
    (1): ReLU()
    (2): MaxPool1d(kernel_size=8, stride=8, padding=0, dilation=1, ceil_mode=False)
  )
  (words_rnn): GRU(256, 128, dropout=0.5)
  (attention): MultiHeadAttention(
    (query_layer): Linear(in_features=128, out_features=128, bias=False)
    (key_layer): Linear(in_features=128, out_features=128, bias=False)
    (value_layer): Linear(in_features=128, out_features=128, bias=False)
    (bn): BatchNorm1d(128, eps=1e-05, momentum=0.1, affine=True)
  )
  (dropout): Dropout(p=0.5)
  (projector): Linear(in_features=128, out_features=2, bias=True)
)",charCNN,0.15,0.01,runs/May16_17-30-18_phobos-aijun_AttentionedYoonKim_lr3_dropout0.5_noise_level0.01_spacy_wordlen8_heads1_IMDB,Mokoron binary classification,298416
33,0.5206,0.9696941176470588,"MaxWordLen 8, MaxTexLen 128",0.5,30,0.5146004617066948,0.9701630837657524,,0.001,"AttentionedYoonKimModel(
  (embedding): Linear(in_features=74, out_features=74, bias=True)
  (chars_cnn): Sequential(
    (0): Conv1d(74, 256, kernel_size=(5,), stride=(1,), padding=(2,))
    (1): ReLU()
    (2): MaxPool1d(kernel_size=8, stride=8, padding=0, dilation=1, ceil_mode=False)
  )
  (words_rnn): GRU(256, 128, dropout=0.5)
  (attention): MultiHeadAttention(
    (query_layer): Linear(in_features=128, out_features=128, bias=False)
    (key_layer): Linear(in_features=128, out_features=128, bias=False)
    (value_layer): Linear(in_features=128, out_features=128, bias=False)
    (bn): BatchNorm1d(128, eps=1e-05, momentum=0.1, affine=True)
  )
  (dropout): Dropout(p=0.5)
  (projector): Linear(in_features=128, out_features=2, bias=True)
)",charCNN,0.175,0.01,runs/May16_17-30-18_phobos-aijun_AttentionedYoonKim_lr3_dropout0.5_noise_level0.01_spacy_wordlen8_heads1_IMDB,Mokoron binary classification,298416
34,0.516,0.9696941176470588,"MaxWordLen 8, MaxTexLen 128",0.5,30,0.5044233289646135,0.9701630837657524,,0.001,"AttentionedYoonKimModel(
  (embedding): Linear(in_features=74, out_features=74, bias=True)
  (chars_cnn): Sequential(
    (0): Conv1d(74, 256, kernel_size=(5,), stride=(1,), padding=(2,))
    (1): ReLU()
    (2): MaxPool1d(kernel_size=8, stride=8, padding=0, dilation=1, ceil_mode=False)
  )
  (words_rnn): GRU(256, 128, dropout=0.5)
  (attention): MultiHeadAttention(
    (query_layer): Linear(in_features=128, out_features=128, bias=False)
    (key_layer): Linear(in_features=128, out_features=128, bias=False)
    (value_layer): Linear(in_features=128, out_features=128, bias=False)
    (bn): BatchNorm1d(128, eps=1e-05, momentum=0.1, affine=True)
  )
  (dropout): Dropout(p=0.5)
  (projector): Linear(in_features=128, out_features=2, bias=True)
)",charCNN,0.2,0.01,runs/May16_17-30-18_phobos-aijun_AttentionedYoonKim_lr3_dropout0.5_noise_level0.01_spacy_wordlen8_heads1_IMDB,Mokoron binary classification,298416
35,0.65192,0.9696941176470588,"MaxWordLen 8, MaxTexLen 128",0.5,30,0.6508866244082485,0.9701630837657524,,0.001,"AttentionedYoonKimModel(
  (embedding): Linear(in_features=74, out_features=74, bias=True)
  (chars_cnn): Sequential(
    (0): Conv1d(74, 256, kernel_size=(5,), stride=(1,), padding=(2,))
    (1): ReLU()
    (2): MaxPool1d(kernel_size=8, stride=8, padding=0, dilation=1, ceil_mode=False)
  )
  (words_rnn): GRU(256, 128, dropout=0.5)
  (attention): MultiHeadAttention(
    (query_layer): Linear(in_features=128, out_features=128, bias=False)
    (key_layer): Linear(in_features=128, out_features=128, bias=False)
    (value_layer): Linear(in_features=128, out_features=128, bias=False)
    (bn): BatchNorm1d(128, eps=1e-05, momentum=0.1, affine=True)
  )
  (dropout): Dropout(p=0.5)
  (projector): Linear(in_features=128, out_features=2, bias=True)
)",charCNN,-1.0,0.01,runs/May16_17-30-18_phobos-aijun_AttentionedYoonKim_lr3_dropout0.5_noise_level0.01_spacy_wordlen8_heads1_IMDB,Mokoron binary classification,298416
36,0.66152,0.9246117647058824,"MaxWordLen 8, MaxTexLen 128",0.5,30,0.669607996251757,0.9285777975925099,,0.001,"AttentionedYoonKimModel(
  (embedding): Linear(in_features=74, out_features=74, bias=True)
  (chars_cnn): Sequential(
    (0): Conv1d(74, 256, kernel_size=(5,), stride=(1,), padding=(2,))
    (1): ReLU()
    (2): MaxPool1d(kernel_size=8, stride=8, padding=0, dilation=1, ceil_mode=False)
  )
  (words_rnn): GRU(256, 128, dropout=0.5)
  (attention): MultiHeadAttention(
    (query_layer): Linear(in_features=128, out_features=128, bias=False)
    (key_layer): Linear(in_features=128, out_features=128, bias=False)
    (value_layer): Linear(in_features=128, out_features=128, bias=False)
    (bn): BatchNorm1d(128, eps=1e-05, momentum=0.1, affine=True)
  )
  (dropout): Dropout(p=0.5)
  (projector): Linear(in_features=128, out_features=2, bias=True)
)",charCNN,0.0,0.025,runs/May16_18-29-41_phobos-aijun_AttentionedYoonKim_lr3_dropout0.5_noise_level0.025_spacy_wordlen8_heads1_IMDB,Mokoron binary classification,298416
37,0.65372,0.9246117647058824,"MaxWordLen 8, MaxTexLen 128",0.5,30,0.6621131103391749,0.9285777975925099,,0.001,"AttentionedYoonKimModel(
  (embedding): Linear(in_features=74, out_features=74, bias=True)
  (chars_cnn): Sequential(
    (0): Conv1d(74, 256, kernel_size=(5,), stride=(1,), padding=(2,))
    (1): ReLU()
    (2): MaxPool1d(kernel_size=8, stride=8, padding=0, dilation=1, ceil_mode=False)
  )
  (words_rnn): GRU(256, 128, dropout=0.5)
  (attention): MultiHeadAttention(
    (query_layer): Linear(in_features=128, out_features=128, bias=False)
    (key_layer): Linear(in_features=128, out_features=128, bias=False)
    (value_layer): Linear(in_features=128, out_features=128, bias=False)
    (bn): BatchNorm1d(128, eps=1e-05, momentum=0.1, affine=True)
  )
  (dropout): Dropout(p=0.5)
  (projector): Linear(in_features=128, out_features=2, bias=True)
)",charCNN,0.005,0.025,runs/May16_18-29-41_phobos-aijun_AttentionedYoonKim_lr3_dropout0.5_noise_level0.025_spacy_wordlen8_heads1_IMDB,Mokoron binary classification,298416
38,0.64836,0.9246117647058824,"MaxWordLen 8, MaxTexLen 128",0.5,30,0.6578445490989764,0.9285777975925099,,0.001,"AttentionedYoonKimModel(
  (embedding): Linear(in_features=74, out_features=74, bias=True)
  (chars_cnn): Sequential(
    (0): Conv1d(74, 256, kernel_size=(5,), stride=(1,), padding=(2,))
    (1): ReLU()
    (2): MaxPool1d(kernel_size=8, stride=8, padding=0, dilation=1, ceil_mode=False)
  )
  (words_rnn): GRU(256, 128, dropout=0.5)
  (attention): MultiHeadAttention(
    (query_layer): Linear(in_features=128, out_features=128, bias=False)
    (key_layer): Linear(in_features=128, out_features=128, bias=False)
    (value_layer): Linear(in_features=128, out_features=128, bias=False)
    (bn): BatchNorm1d(128, eps=1e-05, momentum=0.1, affine=True)
  )
  (dropout): Dropout(p=0.5)
  (projector): Linear(in_features=128, out_features=2, bias=True)
)",charCNN,0.01,0.025,runs/May16_18-29-41_phobos-aijun_AttentionedYoonKim_lr3_dropout0.5_noise_level0.025_spacy_wordlen8_heads1_IMDB,Mokoron binary classification,298416
39,0.64028,0.9246117647058824,"MaxWordLen 8, MaxTexLen 128",0.5,30,0.6515286550160809,0.9285777975925099,,0.001,"AttentionedYoonKimModel(
  (embedding): Linear(in_features=74, out_features=74, bias=True)
  (chars_cnn): Sequential(
    (0): Conv1d(74, 256, kernel_size=(5,), stride=(1,), padding=(2,))
    (1): ReLU()
    (2): MaxPool1d(kernel_size=8, stride=8, padding=0, dilation=1, ceil_mode=False)
  )
  (words_rnn): GRU(256, 128, dropout=0.5)
  (attention): MultiHeadAttention(
    (query_layer): Linear(in_features=128, out_features=128, bias=False)
    (key_layer): Linear(in_features=128, out_features=128, bias=False)
    (value_layer): Linear(in_features=128, out_features=128, bias=False)
    (bn): BatchNorm1d(128, eps=1e-05, momentum=0.1, affine=True)
  )
  (dropout): Dropout(p=0.5)
  (projector): Linear(in_features=128, out_features=2, bias=True)
)",charCNN,0.025,0.025,runs/May16_18-29-41_phobos-aijun_AttentionedYoonKim_lr3_dropout0.5_noise_level0.025_spacy_wordlen8_heads1_IMDB,Mokoron binary classification,298416
40,0.61244,0.9246117647058824,"MaxWordLen 8, MaxTexLen 128",0.5,30,0.6234795787510201,0.9285777975925099,,0.001,"AttentionedYoonKimModel(
  (embedding): Linear(in_features=74, out_features=74, bias=True)
  (chars_cnn): Sequential(
    (0): Conv1d(74, 256, kernel_size=(5,), stride=(1,), padding=(2,))
    (1): ReLU()
    (2): MaxPool1d(kernel_size=8, stride=8, padding=0, dilation=1, ceil_mode=False)
  )
  (words_rnn): GRU(256, 128, dropout=0.5)
  (attention): MultiHeadAttention(
    (query_layer): Linear(in_features=128, out_features=128, bias=False)
    (key_layer): Linear(in_features=128, out_features=128, bias=False)
    (value_layer): Linear(in_features=128, out_features=128, bias=False)
    (bn): BatchNorm1d(128, eps=1e-05, momentum=0.1, affine=True)
  )
  (dropout): Dropout(p=0.5)
  (projector): Linear(in_features=128, out_features=2, bias=True)
)",charCNN,0.05,0.025,runs/May16_18-29-41_phobos-aijun_AttentionedYoonKim_lr3_dropout0.5_noise_level0.025_spacy_wordlen8_heads1_IMDB,Mokoron binary classification,298416
41,0.59164,0.9246117647058824,"MaxWordLen 8, MaxTexLen 128",0.5,30,0.6044096562948038,0.9285777975925099,,0.001,"AttentionedYoonKimModel(
  (embedding): Linear(in_features=74, out_features=74, bias=True)
  (chars_cnn): Sequential(
    (0): Conv1d(74, 256, kernel_size=(5,), stride=(1,), padding=(2,))
    (1): ReLU()
    (2): MaxPool1d(kernel_size=8, stride=8, padding=0, dilation=1, ceil_mode=False)
  )
  (words_rnn): GRU(256, 128, dropout=0.5)
  (attention): MultiHeadAttention(
    (query_layer): Linear(in_features=128, out_features=128, bias=False)
    (key_layer): Linear(in_features=128, out_features=128, bias=False)
    (value_layer): Linear(in_features=128, out_features=128, bias=False)
    (bn): BatchNorm1d(128, eps=1e-05, momentum=0.1, affine=True)
  )
  (dropout): Dropout(p=0.5)
  (projector): Linear(in_features=128, out_features=2, bias=True)
)",charCNN,0.075,0.025,runs/May16_18-29-41_phobos-aijun_AttentionedYoonKim_lr3_dropout0.5_noise_level0.025_spacy_wordlen8_heads1_IMDB,Mokoron binary classification,298416
42,0.5756,0.9246117647058824,"MaxWordLen 8, MaxTexLen 128",0.5,30,0.5929251074278699,0.9285777975925099,,0.001,"AttentionedYoonKimModel(
  (embedding): Linear(in_features=74, out_features=74, bias=True)
  (chars_cnn): Sequential(
    (0): Conv1d(74, 256, kernel_size=(5,), stride=(1,), padding=(2,))
    (1): ReLU()
    (2): MaxPool1d(kernel_size=8, stride=8, padding=0, dilation=1, ceil_mode=False)
  )
  (words_rnn): GRU(256, 128, dropout=0.5)
  (attention): MultiHeadAttention(
    (query_layer): Linear(in_features=128, out_features=128, bias=False)
    (key_layer): Linear(in_features=128, out_features=128, bias=False)
    (value_layer): Linear(in_features=128, out_features=128, bias=False)
    (bn): BatchNorm1d(128, eps=1e-05, momentum=0.1, affine=True)
  )
  (dropout): Dropout(p=0.5)
  (projector): Linear(in_features=128, out_features=2, bias=True)
)",charCNN,0.1,0.025,runs/May16_18-29-41_phobos-aijun_AttentionedYoonKim_lr3_dropout0.5_noise_level0.025_spacy_wordlen8_heads1_IMDB,Mokoron binary classification,298416
43,0.55928,0.9246117647058824,"MaxWordLen 8, MaxTexLen 128",0.5,30,0.5769142154980417,0.9285777975925099,,0.001,"AttentionedYoonKimModel(
  (embedding): Linear(in_features=74, out_features=74, bias=True)
  (chars_cnn): Sequential(
    (0): Conv1d(74, 256, kernel_size=(5,), stride=(1,), padding=(2,))
    (1): ReLU()
    (2): MaxPool1d(kernel_size=8, stride=8, padding=0, dilation=1, ceil_mode=False)
  )
  (words_rnn): GRU(256, 128, dropout=0.5)
  (attention): MultiHeadAttention(
    (query_layer): Linear(in_features=128, out_features=128, bias=False)
    (key_layer): Linear(in_features=128, out_features=128, bias=False)
    (value_layer): Linear(in_features=128, out_features=128, bias=False)
    (bn): BatchNorm1d(128, eps=1e-05, momentum=0.1, affine=True)
  )
  (dropout): Dropout(p=0.5)
  (projector): Linear(in_features=128, out_features=2, bias=True)
)",charCNN,0.125,0.025,runs/May16_18-29-41_phobos-aijun_AttentionedYoonKim_lr3_dropout0.5_noise_level0.025_spacy_wordlen8_heads1_IMDB,Mokoron binary classification,298416
44,0.54428,0.9246117647058824,"MaxWordLen 8, MaxTexLen 128",0.5,30,0.5622959007261132,0.9285777975925099,,0.001,"AttentionedYoonKimModel(
  (embedding): Linear(in_features=74, out_features=74, bias=True)
  (chars_cnn): Sequential(
    (0): Conv1d(74, 256, kernel_size=(5,), stride=(1,), padding=(2,))
    (1): ReLU()
    (2): MaxPool1d(kernel_size=8, stride=8, padding=0, dilation=1, ceil_mode=False)
  )
  (words_rnn): GRU(256, 128, dropout=0.5)
  (attention): MultiHeadAttention(
    (query_layer): Linear(in_features=128, out_features=128, bias=False)
    (key_layer): Linear(in_features=128, out_features=128, bias=False)
    (value_layer): Linear(in_features=128, out_features=128, bias=False)
    (bn): BatchNorm1d(128, eps=1e-05, momentum=0.1, affine=True)
  )
  (dropout): Dropout(p=0.5)
  (projector): Linear(in_features=128, out_features=2, bias=True)
)",charCNN,0.15,0.025,runs/May16_18-29-41_phobos-aijun_AttentionedYoonKim_lr3_dropout0.5_noise_level0.025_spacy_wordlen8_heads1_IMDB,Mokoron binary classification,298416
45,0.53616,0.9246117647058824,"MaxWordLen 8, MaxTexLen 128",0.5,30,0.5546166845905669,0.9285777975925099,,0.001,"AttentionedYoonKimModel(
  (embedding): Linear(in_features=74, out_features=74, bias=True)
  (chars_cnn): Sequential(
    (0): Conv1d(74, 256, kernel_size=(5,), stride=(1,), padding=(2,))
    (1): ReLU()
    (2): MaxPool1d(kernel_size=8, stride=8, padding=0, dilation=1, ceil_mode=False)
  )
  (words_rnn): GRU(256, 128, dropout=0.5)
  (attention): MultiHeadAttention(
    (query_layer): Linear(in_features=128, out_features=128, bias=False)
    (key_layer): Linear(in_features=128, out_features=128, bias=False)
    (value_layer): Linear(in_features=128, out_features=128, bias=False)
    (bn): BatchNorm1d(128, eps=1e-05, momentum=0.1, affine=True)
  )
  (dropout): Dropout(p=0.5)
  (projector): Linear(in_features=128, out_features=2, bias=True)
)",charCNN,0.175,0.025,runs/May16_18-29-41_phobos-aijun_AttentionedYoonKim_lr3_dropout0.5_noise_level0.025_spacy_wordlen8_heads1_IMDB,Mokoron binary classification,298416
46,0.52276,0.9246117647058824,"MaxWordLen 8, MaxTexLen 128",0.5,30,0.5445313991219699,0.9285777975925099,,0.001,"AttentionedYoonKimModel(
  (embedding): Linear(in_features=74, out_features=74, bias=True)
  (chars_cnn): Sequential(
    (0): Conv1d(74, 256, kernel_size=(5,), stride=(1,), padding=(2,))
    (1): ReLU()
    (2): MaxPool1d(kernel_size=8, stride=8, padding=0, dilation=1, ceil_mode=False)
  )
  (words_rnn): GRU(256, 128, dropout=0.5)
  (attention): MultiHeadAttention(
    (query_layer): Linear(in_features=128, out_features=128, bias=False)
    (key_layer): Linear(in_features=128, out_features=128, bias=False)
    (value_layer): Linear(in_features=128, out_features=128, bias=False)
    (bn): BatchNorm1d(128, eps=1e-05, momentum=0.1, affine=True)
  )
  (dropout): Dropout(p=0.5)
  (projector): Linear(in_features=128, out_features=2, bias=True)
)",charCNN,0.2,0.025,runs/May16_18-29-41_phobos-aijun_AttentionedYoonKim_lr3_dropout0.5_noise_level0.025_spacy_wordlen8_heads1_IMDB,Mokoron binary classification,298416
47,0.63708,0.9246117647058824,"MaxWordLen 8, MaxTexLen 128",0.5,30,0.6479922405431618,0.9285777975925099,,0.001,"AttentionedYoonKimModel(
  (embedding): Linear(in_features=74, out_features=74, bias=True)
  (chars_cnn): Sequential(
    (0): Conv1d(74, 256, kernel_size=(5,), stride=(1,), padding=(2,))
    (1): ReLU()
    (2): MaxPool1d(kernel_size=8, stride=8, padding=0, dilation=1, ceil_mode=False)
  )
  (words_rnn): GRU(256, 128, dropout=0.5)
  (attention): MultiHeadAttention(
    (query_layer): Linear(in_features=128, out_features=128, bias=False)
    (key_layer): Linear(in_features=128, out_features=128, bias=False)
    (value_layer): Linear(in_features=128, out_features=128, bias=False)
    (bn): BatchNorm1d(128, eps=1e-05, momentum=0.1, affine=True)
  )
  (dropout): Dropout(p=0.5)
  (projector): Linear(in_features=128, out_features=2, bias=True)
)",charCNN,-1.0,0.025,runs/May16_18-29-41_phobos-aijun_AttentionedYoonKim_lr3_dropout0.5_noise_level0.025_spacy_wordlen8_heads1_IMDB,Mokoron binary classification,298416
48,0.70964,0.8995764705882353,"MaxWordLen 8, MaxTexLen 128",0.5,30,0.7088830960497293,0.9030176331576077,,0.001,"AttentionedYoonKimModel(
  (embedding): Linear(in_features=74, out_features=74, bias=True)
  (chars_cnn): Sequential(
    (0): Conv1d(74, 256, kernel_size=(5,), stride=(1,), padding=(2,))
    (1): ReLU()
    (2): MaxPool1d(kernel_size=8, stride=8, padding=0, dilation=1, ceil_mode=False)
  )
  (words_rnn): GRU(256, 128, dropout=0.5)
  (attention): MultiHeadAttention(
    (query_layer): Linear(in_features=128, out_features=128, bias=False)
    (key_layer): Linear(in_features=128, out_features=128, bias=False)
    (value_layer): Linear(in_features=128, out_features=128, bias=False)
    (bn): BatchNorm1d(128, eps=1e-05, momentum=0.1, affine=True)
  )
  (dropout): Dropout(p=0.5)
  (projector): Linear(in_features=128, out_features=2, bias=True)
)",charCNN,0.0,0.05,runs/May16_19-33-07_phobos-aijun_AttentionedYoonKim_lr3_dropout0.5_noise_level0.05_spacy_wordlen8_heads1_IMDB,Mokoron binary classification,298416
49,0.7074,0.8995764705882353,"MaxWordLen 8, MaxTexLen 128",0.5,30,0.7072946260653835,0.9030176331576077,,0.001,"AttentionedYoonKimModel(
  (embedding): Linear(in_features=74, out_features=74, bias=True)
  (chars_cnn): Sequential(
    (0): Conv1d(74, 256, kernel_size=(5,), stride=(1,), padding=(2,))
    (1): ReLU()
    (2): MaxPool1d(kernel_size=8, stride=8, padding=0, dilation=1, ceil_mode=False)
  )
  (words_rnn): GRU(256, 128, dropout=0.5)
  (attention): MultiHeadAttention(
    (query_layer): Linear(in_features=128, out_features=128, bias=False)
    (key_layer): Linear(in_features=128, out_features=128, bias=False)
    (value_layer): Linear(in_features=128, out_features=128, bias=False)
    (bn): BatchNorm1d(128, eps=1e-05, momentum=0.1, affine=True)
  )
  (dropout): Dropout(p=0.5)
  (projector): Linear(in_features=128, out_features=2, bias=True)
)",charCNN,0.005,0.05,runs/May16_19-33-07_phobos-aijun_AttentionedYoonKim_lr3_dropout0.5_noise_level0.05_spacy_wordlen8_heads1_IMDB,Mokoron binary classification,298416
50,0.7062,0.8995764705882353,"MaxWordLen 8, MaxTexLen 128",0.5,30,0.7069852794510711,0.9030176331576077,,0.001,"AttentionedYoonKimModel(
  (embedding): Linear(in_features=74, out_features=74, bias=True)
  (chars_cnn): Sequential(
    (0): Conv1d(74, 256, kernel_size=(5,), stride=(1,), padding=(2,))
    (1): ReLU()
    (2): MaxPool1d(kernel_size=8, stride=8, padding=0, dilation=1, ceil_mode=False)
  )
  (words_rnn): GRU(256, 128, dropout=0.5)
  (attention): MultiHeadAttention(
    (query_layer): Linear(in_features=128, out_features=128, bias=False)
    (key_layer): Linear(in_features=128, out_features=128, bias=False)
    (value_layer): Linear(in_features=128, out_features=128, bias=False)
    (bn): BatchNorm1d(128, eps=1e-05, momentum=0.1, affine=True)
  )
  (dropout): Dropout(p=0.5)
  (projector): Linear(in_features=128, out_features=2, bias=True)
)",charCNN,0.01,0.05,runs/May16_19-33-07_phobos-aijun_AttentionedYoonKim_lr3_dropout0.5_noise_level0.05_spacy_wordlen8_heads1_IMDB,Mokoron binary classification,298416
51,0.6948,0.8995764705882353,"MaxWordLen 8, MaxTexLen 128",0.5,30,0.698323580578839,0.9030176331576077,,0.001,"AttentionedYoonKimModel(
  (embedding): Linear(in_features=74, out_features=74, bias=True)
  (chars_cnn): Sequential(
    (0): Conv1d(74, 256, kernel_size=(5,), stride=(1,), padding=(2,))
    (1): ReLU()
    (2): MaxPool1d(kernel_size=8, stride=8, padding=0, dilation=1, ceil_mode=False)
  )
  (words_rnn): GRU(256, 128, dropout=0.5)
  (attention): MultiHeadAttention(
    (query_layer): Linear(in_features=128, out_features=128, bias=False)
    (key_layer): Linear(in_features=128, out_features=128, bias=False)
    (value_layer): Linear(in_features=128, out_features=128, bias=False)
    (bn): BatchNorm1d(128, eps=1e-05, momentum=0.1, affine=True)
  )
  (dropout): Dropout(p=0.5)
  (projector): Linear(in_features=128, out_features=2, bias=True)
)",charCNN,0.025,0.05,runs/May16_19-33-07_phobos-aijun_AttentionedYoonKim_lr3_dropout0.5_noise_level0.05_spacy_wordlen8_heads1_IMDB,Mokoron binary classification,298416
52,0.68168,0.8995764705882353,"MaxWordLen 8, MaxTexLen 128",0.5,30,0.6914068559019698,0.9030176331576077,,0.001,"AttentionedYoonKimModel(
  (embedding): Linear(in_features=74, out_features=74, bias=True)
  (chars_cnn): Sequential(
    (0): Conv1d(74, 256, kernel_size=(5,), stride=(1,), padding=(2,))
    (1): ReLU()
    (2): MaxPool1d(kernel_size=8, stride=8, padding=0, dilation=1, ceil_mode=False)
  )
  (words_rnn): GRU(256, 128, dropout=0.5)
  (attention): MultiHeadAttention(
    (query_layer): Linear(in_features=128, out_features=128, bias=False)
    (key_layer): Linear(in_features=128, out_features=128, bias=False)
    (value_layer): Linear(in_features=128, out_features=128, bias=False)
    (bn): BatchNorm1d(128, eps=1e-05, momentum=0.1, affine=True)
  )
  (dropout): Dropout(p=0.5)
  (projector): Linear(in_features=128, out_features=2, bias=True)
)",charCNN,0.05,0.05,runs/May16_19-33-07_phobos-aijun_AttentionedYoonKim_lr3_dropout0.5_noise_level0.05_spacy_wordlen8_heads1_IMDB,Mokoron binary classification,298416
53,0.6646,0.8995764705882353,"MaxWordLen 8, MaxTexLen 128",0.5,30,0.6814330762509023,0.9030176331576077,,0.001,"AttentionedYoonKimModel(
  (embedding): Linear(in_features=74, out_features=74, bias=True)
  (chars_cnn): Sequential(
    (0): Conv1d(74, 256, kernel_size=(5,), stride=(1,), padding=(2,))
    (1): ReLU()
    (2): MaxPool1d(kernel_size=8, stride=8, padding=0, dilation=1, ceil_mode=False)
  )
  (words_rnn): GRU(256, 128, dropout=0.5)
  (attention): MultiHeadAttention(
    (query_layer): Linear(in_features=128, out_features=128, bias=False)
    (key_layer): Linear(in_features=128, out_features=128, bias=False)
    (value_layer): Linear(in_features=128, out_features=128, bias=False)
    (bn): BatchNorm1d(128, eps=1e-05, momentum=0.1, affine=True)
  )
  (dropout): Dropout(p=0.5)
  (projector): Linear(in_features=128, out_features=2, bias=True)
)",charCNN,0.075,0.05,runs/May16_19-33-07_phobos-aijun_AttentionedYoonKim_lr3_dropout0.5_noise_level0.05_spacy_wordlen8_heads1_IMDB,Mokoron binary classification,298416
54,0.6436,0.8995764705882353,"MaxWordLen 8, MaxTexLen 128",0.5,30,0.6657162152022211,0.9030176331576077,,0.001,"AttentionedYoonKimModel(
  (embedding): Linear(in_features=74, out_features=74, bias=True)
  (chars_cnn): Sequential(
    (0): Conv1d(74, 256, kernel_size=(5,), stride=(1,), padding=(2,))
    (1): ReLU()
    (2): MaxPool1d(kernel_size=8, stride=8, padding=0, dilation=1, ceil_mode=False)
  )
  (words_rnn): GRU(256, 128, dropout=0.5)
  (attention): MultiHeadAttention(
    (query_layer): Linear(in_features=128, out_features=128, bias=False)
    (key_layer): Linear(in_features=128, out_features=128, bias=False)
    (value_layer): Linear(in_features=128, out_features=128, bias=False)
    (bn): BatchNorm1d(128, eps=1e-05, momentum=0.1, affine=True)
  )
  (dropout): Dropout(p=0.5)
  (projector): Linear(in_features=128, out_features=2, bias=True)
)",charCNN,0.1,0.05,runs/May16_19-33-07_phobos-aijun_AttentionedYoonKim_lr3_dropout0.5_noise_level0.05_spacy_wordlen8_heads1_IMDB,Mokoron binary classification,298416
55,0.62696,0.8995764705882353,"MaxWordLen 8, MaxTexLen 128",0.5,30,0.6583382180539273,0.9030176331576077,,0.001,"AttentionedYoonKimModel(
  (embedding): Linear(in_features=74, out_features=74, bias=True)
  (chars_cnn): Sequential(
    (0): Conv1d(74, 256, kernel_size=(5,), stride=(1,), padding=(2,))
    (1): ReLU()
    (2): MaxPool1d(kernel_size=8, stride=8, padding=0, dilation=1, ceil_mode=False)
  )
  (words_rnn): GRU(256, 128, dropout=0.5)
  (attention): MultiHeadAttention(
    (query_layer): Linear(in_features=128, out_features=128, bias=False)
    (key_layer): Linear(in_features=128, out_features=128, bias=False)
    (value_layer): Linear(in_features=128, out_features=128, bias=False)
    (bn): BatchNorm1d(128, eps=1e-05, momentum=0.1, affine=True)
  )
  (dropout): Dropout(p=0.5)
  (projector): Linear(in_features=128, out_features=2, bias=True)
)",charCNN,0.125,0.05,runs/May16_19-33-07_phobos-aijun_AttentionedYoonKim_lr3_dropout0.5_noise_level0.05_spacy_wordlen8_heads1_IMDB,Mokoron binary classification,298416
56,0.60416,0.8995764705882353,"MaxWordLen 8, MaxTexLen 128",0.5,30,0.6454825535573548,0.9030176331576077,,0.001,"AttentionedYoonKimModel(
  (embedding): Linear(in_features=74, out_features=74, bias=True)
  (chars_cnn): Sequential(
    (0): Conv1d(74, 256, kernel_size=(5,), stride=(1,), padding=(2,))
    (1): ReLU()
    (2): MaxPool1d(kernel_size=8, stride=8, padding=0, dilation=1, ceil_mode=False)
  )
  (words_rnn): GRU(256, 128, dropout=0.5)
  (attention): MultiHeadAttention(
    (query_layer): Linear(in_features=128, out_features=128, bias=False)
    (key_layer): Linear(in_features=128, out_features=128, bias=False)
    (value_layer): Linear(in_features=128, out_features=128, bias=False)
    (bn): BatchNorm1d(128, eps=1e-05, momentum=0.1, affine=True)
  )
  (dropout): Dropout(p=0.5)
  (projector): Linear(in_features=128, out_features=2, bias=True)
)",charCNN,0.15,0.05,runs/May16_19-33-07_phobos-aijun_AttentionedYoonKim_lr3_dropout0.5_noise_level0.05_spacy_wordlen8_heads1_IMDB,Mokoron binary classification,298416
57,0.59036,0.8995764705882353,"MaxWordLen 8, MaxTexLen 128",0.5,30,0.6405026854354618,0.9030176331576077,,0.001,"AttentionedYoonKimModel(
  (embedding): Linear(in_features=74, out_features=74, bias=True)
  (chars_cnn): Sequential(
    (0): Conv1d(74, 256, kernel_size=(5,), stride=(1,), padding=(2,))
    (1): ReLU()
    (2): MaxPool1d(kernel_size=8, stride=8, padding=0, dilation=1, ceil_mode=False)
  )
  (words_rnn): GRU(256, 128, dropout=0.5)
  (attention): MultiHeadAttention(
    (query_layer): Linear(in_features=128, out_features=128, bias=False)
    (key_layer): Linear(in_features=128, out_features=128, bias=False)
    (value_layer): Linear(in_features=128, out_features=128, bias=False)
    (bn): BatchNorm1d(128, eps=1e-05, momentum=0.1, affine=True)
  )
  (dropout): Dropout(p=0.5)
  (projector): Linear(in_features=128, out_features=2, bias=True)
)",charCNN,0.175,0.05,runs/May16_19-33-07_phobos-aijun_AttentionedYoonKim_lr3_dropout0.5_noise_level0.05_spacy_wordlen8_heads1_IMDB,Mokoron binary classification,298416
58,0.58012,0.8995764705882353,"MaxWordLen 8, MaxTexLen 128",0.5,30,0.6376971663272702,0.9030176331576077,,0.001,"AttentionedYoonKimModel(
  (embedding): Linear(in_features=74, out_features=74, bias=True)
  (chars_cnn): Sequential(
    (0): Conv1d(74, 256, kernel_size=(5,), stride=(1,), padding=(2,))
    (1): ReLU()
    (2): MaxPool1d(kernel_size=8, stride=8, padding=0, dilation=1, ceil_mode=False)
  )
  (words_rnn): GRU(256, 128, dropout=0.5)
  (attention): MultiHeadAttention(
    (query_layer): Linear(in_features=128, out_features=128, bias=False)
    (key_layer): Linear(in_features=128, out_features=128, bias=False)
    (value_layer): Linear(in_features=128, out_features=128, bias=False)
    (bn): BatchNorm1d(128, eps=1e-05, momentum=0.1, affine=True)
  )
  (dropout): Dropout(p=0.5)
  (projector): Linear(in_features=128, out_features=2, bias=True)
)",charCNN,0.2,0.05,runs/May16_19-33-07_phobos-aijun_AttentionedYoonKim_lr3_dropout0.5_noise_level0.05_spacy_wordlen8_heads1_IMDB,Mokoron binary classification,298416
59,0.67956,0.8995764705882353,"MaxWordLen 8, MaxTexLen 128",0.5,30,0.6888569542082572,0.9030176331576077,,0.001,"AttentionedYoonKimModel(
  (embedding): Linear(in_features=74, out_features=74, bias=True)
  (chars_cnn): Sequential(
    (0): Conv1d(74, 256, kernel_size=(5,), stride=(1,), padding=(2,))
    (1): ReLU()
    (2): MaxPool1d(kernel_size=8, stride=8, padding=0, dilation=1, ceil_mode=False)
  )
  (words_rnn): GRU(256, 128, dropout=0.5)
  (attention): MultiHeadAttention(
    (query_layer): Linear(in_features=128, out_features=128, bias=False)
    (key_layer): Linear(in_features=128, out_features=128, bias=False)
    (value_layer): Linear(in_features=128, out_features=128, bias=False)
    (bn): BatchNorm1d(128, eps=1e-05, momentum=0.1, affine=True)
  )
  (dropout): Dropout(p=0.5)
  (projector): Linear(in_features=128, out_features=2, bias=True)
)",charCNN,-1.0,0.05,runs/May16_19-33-07_phobos-aijun_AttentionedYoonKim_lr3_dropout0.5_noise_level0.05_spacy_wordlen8_heads1_IMDB,Mokoron binary classification,298416
60,0.68008,0.8624941176470589,"MaxWordLen 8, MaxTexLen 128",0.5,30,0.6680225801095799,0.8589904449377472,,0.001,"AttentionedYoonKimModel(
  (embedding): Linear(in_features=74, out_features=74, bias=True)
  (chars_cnn): Sequential(
    (0): Conv1d(74, 256, kernel_size=(5,), stride=(1,), padding=(2,))
    (1): ReLU()
    (2): MaxPool1d(kernel_size=8, stride=8, padding=0, dilation=1, ceil_mode=False)
  )
  (words_rnn): GRU(256, 128, dropout=0.5)
  (attention): MultiHeadAttention(
    (query_layer): Linear(in_features=128, out_features=128, bias=False)
    (key_layer): Linear(in_features=128, out_features=128, bias=False)
    (value_layer): Linear(in_features=128, out_features=128, bias=False)
    (bn): BatchNorm1d(128, eps=1e-05, momentum=0.1, affine=True)
  )
  (dropout): Dropout(p=0.5)
  (projector): Linear(in_features=128, out_features=2, bias=True)
)",charCNN,0.0,0.075,runs/May16_20-33-51_phobos-aijun_AttentionedYoonKim_lr3_dropout0.5_noise_level0.075_spacy_wordlen8_heads1_IMDB,Mokoron binary classification,298416
61,0.67748,0.8624941176470589,"MaxWordLen 8, MaxTexLen 128",0.5,30,0.6658654842319008,0.8589904449377472,,0.001,"AttentionedYoonKimModel(
  (embedding): Linear(in_features=74, out_features=74, bias=True)
  (chars_cnn): Sequential(
    (0): Conv1d(74, 256, kernel_size=(5,), stride=(1,), padding=(2,))
    (1): ReLU()
    (2): MaxPool1d(kernel_size=8, stride=8, padding=0, dilation=1, ceil_mode=False)
  )
  (words_rnn): GRU(256, 128, dropout=0.5)
  (attention): MultiHeadAttention(
    (query_layer): Linear(in_features=128, out_features=128, bias=False)
    (key_layer): Linear(in_features=128, out_features=128, bias=False)
    (value_layer): Linear(in_features=128, out_features=128, bias=False)
    (bn): BatchNorm1d(128, eps=1e-05, momentum=0.1, affine=True)
  )
  (dropout): Dropout(p=0.5)
  (projector): Linear(in_features=128, out_features=2, bias=True)
)",charCNN,0.005,0.075,runs/May16_20-33-51_phobos-aijun_AttentionedYoonKim_lr3_dropout0.5_noise_level0.075_spacy_wordlen8_heads1_IMDB,Mokoron binary classification,298416
62,0.67068,0.8624941176470589,"MaxWordLen 8, MaxTexLen 128",0.5,30,0.6588771493681376,0.8589904449377472,,0.001,"AttentionedYoonKimModel(
  (embedding): Linear(in_features=74, out_features=74, bias=True)
  (chars_cnn): Sequential(
    (0): Conv1d(74, 256, kernel_size=(5,), stride=(1,), padding=(2,))
    (1): ReLU()
    (2): MaxPool1d(kernel_size=8, stride=8, padding=0, dilation=1, ceil_mode=False)
  )
  (words_rnn): GRU(256, 128, dropout=0.5)
  (attention): MultiHeadAttention(
    (query_layer): Linear(in_features=128, out_features=128, bias=False)
    (key_layer): Linear(in_features=128, out_features=128, bias=False)
    (value_layer): Linear(in_features=128, out_features=128, bias=False)
    (bn): BatchNorm1d(128, eps=1e-05, momentum=0.1, affine=True)
  )
  (dropout): Dropout(p=0.5)
  (projector): Linear(in_features=128, out_features=2, bias=True)
)",charCNN,0.01,0.075,runs/May16_20-33-51_phobos-aijun_AttentionedYoonKim_lr3_dropout0.5_noise_level0.075_spacy_wordlen8_heads1_IMDB,Mokoron binary classification,298416
63,0.65848,0.8624941176470589,"MaxWordLen 8, MaxTexLen 128",0.5,30,0.6468398411647915,0.8589904449377472,,0.001,"AttentionedYoonKimModel(
  (embedding): Linear(in_features=74, out_features=74, bias=True)
  (chars_cnn): Sequential(
    (0): Conv1d(74, 256, kernel_size=(5,), stride=(1,), padding=(2,))
    (1): ReLU()
    (2): MaxPool1d(kernel_size=8, stride=8, padding=0, dilation=1, ceil_mode=False)
  )
  (words_rnn): GRU(256, 128, dropout=0.5)
  (attention): MultiHeadAttention(
    (query_layer): Linear(in_features=128, out_features=128, bias=False)
    (key_layer): Linear(in_features=128, out_features=128, bias=False)
    (value_layer): Linear(in_features=128, out_features=128, bias=False)
    (bn): BatchNorm1d(128, eps=1e-05, momentum=0.1, affine=True)
  )
  (dropout): Dropout(p=0.5)
  (projector): Linear(in_features=128, out_features=2, bias=True)
)",charCNN,0.025,0.075,runs/May16_20-33-51_phobos-aijun_AttentionedYoonKim_lr3_dropout0.5_noise_level0.075_spacy_wordlen8_heads1_IMDB,Mokoron binary classification,298416
64,0.63776,0.8624941176470589,"MaxWordLen 8, MaxTexLen 128",0.5,30,0.628517515792928,0.8589904449377472,,0.001,"AttentionedYoonKimModel(
  (embedding): Linear(in_features=74, out_features=74, bias=True)
  (chars_cnn): Sequential(
    (0): Conv1d(74, 256, kernel_size=(5,), stride=(1,), padding=(2,))
    (1): ReLU()
    (2): MaxPool1d(kernel_size=8, stride=8, padding=0, dilation=1, ceil_mode=False)
  )
  (words_rnn): GRU(256, 128, dropout=0.5)
  (attention): MultiHeadAttention(
    (query_layer): Linear(in_features=128, out_features=128, bias=False)
    (key_layer): Linear(in_features=128, out_features=128, bias=False)
    (value_layer): Linear(in_features=128, out_features=128, bias=False)
    (bn): BatchNorm1d(128, eps=1e-05, momentum=0.1, affine=True)
  )
  (dropout): Dropout(p=0.5)
  (projector): Linear(in_features=128, out_features=2, bias=True)
)",charCNN,0.05,0.075,runs/May16_20-33-51_phobos-aijun_AttentionedYoonKim_lr3_dropout0.5_noise_level0.075_spacy_wordlen8_heads1_IMDB,Mokoron binary classification,298416
65,0.61916,0.8624941176470589,"MaxWordLen 8, MaxTexLen 128",0.5,30,0.6132347564691067,0.8589904449377472,,0.001,"AttentionedYoonKimModel(
  (embedding): Linear(in_features=74, out_features=74, bias=True)
  (chars_cnn): Sequential(
    (0): Conv1d(74, 256, kernel_size=(5,), stride=(1,), padding=(2,))
    (1): ReLU()
    (2): MaxPool1d(kernel_size=8, stride=8, padding=0, dilation=1, ceil_mode=False)
  )
  (words_rnn): GRU(256, 128, dropout=0.5)
  (attention): MultiHeadAttention(
    (query_layer): Linear(in_features=128, out_features=128, bias=False)
    (key_layer): Linear(in_features=128, out_features=128, bias=False)
    (value_layer): Linear(in_features=128, out_features=128, bias=False)
    (bn): BatchNorm1d(128, eps=1e-05, momentum=0.1, affine=True)
  )
  (dropout): Dropout(p=0.5)
  (projector): Linear(in_features=128, out_features=2, bias=True)
)",charCNN,0.075,0.075,runs/May16_20-33-51_phobos-aijun_AttentionedYoonKim_lr3_dropout0.5_noise_level0.075_spacy_wordlen8_heads1_IMDB,Mokoron binary classification,298416
66,0.601,0.8624941176470589,"MaxWordLen 8, MaxTexLen 128",0.5,30,0.5991561181434599,0.8589904449377472,,0.001,"AttentionedYoonKimModel(
  (embedding): Linear(in_features=74, out_features=74, bias=True)
  (chars_cnn): Sequential(
    (0): Conv1d(74, 256, kernel_size=(5,), stride=(1,), padding=(2,))
    (1): ReLU()
    (2): MaxPool1d(kernel_size=8, stride=8, padding=0, dilation=1, ceil_mode=False)
  )
  (words_rnn): GRU(256, 128, dropout=0.5)
  (attention): MultiHeadAttention(
    (query_layer): Linear(in_features=128, out_features=128, bias=False)
    (key_layer): Linear(in_features=128, out_features=128, bias=False)
    (value_layer): Linear(in_features=128, out_features=128, bias=False)
    (bn): BatchNorm1d(128, eps=1e-05, momentum=0.1, affine=True)
  )
  (dropout): Dropout(p=0.5)
  (projector): Linear(in_features=128, out_features=2, bias=True)
)",charCNN,0.1,0.075,runs/May16_20-33-51_phobos-aijun_AttentionedYoonKim_lr3_dropout0.5_noise_level0.075_spacy_wordlen8_heads1_IMDB,Mokoron binary classification,298416
67,0.58632,0.8624941176470589,"MaxWordLen 8, MaxTexLen 128",0.5,30,0.5918061256709819,0.8589904449377472,,0.001,"AttentionedYoonKimModel(
  (embedding): Linear(in_features=74, out_features=74, bias=True)
  (chars_cnn): Sequential(
    (0): Conv1d(74, 256, kernel_size=(5,), stride=(1,), padding=(2,))
    (1): ReLU()
    (2): MaxPool1d(kernel_size=8, stride=8, padding=0, dilation=1, ceil_mode=False)
  )
  (words_rnn): GRU(256, 128, dropout=0.5)
  (attention): MultiHeadAttention(
    (query_layer): Linear(in_features=128, out_features=128, bias=False)
    (key_layer): Linear(in_features=128, out_features=128, bias=False)
    (value_layer): Linear(in_features=128, out_features=128, bias=False)
    (bn): BatchNorm1d(128, eps=1e-05, momentum=0.1, affine=True)
  )
  (dropout): Dropout(p=0.5)
  (projector): Linear(in_features=128, out_features=2, bias=True)
)",charCNN,0.125,0.075,runs/May16_20-33-51_phobos-aijun_AttentionedYoonKim_lr3_dropout0.5_noise_level0.075_spacy_wordlen8_heads1_IMDB,Mokoron binary classification,298416
68,0.57252,0.8624941176470589,"MaxWordLen 8, MaxTexLen 128",0.5,30,0.5842766561636908,0.8589904449377472,,0.001,"AttentionedYoonKimModel(
  (embedding): Linear(in_features=74, out_features=74, bias=True)
  (chars_cnn): Sequential(
    (0): Conv1d(74, 256, kernel_size=(5,), stride=(1,), padding=(2,))
    (1): ReLU()
    (2): MaxPool1d(kernel_size=8, stride=8, padding=0, dilation=1, ceil_mode=False)
  )
  (words_rnn): GRU(256, 128, dropout=0.5)
  (attention): MultiHeadAttention(
    (query_layer): Linear(in_features=128, out_features=128, bias=False)
    (key_layer): Linear(in_features=128, out_features=128, bias=False)
    (value_layer): Linear(in_features=128, out_features=128, bias=False)
    (bn): BatchNorm1d(128, eps=1e-05, momentum=0.1, affine=True)
  )
  (dropout): Dropout(p=0.5)
  (projector): Linear(in_features=128, out_features=2, bias=True)
)",charCNN,0.15,0.075,runs/May16_20-33-51_phobos-aijun_AttentionedYoonKim_lr3_dropout0.5_noise_level0.075_spacy_wordlen8_heads1_IMDB,Mokoron binary classification,298416
69,0.55908,0.8624941176470589,"MaxWordLen 8, MaxTexLen 128",0.5,30,0.5770957222328793,0.8589904449377472,,0.001,"AttentionedYoonKimModel(
  (embedding): Linear(in_features=74, out_features=74, bias=True)
  (chars_cnn): Sequential(
    (0): Conv1d(74, 256, kernel_size=(5,), stride=(1,), padding=(2,))
    (1): ReLU()
    (2): MaxPool1d(kernel_size=8, stride=8, padding=0, dilation=1, ceil_mode=False)
  )
  (words_rnn): GRU(256, 128, dropout=0.5)
  (attention): MultiHeadAttention(
    (query_layer): Linear(in_features=128, out_features=128, bias=False)
    (key_layer): Linear(in_features=128, out_features=128, bias=False)
    (value_layer): Linear(in_features=128, out_features=128, bias=False)
    (bn): BatchNorm1d(128, eps=1e-05, momentum=0.1, affine=True)
  )
  (dropout): Dropout(p=0.5)
  (projector): Linear(in_features=128, out_features=2, bias=True)
)",charCNN,0.175,0.075,runs/May16_20-33-51_phobos-aijun_AttentionedYoonKim_lr3_dropout0.5_noise_level0.075_spacy_wordlen8_heads1_IMDB,Mokoron binary classification,298416
70,0.54852,0.8624941176470589,"MaxWordLen 8, MaxTexLen 128",0.5,30,0.5775665256933268,0.8589904449377472,,0.001,"AttentionedYoonKimModel(
  (embedding): Linear(in_features=74, out_features=74, bias=True)
  (chars_cnn): Sequential(
    (0): Conv1d(74, 256, kernel_size=(5,), stride=(1,), padding=(2,))
    (1): ReLU()
    (2): MaxPool1d(kernel_size=8, stride=8, padding=0, dilation=1, ceil_mode=False)
  )
  (words_rnn): GRU(256, 128, dropout=0.5)
  (attention): MultiHeadAttention(
    (query_layer): Linear(in_features=128, out_features=128, bias=False)
    (key_layer): Linear(in_features=128, out_features=128, bias=False)
    (value_layer): Linear(in_features=128, out_features=128, bias=False)
    (bn): BatchNorm1d(128, eps=1e-05, momentum=0.1, affine=True)
  )
  (dropout): Dropout(p=0.5)
  (projector): Linear(in_features=128, out_features=2, bias=True)
)",charCNN,0.2,0.075,runs/May16_20-33-51_phobos-aijun_AttentionedYoonKim_lr3_dropout0.5_noise_level0.075_spacy_wordlen8_heads1_IMDB,Mokoron binary classification,298416
71,0.6184,0.8624941176470589,"MaxWordLen 8, MaxTexLen 128",0.5,30,0.6120058565153734,0.8589904449377472,,0.001,"AttentionedYoonKimModel(
  (embedding): Linear(in_features=74, out_features=74, bias=True)
  (chars_cnn): Sequential(
    (0): Conv1d(74, 256, kernel_size=(5,), stride=(1,), padding=(2,))
    (1): ReLU()
    (2): MaxPool1d(kernel_size=8, stride=8, padding=0, dilation=1, ceil_mode=False)
  )
  (words_rnn): GRU(256, 128, dropout=0.5)
  (attention): MultiHeadAttention(
    (query_layer): Linear(in_features=128, out_features=128, bias=False)
    (key_layer): Linear(in_features=128, out_features=128, bias=False)
    (value_layer): Linear(in_features=128, out_features=128, bias=False)
    (bn): BatchNorm1d(128, eps=1e-05, momentum=0.1, affine=True)
  )
  (dropout): Dropout(p=0.5)
  (projector): Linear(in_features=128, out_features=2, bias=True)
)",charCNN,-1.0,0.075,runs/May16_20-33-51_phobos-aijun_AttentionedYoonKim_lr3_dropout0.5_noise_level0.075_spacy_wordlen8_heads1_IMDB,Mokoron binary classification,298416
72,0.70896,0.8210352941176471,"MaxWordLen 8, MaxTexLen 128",0.5,30,0.7258684349333131,0.8340822826229223,,0.001,"AttentionedYoonKimModel(
  (embedding): Linear(in_features=74, out_features=74, bias=True)
  (chars_cnn): Sequential(
    (0): Conv1d(74, 256, kernel_size=(5,), stride=(1,), padding=(2,))
    (1): ReLU()
    (2): MaxPool1d(kernel_size=8, stride=8, padding=0, dilation=1, ceil_mode=False)
  )
  (words_rnn): GRU(256, 128, dropout=0.5)
  (attention): MultiHeadAttention(
    (query_layer): Linear(in_features=128, out_features=128, bias=False)
    (key_layer): Linear(in_features=128, out_features=128, bias=False)
    (value_layer): Linear(in_features=128, out_features=128, bias=False)
    (bn): BatchNorm1d(128, eps=1e-05, momentum=0.1, affine=True)
  )
  (dropout): Dropout(p=0.5)
  (projector): Linear(in_features=128, out_features=2, bias=True)
)",charCNN,0.0,0.1,runs/May16_21-32-48_phobos-aijun_AttentionedYoonKim_lr3_dropout0.5_noise_level0.1_spacy_wordlen8_heads1_IMDB,Mokoron binary classification,298416
73,0.70648,0.8210352941176471,"MaxWordLen 8, MaxTexLen 128",0.5,30,0.7234700030147724,0.8340822826229223,,0.001,"AttentionedYoonKimModel(
  (embedding): Linear(in_features=74, out_features=74, bias=True)
  (chars_cnn): Sequential(
    (0): Conv1d(74, 256, kernel_size=(5,), stride=(1,), padding=(2,))
    (1): ReLU()
    (2): MaxPool1d(kernel_size=8, stride=8, padding=0, dilation=1, ceil_mode=False)
  )
  (words_rnn): GRU(256, 128, dropout=0.5)
  (attention): MultiHeadAttention(
    (query_layer): Linear(in_features=128, out_features=128, bias=False)
    (key_layer): Linear(in_features=128, out_features=128, bias=False)
    (value_layer): Linear(in_features=128, out_features=128, bias=False)
    (bn): BatchNorm1d(128, eps=1e-05, momentum=0.1, affine=True)
  )
  (dropout): Dropout(p=0.5)
  (projector): Linear(in_features=128, out_features=2, bias=True)
)",charCNN,0.005,0.1,runs/May16_21-32-48_phobos-aijun_AttentionedYoonKim_lr3_dropout0.5_noise_level0.1_spacy_wordlen8_heads1_IMDB,Mokoron binary classification,298416
74,0.7028,0.8210352941176471,"MaxWordLen 8, MaxTexLen 128",0.5,30,0.7211170332557615,0.8340822826229223,,0.001,"AttentionedYoonKimModel(
  (embedding): Linear(in_features=74, out_features=74, bias=True)
  (chars_cnn): Sequential(
    (0): Conv1d(74, 256, kernel_size=(5,), stride=(1,), padding=(2,))
    (1): ReLU()
    (2): MaxPool1d(kernel_size=8, stride=8, padding=0, dilation=1, ceil_mode=False)
  )
  (words_rnn): GRU(256, 128, dropout=0.5)
  (attention): MultiHeadAttention(
    (query_layer): Linear(in_features=128, out_features=128, bias=False)
    (key_layer): Linear(in_features=128, out_features=128, bias=False)
    (value_layer): Linear(in_features=128, out_features=128, bias=False)
    (bn): BatchNorm1d(128, eps=1e-05, momentum=0.1, affine=True)
  )
  (dropout): Dropout(p=0.5)
  (projector): Linear(in_features=128, out_features=2, bias=True)
)",charCNN,0.01,0.1,runs/May16_21-32-48_phobos-aijun_AttentionedYoonKim_lr3_dropout0.5_noise_level0.1_spacy_wordlen8_heads1_IMDB,Mokoron binary classification,298416
75,0.6952,0.8210352941176471,"MaxWordLen 8, MaxTexLen 128",0.5,30,0.7152040663776349,0.8340822826229223,,0.001,"AttentionedYoonKimModel(
  (embedding): Linear(in_features=74, out_features=74, bias=True)
  (chars_cnn): Sequential(
    (0): Conv1d(74, 256, kernel_size=(5,), stride=(1,), padding=(2,))
    (1): ReLU()
    (2): MaxPool1d(kernel_size=8, stride=8, padding=0, dilation=1, ceil_mode=False)
  )
  (words_rnn): GRU(256, 128, dropout=0.5)
  (attention): MultiHeadAttention(
    (query_layer): Linear(in_features=128, out_features=128, bias=False)
    (key_layer): Linear(in_features=128, out_features=128, bias=False)
    (value_layer): Linear(in_features=128, out_features=128, bias=False)
    (bn): BatchNorm1d(128, eps=1e-05, momentum=0.1, affine=True)
  )
  (dropout): Dropout(p=0.5)
  (projector): Linear(in_features=128, out_features=2, bias=True)
)",charCNN,0.025,0.1,runs/May16_21-32-48_phobos-aijun_AttentionedYoonKim_lr3_dropout0.5_noise_level0.1_spacy_wordlen8_heads1_IMDB,Mokoron binary classification,298416
76,0.67424,0.8210352941176471,"MaxWordLen 8, MaxTexLen 128",0.5,30,0.7001914298336033,0.8340822826229223,,0.001,"AttentionedYoonKimModel(
  (embedding): Linear(in_features=74, out_features=74, bias=True)
  (chars_cnn): Sequential(
    (0): Conv1d(74, 256, kernel_size=(5,), stride=(1,), padding=(2,))
    (1): ReLU()
    (2): MaxPool1d(kernel_size=8, stride=8, padding=0, dilation=1, ceil_mode=False)
  )
  (words_rnn): GRU(256, 128, dropout=0.5)
  (attention): MultiHeadAttention(
    (query_layer): Linear(in_features=128, out_features=128, bias=False)
    (key_layer): Linear(in_features=128, out_features=128, bias=False)
    (value_layer): Linear(in_features=128, out_features=128, bias=False)
    (bn): BatchNorm1d(128, eps=1e-05, momentum=0.1, affine=True)
  )
  (dropout): Dropout(p=0.5)
  (projector): Linear(in_features=128, out_features=2, bias=True)
)",charCNN,0.05,0.1,runs/May16_21-32-48_phobos-aijun_AttentionedYoonKim_lr3_dropout0.5_noise_level0.1_spacy_wordlen8_heads1_IMDB,Mokoron binary classification,298416
77,0.66452,0.8210352941176471,"MaxWordLen 8, MaxTexLen 128",0.5,30,0.6943178918978021,0.8340822826229223,,0.001,"AttentionedYoonKimModel(
  (embedding): Linear(in_features=74, out_features=74, bias=True)
  (chars_cnn): Sequential(
    (0): Conv1d(74, 256, kernel_size=(5,), stride=(1,), padding=(2,))
    (1): ReLU()
    (2): MaxPool1d(kernel_size=8, stride=8, padding=0, dilation=1, ceil_mode=False)
  )
  (words_rnn): GRU(256, 128, dropout=0.5)
  (attention): MultiHeadAttention(
    (query_layer): Linear(in_features=128, out_features=128, bias=False)
    (key_layer): Linear(in_features=128, out_features=128, bias=False)
    (value_layer): Linear(in_features=128, out_features=128, bias=False)
    (bn): BatchNorm1d(128, eps=1e-05, momentum=0.1, affine=True)
  )
  (dropout): Dropout(p=0.5)
  (projector): Linear(in_features=128, out_features=2, bias=True)
)",charCNN,0.075,0.1,runs/May16_21-32-48_phobos-aijun_AttentionedYoonKim_lr3_dropout0.5_noise_level0.1_spacy_wordlen8_heads1_IMDB,Mokoron binary classification,298416
78,0.64052,0.8210352941176471,"MaxWordLen 8, MaxTexLen 128",0.5,30,0.677040284615661,0.8340822826229223,,0.001,"AttentionedYoonKimModel(
  (embedding): Linear(in_features=74, out_features=74, bias=True)
  (chars_cnn): Sequential(
    (0): Conv1d(74, 256, kernel_size=(5,), stride=(1,), padding=(2,))
    (1): ReLU()
    (2): MaxPool1d(kernel_size=8, stride=8, padding=0, dilation=1, ceil_mode=False)
  )
  (words_rnn): GRU(256, 128, dropout=0.5)
  (attention): MultiHeadAttention(
    (query_layer): Linear(in_features=128, out_features=128, bias=False)
    (key_layer): Linear(in_features=128, out_features=128, bias=False)
    (value_layer): Linear(in_features=128, out_features=128, bias=False)
    (bn): BatchNorm1d(128, eps=1e-05, momentum=0.1, affine=True)
  )
  (dropout): Dropout(p=0.5)
  (projector): Linear(in_features=128, out_features=2, bias=True)
)",charCNN,0.1,0.1,runs/May16_21-32-48_phobos-aijun_AttentionedYoonKim_lr3_dropout0.5_noise_level0.1_spacy_wordlen8_heads1_IMDB,Mokoron binary classification,298416
79,0.623,0.8210352941176471,"MaxWordLen 8, MaxTexLen 128",0.5,30,0.6673020579618059,0.8340822826229223,,0.001,"AttentionedYoonKimModel(
  (embedding): Linear(in_features=74, out_features=74, bias=True)
  (chars_cnn): Sequential(
    (0): Conv1d(74, 256, kernel_size=(5,), stride=(1,), padding=(2,))
    (1): ReLU()
    (2): MaxPool1d(kernel_size=8, stride=8, padding=0, dilation=1, ceil_mode=False)
  )
  (words_rnn): GRU(256, 128, dropout=0.5)
  (attention): MultiHeadAttention(
    (query_layer): Linear(in_features=128, out_features=128, bias=False)
    (key_layer): Linear(in_features=128, out_features=128, bias=False)
    (value_layer): Linear(in_features=128, out_features=128, bias=False)
    (bn): BatchNorm1d(128, eps=1e-05, momentum=0.1, affine=True)
  )
  (dropout): Dropout(p=0.5)
  (projector): Linear(in_features=128, out_features=2, bias=True)
)",charCNN,0.125,0.1,runs/May16_21-32-48_phobos-aijun_AttentionedYoonKim_lr3_dropout0.5_noise_level0.1_spacy_wordlen8_heads1_IMDB,Mokoron binary classification,298416
80,0.60824,0.8210352941176471,"MaxWordLen 8, MaxTexLen 128",0.5,30,0.6592680211522405,0.8340822826229223,,0.001,"AttentionedYoonKimModel(
  (embedding): Linear(in_features=74, out_features=74, bias=True)
  (chars_cnn): Sequential(
    (0): Conv1d(74, 256, kernel_size=(5,), stride=(1,), padding=(2,))
    (1): ReLU()
    (2): MaxPool1d(kernel_size=8, stride=8, padding=0, dilation=1, ceil_mode=False)
  )
  (words_rnn): GRU(256, 128, dropout=0.5)
  (attention): MultiHeadAttention(
    (query_layer): Linear(in_features=128, out_features=128, bias=False)
    (key_layer): Linear(in_features=128, out_features=128, bias=False)
    (value_layer): Linear(in_features=128, out_features=128, bias=False)
    (bn): BatchNorm1d(128, eps=1e-05, momentum=0.1, affine=True)
  )
  (dropout): Dropout(p=0.5)
  (projector): Linear(in_features=128, out_features=2, bias=True)
)",charCNN,0.15,0.1,runs/May16_21-32-48_phobos-aijun_AttentionedYoonKim_lr3_dropout0.5_noise_level0.1_spacy_wordlen8_heads1_IMDB,Mokoron binary classification,298416
81,0.59208,0.8210352941176471,"MaxWordLen 8, MaxTexLen 128",0.5,30,0.6510402408978921,0.8340822826229223,,0.001,"AttentionedYoonKimModel(
  (embedding): Linear(in_features=74, out_features=74, bias=True)
  (chars_cnn): Sequential(
    (0): Conv1d(74, 256, kernel_size=(5,), stride=(1,), padding=(2,))
    (1): ReLU()
    (2): MaxPool1d(kernel_size=8, stride=8, padding=0, dilation=1, ceil_mode=False)
  )
  (words_rnn): GRU(256, 128, dropout=0.5)
  (attention): MultiHeadAttention(
    (query_layer): Linear(in_features=128, out_features=128, bias=False)
    (key_layer): Linear(in_features=128, out_features=128, bias=False)
    (value_layer): Linear(in_features=128, out_features=128, bias=False)
    (bn): BatchNorm1d(128, eps=1e-05, momentum=0.1, affine=True)
  )
  (dropout): Dropout(p=0.5)
  (projector): Linear(in_features=128, out_features=2, bias=True)
)",charCNN,0.175,0.1,runs/May16_21-32-48_phobos-aijun_AttentionedYoonKim_lr3_dropout0.5_noise_level0.1_spacy_wordlen8_heads1_IMDB,Mokoron binary classification,298416
82,0.5824,0.8210352941176471,"MaxWordLen 8, MaxTexLen 128",0.5,30,0.6486504677929595,0.8340822826229223,,0.001,"AttentionedYoonKimModel(
  (embedding): Linear(in_features=74, out_features=74, bias=True)
  (chars_cnn): Sequential(
    (0): Conv1d(74, 256, kernel_size=(5,), stride=(1,), padding=(2,))
    (1): ReLU()
    (2): MaxPool1d(kernel_size=8, stride=8, padding=0, dilation=1, ceil_mode=False)
  )
  (words_rnn): GRU(256, 128, dropout=0.5)
  (attention): MultiHeadAttention(
    (query_layer): Linear(in_features=128, out_features=128, bias=False)
    (key_layer): Linear(in_features=128, out_features=128, bias=False)
    (value_layer): Linear(in_features=128, out_features=128, bias=False)
    (bn): BatchNorm1d(128, eps=1e-05, momentum=0.1, affine=True)
  )
  (dropout): Dropout(p=0.5)
  (projector): Linear(in_features=128, out_features=2, bias=True)
)",charCNN,0.2,0.1,runs/May16_21-32-48_phobos-aijun_AttentionedYoonKim_lr3_dropout0.5_noise_level0.1_spacy_wordlen8_heads1_IMDB,Mokoron binary classification,298416
83,0.64028,0.8210352941176471,"MaxWordLen 8, MaxTexLen 128",0.5,30,0.6775893593374682,0.8340822826229223,,0.001,"AttentionedYoonKimModel(
  (embedding): Linear(in_features=74, out_features=74, bias=True)
  (chars_cnn): Sequential(
    (0): Conv1d(74, 256, kernel_size=(5,), stride=(1,), padding=(2,))
    (1): ReLU()
    (2): MaxPool1d(kernel_size=8, stride=8, padding=0, dilation=1, ceil_mode=False)
  )
  (words_rnn): GRU(256, 128, dropout=0.5)
  (attention): MultiHeadAttention(
    (query_layer): Linear(in_features=128, out_features=128, bias=False)
    (key_layer): Linear(in_features=128, out_features=128, bias=False)
    (value_layer): Linear(in_features=128, out_features=128, bias=False)
    (bn): BatchNorm1d(128, eps=1e-05, momentum=0.1, affine=True)
  )
  (dropout): Dropout(p=0.5)
  (projector): Linear(in_features=128, out_features=2, bias=True)
)",charCNN,-1.0,0.1,runs/May16_21-32-48_phobos-aijun_AttentionedYoonKim_lr3_dropout0.5_noise_level0.1_spacy_wordlen8_heads1_IMDB,Mokoron binary classification,298416
84,0.72252,0.8051294117647059,"MaxWordLen 8, MaxTexLen 128",0.5,30,0.7167993468054705,0.7998646754627616,,0.001,"AttentionedYoonKimModel(
  (embedding): Linear(in_features=74, out_features=74, bias=True)
  (chars_cnn): Sequential(
    (0): Conv1d(74, 256, kernel_size=(5,), stride=(1,), padding=(2,))
    (1): ReLU()
    (2): MaxPool1d(kernel_size=8, stride=8, padding=0, dilation=1, ceil_mode=False)
  )
  (words_rnn): GRU(256, 128, dropout=0.5)
  (attention): MultiHeadAttention(
    (query_layer): Linear(in_features=128, out_features=128, bias=False)
    (key_layer): Linear(in_features=128, out_features=128, bias=False)
    (value_layer): Linear(in_features=128, out_features=128, bias=False)
    (bn): BatchNorm1d(128, eps=1e-05, momentum=0.1, affine=True)
  )
  (dropout): Dropout(p=0.5)
  (projector): Linear(in_features=128, out_features=2, bias=True)
)",charCNN,0.0,0.125,runs/May16_22-35-12_phobos-aijun_AttentionedYoonKim_lr3_dropout0.5_noise_level0.125_spacy_wordlen8_heads1_IMDB,Mokoron binary classification,298416
85,0.71852,0.8051294117647059,"MaxWordLen 8, MaxTexLen 128",0.5,30,0.7123646024933579,0.7998646754627616,,0.001,"AttentionedYoonKimModel(
  (embedding): Linear(in_features=74, out_features=74, bias=True)
  (chars_cnn): Sequential(
    (0): Conv1d(74, 256, kernel_size=(5,), stride=(1,), padding=(2,))
    (1): ReLU()
    (2): MaxPool1d(kernel_size=8, stride=8, padding=0, dilation=1, ceil_mode=False)
  )
  (words_rnn): GRU(256, 128, dropout=0.5)
  (attention): MultiHeadAttention(
    (query_layer): Linear(in_features=128, out_features=128, bias=False)
    (key_layer): Linear(in_features=128, out_features=128, bias=False)
    (value_layer): Linear(in_features=128, out_features=128, bias=False)
    (bn): BatchNorm1d(128, eps=1e-05, momentum=0.1, affine=True)
  )
  (dropout): Dropout(p=0.5)
  (projector): Linear(in_features=128, out_features=2, bias=True)
)",charCNN,0.005,0.125,runs/May16_22-35-12_phobos-aijun_AttentionedYoonKim_lr3_dropout0.5_noise_level0.125_spacy_wordlen8_heads1_IMDB,Mokoron binary classification,298416
86,0.71704,0.8051294117647059,"MaxWordLen 8, MaxTexLen 128",0.5,30,0.7102244797640505,0.7998646754627616,,0.001,"AttentionedYoonKimModel(
  (embedding): Linear(in_features=74, out_features=74, bias=True)
  (chars_cnn): Sequential(
    (0): Conv1d(74, 256, kernel_size=(5,), stride=(1,), padding=(2,))
    (1): ReLU()
    (2): MaxPool1d(kernel_size=8, stride=8, padding=0, dilation=1, ceil_mode=False)
  )
  (words_rnn): GRU(256, 128, dropout=0.5)
  (attention): MultiHeadAttention(
    (query_layer): Linear(in_features=128, out_features=128, bias=False)
    (key_layer): Linear(in_features=128, out_features=128, bias=False)
    (value_layer): Linear(in_features=128, out_features=128, bias=False)
    (bn): BatchNorm1d(128, eps=1e-05, momentum=0.1, affine=True)
  )
  (dropout): Dropout(p=0.5)
  (projector): Linear(in_features=128, out_features=2, bias=True)
)",charCNN,0.01,0.125,runs/May16_22-35-12_phobos-aijun_AttentionedYoonKim_lr3_dropout0.5_noise_level0.125_spacy_wordlen8_heads1_IMDB,Mokoron binary classification,298416
87,0.70468,0.8051294117647059,"MaxWordLen 8, MaxTexLen 128",0.5,30,0.6978019729032787,0.7998646754627616,,0.001,"AttentionedYoonKimModel(
  (embedding): Linear(in_features=74, out_features=74, bias=True)
  (chars_cnn): Sequential(
    (0): Conv1d(74, 256, kernel_size=(5,), stride=(1,), padding=(2,))
    (1): ReLU()
    (2): MaxPool1d(kernel_size=8, stride=8, padding=0, dilation=1, ceil_mode=False)
  )
  (words_rnn): GRU(256, 128, dropout=0.5)
  (attention): MultiHeadAttention(
    (query_layer): Linear(in_features=128, out_features=128, bias=False)
    (key_layer): Linear(in_features=128, out_features=128, bias=False)
    (value_layer): Linear(in_features=128, out_features=128, bias=False)
    (bn): BatchNorm1d(128, eps=1e-05, momentum=0.1, affine=True)
  )
  (dropout): Dropout(p=0.5)
  (projector): Linear(in_features=128, out_features=2, bias=True)
)",charCNN,0.025,0.125,runs/May16_22-35-12_phobos-aijun_AttentionedYoonKim_lr3_dropout0.5_noise_level0.125_spacy_wordlen8_heads1_IMDB,Mokoron binary classification,298416
88,0.68864,0.8051294117647059,"MaxWordLen 8, MaxTexLen 128",0.5,30,0.6807742782152231,0.7998646754627616,,0.001,"AttentionedYoonKimModel(
  (embedding): Linear(in_features=74, out_features=74, bias=True)
  (chars_cnn): Sequential(
    (0): Conv1d(74, 256, kernel_size=(5,), stride=(1,), padding=(2,))
    (1): ReLU()
    (2): MaxPool1d(kernel_size=8, stride=8, padding=0, dilation=1, ceil_mode=False)
  )
  (words_rnn): GRU(256, 128, dropout=0.5)
  (attention): MultiHeadAttention(
    (query_layer): Linear(in_features=128, out_features=128, bias=False)
    (key_layer): Linear(in_features=128, out_features=128, bias=False)
    (value_layer): Linear(in_features=128, out_features=128, bias=False)
    (bn): BatchNorm1d(128, eps=1e-05, momentum=0.1, affine=True)
  )
  (dropout): Dropout(p=0.5)
  (projector): Linear(in_features=128, out_features=2, bias=True)
)",charCNN,0.05,0.125,runs/May16_22-35-12_phobos-aijun_AttentionedYoonKim_lr3_dropout0.5_noise_level0.125_spacy_wordlen8_heads1_IMDB,Mokoron binary classification,298416
89,0.67216,0.8051294117647059,"MaxWordLen 8, MaxTexLen 128",0.5,30,0.6657695130902862,0.7998646754627616,,0.001,"AttentionedYoonKimModel(
  (embedding): Linear(in_features=74, out_features=74, bias=True)
  (chars_cnn): Sequential(
    (0): Conv1d(74, 256, kernel_size=(5,), stride=(1,), padding=(2,))
    (1): ReLU()
    (2): MaxPool1d(kernel_size=8, stride=8, padding=0, dilation=1, ceil_mode=False)
  )
  (words_rnn): GRU(256, 128, dropout=0.5)
  (attention): MultiHeadAttention(
    (query_layer): Linear(in_features=128, out_features=128, bias=False)
    (key_layer): Linear(in_features=128, out_features=128, bias=False)
    (value_layer): Linear(in_features=128, out_features=128, bias=False)
    (bn): BatchNorm1d(128, eps=1e-05, momentum=0.1, affine=True)
  )
  (dropout): Dropout(p=0.5)
  (projector): Linear(in_features=128, out_features=2, bias=True)
)",charCNN,0.075,0.125,runs/May16_22-35-12_phobos-aijun_AttentionedYoonKim_lr3_dropout0.5_noise_level0.125_spacy_wordlen8_heads1_IMDB,Mokoron binary classification,298416
90,0.65316,0.8051294117647059,"MaxWordLen 8, MaxTexLen 128",0.5,30,0.6462115957403403,0.7998646754627616,,0.001,"AttentionedYoonKimModel(
  (embedding): Linear(in_features=74, out_features=74, bias=True)
  (chars_cnn): Sequential(
    (0): Conv1d(74, 256, kernel_size=(5,), stride=(1,), padding=(2,))
    (1): ReLU()
    (2): MaxPool1d(kernel_size=8, stride=8, padding=0, dilation=1, ceil_mode=False)
  )
  (words_rnn): GRU(256, 128, dropout=0.5)
  (attention): MultiHeadAttention(
    (query_layer): Linear(in_features=128, out_features=128, bias=False)
    (key_layer): Linear(in_features=128, out_features=128, bias=False)
    (value_layer): Linear(in_features=128, out_features=128, bias=False)
    (bn): BatchNorm1d(128, eps=1e-05, momentum=0.1, affine=True)
  )
  (dropout): Dropout(p=0.5)
  (projector): Linear(in_features=128, out_features=2, bias=True)
)",charCNN,0.1,0.125,runs/May16_22-35-12_phobos-aijun_AttentionedYoonKim_lr3_dropout0.5_noise_level0.125_spacy_wordlen8_heads1_IMDB,Mokoron binary classification,298416
91,0.63572,0.8051294117647059,"MaxWordLen 8, MaxTexLen 128",0.5,30,0.6305326788104995,0.7998646754627616,,0.001,"AttentionedYoonKimModel(
  (embedding): Linear(in_features=74, out_features=74, bias=True)
  (chars_cnn): Sequential(
    (0): Conv1d(74, 256, kernel_size=(5,), stride=(1,), padding=(2,))
    (1): ReLU()
    (2): MaxPool1d(kernel_size=8, stride=8, padding=0, dilation=1, ceil_mode=False)
  )
  (words_rnn): GRU(256, 128, dropout=0.5)
  (attention): MultiHeadAttention(
    (query_layer): Linear(in_features=128, out_features=128, bias=False)
    (key_layer): Linear(in_features=128, out_features=128, bias=False)
    (value_layer): Linear(in_features=128, out_features=128, bias=False)
    (bn): BatchNorm1d(128, eps=1e-05, momentum=0.1, affine=True)
  )
  (dropout): Dropout(p=0.5)
  (projector): Linear(in_features=128, out_features=2, bias=True)
)",charCNN,0.125,0.125,runs/May16_22-35-12_phobos-aijun_AttentionedYoonKim_lr3_dropout0.5_noise_level0.125_spacy_wordlen8_heads1_IMDB,Mokoron binary classification,298416
92,0.62328,0.8051294117647059,"MaxWordLen 8, MaxTexLen 128",0.5,30,0.6193824765599741,0.7998646754627616,,0.001,"AttentionedYoonKimModel(
  (embedding): Linear(in_features=74, out_features=74, bias=True)
  (chars_cnn): Sequential(
    (0): Conv1d(74, 256, kernel_size=(5,), stride=(1,), padding=(2,))
    (1): ReLU()
    (2): MaxPool1d(kernel_size=8, stride=8, padding=0, dilation=1, ceil_mode=False)
  )
  (words_rnn): GRU(256, 128, dropout=0.5)
  (attention): MultiHeadAttention(
    (query_layer): Linear(in_features=128, out_features=128, bias=False)
    (key_layer): Linear(in_features=128, out_features=128, bias=False)
    (value_layer): Linear(in_features=128, out_features=128, bias=False)
    (bn): BatchNorm1d(128, eps=1e-05, momentum=0.1, affine=True)
  )
  (dropout): Dropout(p=0.5)
  (projector): Linear(in_features=128, out_features=2, bias=True)
)",charCNN,0.15,0.125,runs/May16_22-35-12_phobos-aijun_AttentionedYoonKim_lr3_dropout0.5_noise_level0.125_spacy_wordlen8_heads1_IMDB,Mokoron binary classification,298416
93,0.60556,0.8051294117647059,"MaxWordLen 8, MaxTexLen 128",0.5,30,0.6034503558933526,0.7998646754627616,,0.001,"AttentionedYoonKimModel(
  (embedding): Linear(in_features=74, out_features=74, bias=True)
  (chars_cnn): Sequential(
    (0): Conv1d(74, 256, kernel_size=(5,), stride=(1,), padding=(2,))
    (1): ReLU()
    (2): MaxPool1d(kernel_size=8, stride=8, padding=0, dilation=1, ceil_mode=False)
  )
  (words_rnn): GRU(256, 128, dropout=0.5)
  (attention): MultiHeadAttention(
    (query_layer): Linear(in_features=128, out_features=128, bias=False)
    (key_layer): Linear(in_features=128, out_features=128, bias=False)
    (value_layer): Linear(in_features=128, out_features=128, bias=False)
    (bn): BatchNorm1d(128, eps=1e-05, momentum=0.1, affine=True)
  )
  (dropout): Dropout(p=0.5)
  (projector): Linear(in_features=128, out_features=2, bias=True)
)",charCNN,0.175,0.125,runs/May16_22-35-12_phobos-aijun_AttentionedYoonKim_lr3_dropout0.5_noise_level0.125_spacy_wordlen8_heads1_IMDB,Mokoron binary classification,298416
94,0.59628,0.8051294117647059,"MaxWordLen 8, MaxTexLen 128",0.5,30,0.5985122717689645,0.7998646754627616,,0.001,"AttentionedYoonKimModel(
  (embedding): Linear(in_features=74, out_features=74, bias=True)
  (chars_cnn): Sequential(
    (0): Conv1d(74, 256, kernel_size=(5,), stride=(1,), padding=(2,))
    (1): ReLU()
    (2): MaxPool1d(kernel_size=8, stride=8, padding=0, dilation=1, ceil_mode=False)
  )
  (words_rnn): GRU(256, 128, dropout=0.5)
  (attention): MultiHeadAttention(
    (query_layer): Linear(in_features=128, out_features=128, bias=False)
    (key_layer): Linear(in_features=128, out_features=128, bias=False)
    (value_layer): Linear(in_features=128, out_features=128, bias=False)
    (bn): BatchNorm1d(128, eps=1e-05, momentum=0.1, affine=True)
  )
  (dropout): Dropout(p=0.5)
  (projector): Linear(in_features=128, out_features=2, bias=True)
)",charCNN,0.2,0.125,runs/May16_22-35-12_phobos-aijun_AttentionedYoonKim_lr3_dropout0.5_noise_level0.125_spacy_wordlen8_heads1_IMDB,Mokoron binary classification,298416
95,0.63976,0.8051294117647059,"MaxWordLen 8, MaxTexLen 128",0.5,30,0.6351187099910867,0.7998646754627616,,0.001,"AttentionedYoonKimModel(
  (embedding): Linear(in_features=74, out_features=74, bias=True)
  (chars_cnn): Sequential(
    (0): Conv1d(74, 256, kernel_size=(5,), stride=(1,), padding=(2,))
    (1): ReLU()
    (2): MaxPool1d(kernel_size=8, stride=8, padding=0, dilation=1, ceil_mode=False)
  )
  (words_rnn): GRU(256, 128, dropout=0.5)
  (attention): MultiHeadAttention(
    (query_layer): Linear(in_features=128, out_features=128, bias=False)
    (key_layer): Linear(in_features=128, out_features=128, bias=False)
    (value_layer): Linear(in_features=128, out_features=128, bias=False)
    (bn): BatchNorm1d(128, eps=1e-05, momentum=0.1, affine=True)
  )
  (dropout): Dropout(p=0.5)
  (projector): Linear(in_features=128, out_features=2, bias=True)
)",charCNN,-1.0,0.125,runs/May16_22-35-12_phobos-aijun_AttentionedYoonKim_lr3_dropout0.5_noise_level0.125_spacy_wordlen8_heads1_IMDB,Mokoron binary classification,298416
96,0.7346,0.7828705882352941,"MaxWordLen 8, MaxTexLen 128",0.5,30,0.7480730531191859,0.7951336471006127,,0.001,"AttentionedYoonKimModel(
  (embedding): Linear(in_features=74, out_features=74, bias=True)
  (chars_cnn): Sequential(
    (0): Conv1d(74, 256, kernel_size=(5,), stride=(1,), padding=(2,))
    (1): ReLU()
    (2): MaxPool1d(kernel_size=8, stride=8, padding=0, dilation=1, ceil_mode=False)
  )
  (words_rnn): GRU(256, 128, dropout=0.5)
  (attention): MultiHeadAttention(
    (query_layer): Linear(in_features=128, out_features=128, bias=False)
    (key_layer): Linear(in_features=128, out_features=128, bias=False)
    (value_layer): Linear(in_features=128, out_features=128, bias=False)
    (bn): BatchNorm1d(128, eps=1e-05, momentum=0.1, affine=True)
  )
  (dropout): Dropout(p=0.5)
  (projector): Linear(in_features=128, out_features=2, bias=True)
)",charCNN,0.0,0.15,runs/May16_23-29-46_phobos-aijun_AttentionedYoonKim_lr3_dropout0.5_noise_level0.15_spacy_wordlen8_heads1_IMDB,Mokoron binary classification,298416
97,0.72988,0.7828705882352941,"MaxWordLen 8, MaxTexLen 128",0.5,30,0.7439232490235486,0.7951336471006127,,0.001,"AttentionedYoonKimModel(
  (embedding): Linear(in_features=74, out_features=74, bias=True)
  (chars_cnn): Sequential(
    (0): Conv1d(74, 256, kernel_size=(5,), stride=(1,), padding=(2,))
    (1): ReLU()
    (2): MaxPool1d(kernel_size=8, stride=8, padding=0, dilation=1, ceil_mode=False)
  )
  (words_rnn): GRU(256, 128, dropout=0.5)
  (attention): MultiHeadAttention(
    (query_layer): Linear(in_features=128, out_features=128, bias=False)
    (key_layer): Linear(in_features=128, out_features=128, bias=False)
    (value_layer): Linear(in_features=128, out_features=128, bias=False)
    (bn): BatchNorm1d(128, eps=1e-05, momentum=0.1, affine=True)
  )
  (dropout): Dropout(p=0.5)
  (projector): Linear(in_features=128, out_features=2, bias=True)
)",charCNN,0.005,0.15,runs/May16_23-29-46_phobos-aijun_AttentionedYoonKim_lr3_dropout0.5_noise_level0.15_spacy_wordlen8_heads1_IMDB,Mokoron binary classification,298416
98,0.72828,0.7828705882352941,"MaxWordLen 8, MaxTexLen 128",0.5,30,0.7421913545106077,0.7951336471006127,,0.001,"AttentionedYoonKimModel(
  (embedding): Linear(in_features=74, out_features=74, bias=True)
  (chars_cnn): Sequential(
    (0): Conv1d(74, 256, kernel_size=(5,), stride=(1,), padding=(2,))
    (1): ReLU()
    (2): MaxPool1d(kernel_size=8, stride=8, padding=0, dilation=1, ceil_mode=False)
  )
  (words_rnn): GRU(256, 128, dropout=0.5)
  (attention): MultiHeadAttention(
    (query_layer): Linear(in_features=128, out_features=128, bias=False)
    (key_layer): Linear(in_features=128, out_features=128, bias=False)
    (value_layer): Linear(in_features=128, out_features=128, bias=False)
    (bn): BatchNorm1d(128, eps=1e-05, momentum=0.1, affine=True)
  )
  (dropout): Dropout(p=0.5)
  (projector): Linear(in_features=128, out_features=2, bias=True)
)",charCNN,0.01,0.15,runs/May16_23-29-46_phobos-aijun_AttentionedYoonKim_lr3_dropout0.5_noise_level0.15_spacy_wordlen8_heads1_IMDB,Mokoron binary classification,298416
99,0.71832,0.7828705882352941,"MaxWordLen 8, MaxTexLen 128",0.5,30,0.7324468085106383,0.7951336471006127,,0.001,"AttentionedYoonKimModel(
  (embedding): Linear(in_features=74, out_features=74, bias=True)
  (chars_cnn): Sequential(
    (0): Conv1d(74, 256, kernel_size=(5,), stride=(1,), padding=(2,))
    (1): ReLU()
    (2): MaxPool1d(kernel_size=8, stride=8, padding=0, dilation=1, ceil_mode=False)
  )
  (words_rnn): GRU(256, 128, dropout=0.5)
  (attention): MultiHeadAttention(
    (query_layer): Linear(in_features=128, out_features=128, bias=False)
    (key_layer): Linear(in_features=128, out_features=128, bias=False)
    (value_layer): Linear(in_features=128, out_features=128, bias=False)
    (bn): BatchNorm1d(128, eps=1e-05, momentum=0.1, affine=True)
  )
  (dropout): Dropout(p=0.5)
  (projector): Linear(in_features=128, out_features=2, bias=True)
)",charCNN,0.025,0.15,runs/May16_23-29-46_phobos-aijun_AttentionedYoonKim_lr3_dropout0.5_noise_level0.15_spacy_wordlen8_heads1_IMDB,Mokoron binary classification,298416
100,0.70268,0.7828705882352941,"MaxWordLen 8, MaxTexLen 128",0.5,30,0.7185002840371141,0.7951336471006127,,0.001,"AttentionedYoonKimModel(
  (embedding): Linear(in_features=74, out_features=74, bias=True)
  (chars_cnn): Sequential(
    (0): Conv1d(74, 256, kernel_size=(5,), stride=(1,), padding=(2,))
    (1): ReLU()
    (2): MaxPool1d(kernel_size=8, stride=8, padding=0, dilation=1, ceil_mode=False)
  )
  (words_rnn): GRU(256, 128, dropout=0.5)
  (attention): MultiHeadAttention(
    (query_layer): Linear(in_features=128, out_features=128, bias=False)
    (key_layer): Linear(in_features=128, out_features=128, bias=False)
    (value_layer): Linear(in_features=128, out_features=128, bias=False)
    (bn): BatchNorm1d(128, eps=1e-05, momentum=0.1, affine=True)
  )
  (dropout): Dropout(p=0.5)
  (projector): Linear(in_features=128, out_features=2, bias=True)
)",charCNN,0.05,0.15,runs/May16_23-29-46_phobos-aijun_AttentionedYoonKim_lr3_dropout0.5_noise_level0.15_spacy_wordlen8_heads1_IMDB,Mokoron binary classification,298416
101,0.69268,0.7828705882352941,"MaxWordLen 8, MaxTexLen 128",0.5,30,0.7097797756204435,0.7951336471006127,,0.001,"AttentionedYoonKimModel(
  (embedding): Linear(in_features=74, out_features=74, bias=True)
  (chars_cnn): Sequential(
    (0): Conv1d(74, 256, kernel_size=(5,), stride=(1,), padding=(2,))
    (1): ReLU()
    (2): MaxPool1d(kernel_size=8, stride=8, padding=0, dilation=1, ceil_mode=False)
  )
  (words_rnn): GRU(256, 128, dropout=0.5)
  (attention): MultiHeadAttention(
    (query_layer): Linear(in_features=128, out_features=128, bias=False)
    (key_layer): Linear(in_features=128, out_features=128, bias=False)
    (value_layer): Linear(in_features=128, out_features=128, bias=False)
    (bn): BatchNorm1d(128, eps=1e-05, momentum=0.1, affine=True)
  )
  (dropout): Dropout(p=0.5)
  (projector): Linear(in_features=128, out_features=2, bias=True)
)",charCNN,0.075,0.15,runs/May16_23-29-46_phobos-aijun_AttentionedYoonKim_lr3_dropout0.5_noise_level0.15_spacy_wordlen8_heads1_IMDB,Mokoron binary classification,298416
102,0.67708,0.7828705882352941,"MaxWordLen 8, MaxTexLen 128",0.5,30,0.6964010379451695,0.7951336471006127,,0.001,"AttentionedYoonKimModel(
  (embedding): Linear(in_features=74, out_features=74, bias=True)
  (chars_cnn): Sequential(
    (0): Conv1d(74, 256, kernel_size=(5,), stride=(1,), padding=(2,))
    (1): ReLU()
    (2): MaxPool1d(kernel_size=8, stride=8, padding=0, dilation=1, ceil_mode=False)
  )
  (words_rnn): GRU(256, 128, dropout=0.5)
  (attention): MultiHeadAttention(
    (query_layer): Linear(in_features=128, out_features=128, bias=False)
    (key_layer): Linear(in_features=128, out_features=128, bias=False)
    (value_layer): Linear(in_features=128, out_features=128, bias=False)
    (bn): BatchNorm1d(128, eps=1e-05, momentum=0.1, affine=True)
  )
  (dropout): Dropout(p=0.5)
  (projector): Linear(in_features=128, out_features=2, bias=True)
)",charCNN,0.1,0.15,runs/May16_23-29-46_phobos-aijun_AttentionedYoonKim_lr3_dropout0.5_noise_level0.15_spacy_wordlen8_heads1_IMDB,Mokoron binary classification,298416
103,0.6622,0.7828705882352941,"MaxWordLen 8, MaxTexLen 128",0.5,30,0.6844759947692882,0.7951336471006127,,0.001,"AttentionedYoonKimModel(
  (embedding): Linear(in_features=74, out_features=74, bias=True)
  (chars_cnn): Sequential(
    (0): Conv1d(74, 256, kernel_size=(5,), stride=(1,), padding=(2,))
    (1): ReLU()
    (2): MaxPool1d(kernel_size=8, stride=8, padding=0, dilation=1, ceil_mode=False)
  )
  (words_rnn): GRU(256, 128, dropout=0.5)
  (attention): MultiHeadAttention(
    (query_layer): Linear(in_features=128, out_features=128, bias=False)
    (key_layer): Linear(in_features=128, out_features=128, bias=False)
    (value_layer): Linear(in_features=128, out_features=128, bias=False)
    (bn): BatchNorm1d(128, eps=1e-05, momentum=0.1, affine=True)
  )
  (dropout): Dropout(p=0.5)
  (projector): Linear(in_features=128, out_features=2, bias=True)
)",charCNN,0.125,0.15,runs/May16_23-29-46_phobos-aijun_AttentionedYoonKim_lr3_dropout0.5_noise_level0.15_spacy_wordlen8_heads1_IMDB,Mokoron binary classification,298416
104,0.645,0.7828705882352941,"MaxWordLen 8, MaxTexLen 128",0.5,30,0.6688803492146401,0.7951336471006127,,0.001,"AttentionedYoonKimModel(
  (embedding): Linear(in_features=74, out_features=74, bias=True)
  (chars_cnn): Sequential(
    (0): Conv1d(74, 256, kernel_size=(5,), stride=(1,), padding=(2,))
    (1): ReLU()
    (2): MaxPool1d(kernel_size=8, stride=8, padding=0, dilation=1, ceil_mode=False)
  )
  (words_rnn): GRU(256, 128, dropout=0.5)
  (attention): MultiHeadAttention(
    (query_layer): Linear(in_features=128, out_features=128, bias=False)
    (key_layer): Linear(in_features=128, out_features=128, bias=False)
    (value_layer): Linear(in_features=128, out_features=128, bias=False)
    (bn): BatchNorm1d(128, eps=1e-05, momentum=0.1, affine=True)
  )
  (dropout): Dropout(p=0.5)
  (projector): Linear(in_features=128, out_features=2, bias=True)
)",charCNN,0.15,0.15,runs/May16_23-29-46_phobos-aijun_AttentionedYoonKim_lr3_dropout0.5_noise_level0.15_spacy_wordlen8_heads1_IMDB,Mokoron binary classification,298416
105,0.63256,0.7828705882352941,"MaxWordLen 8, MaxTexLen 128",0.5,30,0.6597273670173359,0.7951336471006127,,0.001,"AttentionedYoonKimModel(
  (embedding): Linear(in_features=74, out_features=74, bias=True)
  (chars_cnn): Sequential(
    (0): Conv1d(74, 256, kernel_size=(5,), stride=(1,), padding=(2,))
    (1): ReLU()
    (2): MaxPool1d(kernel_size=8, stride=8, padding=0, dilation=1, ceil_mode=False)
  )
  (words_rnn): GRU(256, 128, dropout=0.5)
  (attention): MultiHeadAttention(
    (query_layer): Linear(in_features=128, out_features=128, bias=False)
    (key_layer): Linear(in_features=128, out_features=128, bias=False)
    (value_layer): Linear(in_features=128, out_features=128, bias=False)
    (bn): BatchNorm1d(128, eps=1e-05, momentum=0.1, affine=True)
  )
  (dropout): Dropout(p=0.5)
  (projector): Linear(in_features=128, out_features=2, bias=True)
)",charCNN,0.175,0.15,runs/May16_23-29-46_phobos-aijun_AttentionedYoonKim_lr3_dropout0.5_noise_level0.15_spacy_wordlen8_heads1_IMDB,Mokoron binary classification,298416
106,0.62396,0.7828705882352941,"MaxWordLen 8, MaxTexLen 128",0.5,30,0.6528049636222624,0.7951336471006127,,0.001,"AttentionedYoonKimModel(
  (embedding): Linear(in_features=74, out_features=74, bias=True)
  (chars_cnn): Sequential(
    (0): Conv1d(74, 256, kernel_size=(5,), stride=(1,), padding=(2,))
    (1): ReLU()
    (2): MaxPool1d(kernel_size=8, stride=8, padding=0, dilation=1, ceil_mode=False)
  )
  (words_rnn): GRU(256, 128, dropout=0.5)
  (attention): MultiHeadAttention(
    (query_layer): Linear(in_features=128, out_features=128, bias=False)
    (key_layer): Linear(in_features=128, out_features=128, bias=False)
    (value_layer): Linear(in_features=128, out_features=128, bias=False)
    (bn): BatchNorm1d(128, eps=1e-05, momentum=0.1, affine=True)
  )
  (dropout): Dropout(p=0.5)
  (projector): Linear(in_features=128, out_features=2, bias=True)
)",charCNN,0.2,0.15,runs/May16_23-29-46_phobos-aijun_AttentionedYoonKim_lr3_dropout0.5_noise_level0.15_spacy_wordlen8_heads1_IMDB,Mokoron binary classification,298416
107,0.64912,0.7828705882352941,"MaxWordLen 8, MaxTexLen 128",0.5,30,0.6736607142857143,0.7951336471006127,,0.001,"AttentionedYoonKimModel(
  (embedding): Linear(in_features=74, out_features=74, bias=True)
  (chars_cnn): Sequential(
    (0): Conv1d(74, 256, kernel_size=(5,), stride=(1,), padding=(2,))
    (1): ReLU()
    (2): MaxPool1d(kernel_size=8, stride=8, padding=0, dilation=1, ceil_mode=False)
  )
  (words_rnn): GRU(256, 128, dropout=0.5)
  (attention): MultiHeadAttention(
    (query_layer): Linear(in_features=128, out_features=128, bias=False)
    (key_layer): Linear(in_features=128, out_features=128, bias=False)
    (value_layer): Linear(in_features=128, out_features=128, bias=False)
    (bn): BatchNorm1d(128, eps=1e-05, momentum=0.1, affine=True)
  )
  (dropout): Dropout(p=0.5)
  (projector): Linear(in_features=128, out_features=2, bias=True)
)",charCNN,-1.0,0.15,runs/May16_23-29-46_phobos-aijun_AttentionedYoonKim_lr3_dropout0.5_noise_level0.15_spacy_wordlen8_heads1_IMDB,Mokoron binary classification,298416
108,0.65204,0.7575058823529411,"MaxWordLen 8, MaxTexLen 128",0.5,30,0.6597034776825882,0.7759078060447923,,0.001,"AttentionedYoonKimModel(
  (embedding): Linear(in_features=74, out_features=74, bias=True)
  (chars_cnn): Sequential(
    (0): Conv1d(74, 256, kernel_size=(5,), stride=(1,), padding=(2,))
    (1): ReLU()
    (2): MaxPool1d(kernel_size=8, stride=8, padding=0, dilation=1, ceil_mode=False)
  )
  (words_rnn): GRU(256, 128, dropout=0.5)
  (attention): MultiHeadAttention(
    (query_layer): Linear(in_features=128, out_features=128, bias=False)
    (key_layer): Linear(in_features=128, out_features=128, bias=False)
    (value_layer): Linear(in_features=128, out_features=128, bias=False)
    (bn): BatchNorm1d(128, eps=1e-05, momentum=0.1, affine=True)
  )
  (dropout): Dropout(p=0.5)
  (projector): Linear(in_features=128, out_features=2, bias=True)
)",charCNN,0.0,0.175,runs/May17_00-21-13_phobos-aijun_AttentionedYoonKim_lr3_dropout0.5_noise_level0.175_spacy_wordlen8_heads1_IMDB,Mokoron binary classification,298416
109,0.65168,0.7575058823529411,"MaxWordLen 8, MaxTexLen 128",0.5,30,0.6596842269813975,0.7759078060447923,,0.001,"AttentionedYoonKimModel(
  (embedding): Linear(in_features=74, out_features=74, bias=True)
  (chars_cnn): Sequential(
    (0): Conv1d(74, 256, kernel_size=(5,), stride=(1,), padding=(2,))
    (1): ReLU()
    (2): MaxPool1d(kernel_size=8, stride=8, padding=0, dilation=1, ceil_mode=False)
  )
  (words_rnn): GRU(256, 128, dropout=0.5)
  (attention): MultiHeadAttention(
    (query_layer): Linear(in_features=128, out_features=128, bias=False)
    (key_layer): Linear(in_features=128, out_features=128, bias=False)
    (value_layer): Linear(in_features=128, out_features=128, bias=False)
    (bn): BatchNorm1d(128, eps=1e-05, momentum=0.1, affine=True)
  )
  (dropout): Dropout(p=0.5)
  (projector): Linear(in_features=128, out_features=2, bias=True)
)",charCNN,0.005,0.175,runs/May17_00-21-13_phobos-aijun_AttentionedYoonKim_lr3_dropout0.5_noise_level0.175_spacy_wordlen8_heads1_IMDB,Mokoron binary classification,298416
110,0.64744,0.7575058823529411,"MaxWordLen 8, MaxTexLen 128",0.5,30,0.6568024297173117,0.7759078060447923,,0.001,"AttentionedYoonKimModel(
  (embedding): Linear(in_features=74, out_features=74, bias=True)
  (chars_cnn): Sequential(
    (0): Conv1d(74, 256, kernel_size=(5,), stride=(1,), padding=(2,))
    (1): ReLU()
    (2): MaxPool1d(kernel_size=8, stride=8, padding=0, dilation=1, ceil_mode=False)
  )
  (words_rnn): GRU(256, 128, dropout=0.5)
  (attention): MultiHeadAttention(
    (query_layer): Linear(in_features=128, out_features=128, bias=False)
    (key_layer): Linear(in_features=128, out_features=128, bias=False)
    (value_layer): Linear(in_features=128, out_features=128, bias=False)
    (bn): BatchNorm1d(128, eps=1e-05, momentum=0.1, affine=True)
  )
  (dropout): Dropout(p=0.5)
  (projector): Linear(in_features=128, out_features=2, bias=True)
)",charCNN,0.01,0.175,runs/May17_00-21-13_phobos-aijun_AttentionedYoonKim_lr3_dropout0.5_noise_level0.175_spacy_wordlen8_heads1_IMDB,Mokoron binary classification,298416
111,0.63952,0.7575058823529411,"MaxWordLen 8, MaxTexLen 128",0.5,30,0.6505080276118824,0.7759078060447923,,0.001,"AttentionedYoonKimModel(
  (embedding): Linear(in_features=74, out_features=74, bias=True)
  (chars_cnn): Sequential(
    (0): Conv1d(74, 256, kernel_size=(5,), stride=(1,), padding=(2,))
    (1): ReLU()
    (2): MaxPool1d(kernel_size=8, stride=8, padding=0, dilation=1, ceil_mode=False)
  )
  (words_rnn): GRU(256, 128, dropout=0.5)
  (attention): MultiHeadAttention(
    (query_layer): Linear(in_features=128, out_features=128, bias=False)
    (key_layer): Linear(in_features=128, out_features=128, bias=False)
    (value_layer): Linear(in_features=128, out_features=128, bias=False)
    (bn): BatchNorm1d(128, eps=1e-05, momentum=0.1, affine=True)
  )
  (dropout): Dropout(p=0.5)
  (projector): Linear(in_features=128, out_features=2, bias=True)
)",charCNN,0.025,0.175,runs/May17_00-21-13_phobos-aijun_AttentionedYoonKim_lr3_dropout0.5_noise_level0.175_spacy_wordlen8_heads1_IMDB,Mokoron binary classification,298416
112,0.61984,0.7575058823529411,"MaxWordLen 8, MaxTexLen 128",0.5,30,0.6344896546419506,0.7759078060447923,,0.001,"AttentionedYoonKimModel(
  (embedding): Linear(in_features=74, out_features=74, bias=True)
  (chars_cnn): Sequential(
    (0): Conv1d(74, 256, kernel_size=(5,), stride=(1,), padding=(2,))
    (1): ReLU()
    (2): MaxPool1d(kernel_size=8, stride=8, padding=0, dilation=1, ceil_mode=False)
  )
  (words_rnn): GRU(256, 128, dropout=0.5)
  (attention): MultiHeadAttention(
    (query_layer): Linear(in_features=128, out_features=128, bias=False)
    (key_layer): Linear(in_features=128, out_features=128, bias=False)
    (value_layer): Linear(in_features=128, out_features=128, bias=False)
    (bn): BatchNorm1d(128, eps=1e-05, momentum=0.1, affine=True)
  )
  (dropout): Dropout(p=0.5)
  (projector): Linear(in_features=128, out_features=2, bias=True)
)",charCNN,0.05,0.175,runs/May17_00-21-13_phobos-aijun_AttentionedYoonKim_lr3_dropout0.5_noise_level0.175_spacy_wordlen8_heads1_IMDB,Mokoron binary classification,298416
113,0.60844,0.7575058823529411,"MaxWordLen 8, MaxTexLen 128",0.5,30,0.6272135267908145,0.7759078060447923,,0.001,"AttentionedYoonKimModel(
  (embedding): Linear(in_features=74, out_features=74, bias=True)
  (chars_cnn): Sequential(
    (0): Conv1d(74, 256, kernel_size=(5,), stride=(1,), padding=(2,))
    (1): ReLU()
    (2): MaxPool1d(kernel_size=8, stride=8, padding=0, dilation=1, ceil_mode=False)
  )
  (words_rnn): GRU(256, 128, dropout=0.5)
  (attention): MultiHeadAttention(
    (query_layer): Linear(in_features=128, out_features=128, bias=False)
    (key_layer): Linear(in_features=128, out_features=128, bias=False)
    (value_layer): Linear(in_features=128, out_features=128, bias=False)
    (bn): BatchNorm1d(128, eps=1e-05, momentum=0.1, affine=True)
  )
  (dropout): Dropout(p=0.5)
  (projector): Linear(in_features=128, out_features=2, bias=True)
)",charCNN,0.075,0.175,runs/May17_00-21-13_phobos-aijun_AttentionedYoonKim_lr3_dropout0.5_noise_level0.175_spacy_wordlen8_heads1_IMDB,Mokoron binary classification,298416
114,0.59336,0.7575058823529411,"MaxWordLen 8, MaxTexLen 128",0.5,30,0.6165799200422417,0.7759078060447923,,0.001,"AttentionedYoonKimModel(
  (embedding): Linear(in_features=74, out_features=74, bias=True)
  (chars_cnn): Sequential(
    (0): Conv1d(74, 256, kernel_size=(5,), stride=(1,), padding=(2,))
    (1): ReLU()
    (2): MaxPool1d(kernel_size=8, stride=8, padding=0, dilation=1, ceil_mode=False)
  )
  (words_rnn): GRU(256, 128, dropout=0.5)
  (attention): MultiHeadAttention(
    (query_layer): Linear(in_features=128, out_features=128, bias=False)
    (key_layer): Linear(in_features=128, out_features=128, bias=False)
    (value_layer): Linear(in_features=128, out_features=128, bias=False)
    (bn): BatchNorm1d(128, eps=1e-05, momentum=0.1, affine=True)
  )
  (dropout): Dropout(p=0.5)
  (projector): Linear(in_features=128, out_features=2, bias=True)
)",charCNN,0.1,0.175,runs/May17_00-21-13_phobos-aijun_AttentionedYoonKim_lr3_dropout0.5_noise_level0.175_spacy_wordlen8_heads1_IMDB,Mokoron binary classification,298416
115,0.57956,0.7575058823529411,"MaxWordLen 8, MaxTexLen 128",0.5,30,0.6068743688521524,0.7759078060447923,,0.001,"AttentionedYoonKimModel(
  (embedding): Linear(in_features=74, out_features=74, bias=True)
  (chars_cnn): Sequential(
    (0): Conv1d(74, 256, kernel_size=(5,), stride=(1,), padding=(2,))
    (1): ReLU()
    (2): MaxPool1d(kernel_size=8, stride=8, padding=0, dilation=1, ceil_mode=False)
  )
  (words_rnn): GRU(256, 128, dropout=0.5)
  (attention): MultiHeadAttention(
    (query_layer): Linear(in_features=128, out_features=128, bias=False)
    (key_layer): Linear(in_features=128, out_features=128, bias=False)
    (value_layer): Linear(in_features=128, out_features=128, bias=False)
    (bn): BatchNorm1d(128, eps=1e-05, momentum=0.1, affine=True)
  )
  (dropout): Dropout(p=0.5)
  (projector): Linear(in_features=128, out_features=2, bias=True)
)",charCNN,0.125,0.175,runs/May17_00-21-13_phobos-aijun_AttentionedYoonKim_lr3_dropout0.5_noise_level0.175_spacy_wordlen8_heads1_IMDB,Mokoron binary classification,298416
116,0.57156,0.7575058823529411,"MaxWordLen 8, MaxTexLen 128",0.5,30,0.6050079286056718,0.7759078060447923,,0.001,"AttentionedYoonKimModel(
  (embedding): Linear(in_features=74, out_features=74, bias=True)
  (chars_cnn): Sequential(
    (0): Conv1d(74, 256, kernel_size=(5,), stride=(1,), padding=(2,))
    (1): ReLU()
    (2): MaxPool1d(kernel_size=8, stride=8, padding=0, dilation=1, ceil_mode=False)
  )
  (words_rnn): GRU(256, 128, dropout=0.5)
  (attention): MultiHeadAttention(
    (query_layer): Linear(in_features=128, out_features=128, bias=False)
    (key_layer): Linear(in_features=128, out_features=128, bias=False)
    (value_layer): Linear(in_features=128, out_features=128, bias=False)
    (bn): BatchNorm1d(128, eps=1e-05, momentum=0.1, affine=True)
  )
  (dropout): Dropout(p=0.5)
  (projector): Linear(in_features=128, out_features=2, bias=True)
)",charCNN,0.15,0.175,runs/May17_00-21-13_phobos-aijun_AttentionedYoonKim_lr3_dropout0.5_noise_level0.175_spacy_wordlen8_heads1_IMDB,Mokoron binary classification,298416
117,0.55792,0.7575058823529411,"MaxWordLen 8, MaxTexLen 128",0.5,30,0.595668398331748,0.7759078060447923,,0.001,"AttentionedYoonKimModel(
  (embedding): Linear(in_features=74, out_features=74, bias=True)
  (chars_cnn): Sequential(
    (0): Conv1d(74, 256, kernel_size=(5,), stride=(1,), padding=(2,))
    (1): ReLU()
    (2): MaxPool1d(kernel_size=8, stride=8, padding=0, dilation=1, ceil_mode=False)
  )
  (words_rnn): GRU(256, 128, dropout=0.5)
  (attention): MultiHeadAttention(
    (query_layer): Linear(in_features=128, out_features=128, bias=False)
    (key_layer): Linear(in_features=128, out_features=128, bias=False)
    (value_layer): Linear(in_features=128, out_features=128, bias=False)
    (bn): BatchNorm1d(128, eps=1e-05, momentum=0.1, affine=True)
  )
  (dropout): Dropout(p=0.5)
  (projector): Linear(in_features=128, out_features=2, bias=True)
)",charCNN,0.175,0.175,runs/May17_00-21-13_phobos-aijun_AttentionedYoonKim_lr3_dropout0.5_noise_level0.175_spacy_wordlen8_heads1_IMDB,Mokoron binary classification,298416
118,0.5476,0.7575058823529411,"MaxWordLen 8, MaxTexLen 128",0.5,30,0.5891754449691247,0.7759078060447923,,0.001,"AttentionedYoonKimModel(
  (embedding): Linear(in_features=74, out_features=74, bias=True)
  (chars_cnn): Sequential(
    (0): Conv1d(74, 256, kernel_size=(5,), stride=(1,), padding=(2,))
    (1): ReLU()
    (2): MaxPool1d(kernel_size=8, stride=8, padding=0, dilation=1, ceil_mode=False)
  )
  (words_rnn): GRU(256, 128, dropout=0.5)
  (attention): MultiHeadAttention(
    (query_layer): Linear(in_features=128, out_features=128, bias=False)
    (key_layer): Linear(in_features=128, out_features=128, bias=False)
    (value_layer): Linear(in_features=128, out_features=128, bias=False)
    (bn): BatchNorm1d(128, eps=1e-05, momentum=0.1, affine=True)
  )
  (dropout): Dropout(p=0.5)
  (projector): Linear(in_features=128, out_features=2, bias=True)
)",charCNN,0.2,0.175,runs/May17_00-21-13_phobos-aijun_AttentionedYoonKim_lr3_dropout0.5_noise_level0.175_spacy_wordlen8_heads1_IMDB,Mokoron binary classification,298416
119,0.55692,0.7575058823529411,"MaxWordLen 8, MaxTexLen 128",0.5,30,0.5940557774764539,0.7759078060447923,,0.001,"AttentionedYoonKimModel(
  (embedding): Linear(in_features=74, out_features=74, bias=True)
  (chars_cnn): Sequential(
    (0): Conv1d(74, 256, kernel_size=(5,), stride=(1,), padding=(2,))
    (1): ReLU()
    (2): MaxPool1d(kernel_size=8, stride=8, padding=0, dilation=1, ceil_mode=False)
  )
  (words_rnn): GRU(256, 128, dropout=0.5)
  (attention): MultiHeadAttention(
    (query_layer): Linear(in_features=128, out_features=128, bias=False)
    (key_layer): Linear(in_features=128, out_features=128, bias=False)
    (value_layer): Linear(in_features=128, out_features=128, bias=False)
    (bn): BatchNorm1d(128, eps=1e-05, momentum=0.1, affine=True)
  )
  (dropout): Dropout(p=0.5)
  (projector): Linear(in_features=128, out_features=2, bias=True)
)",charCNN,-1.0,0.175,runs/May17_00-21-13_phobos-aijun_AttentionedYoonKim_lr3_dropout0.5_noise_level0.175_spacy_wordlen8_heads1_IMDB,Mokoron binary classification,298416
120,0.67144,0.7446117647058823,"MaxWordLen 8, MaxTexLen 128",0.5,30,0.6633054599114608,0.7469104136548058,,0.001,"AttentionedYoonKimModel(
  (embedding): Linear(in_features=74, out_features=74, bias=True)
  (chars_cnn): Sequential(
    (0): Conv1d(74, 256, kernel_size=(5,), stride=(1,), padding=(2,))
    (1): ReLU()
    (2): MaxPool1d(kernel_size=8, stride=8, padding=0, dilation=1, ceil_mode=False)
  )
  (words_rnn): GRU(256, 128, dropout=0.5)
  (attention): MultiHeadAttention(
    (query_layer): Linear(in_features=128, out_features=128, bias=False)
    (key_layer): Linear(in_features=128, out_features=128, bias=False)
    (value_layer): Linear(in_features=128, out_features=128, bias=False)
    (bn): BatchNorm1d(128, eps=1e-05, momentum=0.1, affine=True)
  )
  (dropout): Dropout(p=0.5)
  (projector): Linear(in_features=128, out_features=2, bias=True)
)",charCNN,0.0,0.2,runs/May17_01-19-11_phobos-aijun_AttentionedYoonKim_lr3_dropout0.5_noise_level0.2_spacy_wordlen8_heads1_IMDB,Mokoron binary classification,298416
121,0.66796,0.7446117647058823,"MaxWordLen 8, MaxTexLen 128",0.5,30,0.6591105088086731,0.7469104136548058,,0.001,"AttentionedYoonKimModel(
  (embedding): Linear(in_features=74, out_features=74, bias=True)
  (chars_cnn): Sequential(
    (0): Conv1d(74, 256, kernel_size=(5,), stride=(1,), padding=(2,))
    (1): ReLU()
    (2): MaxPool1d(kernel_size=8, stride=8, padding=0, dilation=1, ceil_mode=False)
  )
  (words_rnn): GRU(256, 128, dropout=0.5)
  (attention): MultiHeadAttention(
    (query_layer): Linear(in_features=128, out_features=128, bias=False)
    (key_layer): Linear(in_features=128, out_features=128, bias=False)
    (value_layer): Linear(in_features=128, out_features=128, bias=False)
    (bn): BatchNorm1d(128, eps=1e-05, momentum=0.1, affine=True)
  )
  (dropout): Dropout(p=0.5)
  (projector): Linear(in_features=128, out_features=2, bias=True)
)",charCNN,0.005,0.2,runs/May17_01-19-11_phobos-aijun_AttentionedYoonKim_lr3_dropout0.5_noise_level0.2_spacy_wordlen8_heads1_IMDB,Mokoron binary classification,298416
122,0.66668,0.7446117647058823,"MaxWordLen 8, MaxTexLen 128",0.5,30,0.6586654651210421,0.7469104136548058,,0.001,"AttentionedYoonKimModel(
  (embedding): Linear(in_features=74, out_features=74, bias=True)
  (chars_cnn): Sequential(
    (0): Conv1d(74, 256, kernel_size=(5,), stride=(1,), padding=(2,))
    (1): ReLU()
    (2): MaxPool1d(kernel_size=8, stride=8, padding=0, dilation=1, ceil_mode=False)
  )
  (words_rnn): GRU(256, 128, dropout=0.5)
  (attention): MultiHeadAttention(
    (query_layer): Linear(in_features=128, out_features=128, bias=False)
    (key_layer): Linear(in_features=128, out_features=128, bias=False)
    (value_layer): Linear(in_features=128, out_features=128, bias=False)
    (bn): BatchNorm1d(128, eps=1e-05, momentum=0.1, affine=True)
  )
  (dropout): Dropout(p=0.5)
  (projector): Linear(in_features=128, out_features=2, bias=True)
)",charCNN,0.01,0.2,runs/May17_01-19-11_phobos-aijun_AttentionedYoonKim_lr3_dropout0.5_noise_level0.2_spacy_wordlen8_heads1_IMDB,Mokoron binary classification,298416
123,0.65532,0.7446117647058823,"MaxWordLen 8, MaxTexLen 128",0.5,30,0.6479839862739492,0.7469104136548058,,0.001,"AttentionedYoonKimModel(
  (embedding): Linear(in_features=74, out_features=74, bias=True)
  (chars_cnn): Sequential(
    (0): Conv1d(74, 256, kernel_size=(5,), stride=(1,), padding=(2,))
    (1): ReLU()
    (2): MaxPool1d(kernel_size=8, stride=8, padding=0, dilation=1, ceil_mode=False)
  )
  (words_rnn): GRU(256, 128, dropout=0.5)
  (attention): MultiHeadAttention(
    (query_layer): Linear(in_features=128, out_features=128, bias=False)
    (key_layer): Linear(in_features=128, out_features=128, bias=False)
    (value_layer): Linear(in_features=128, out_features=128, bias=False)
    (bn): BatchNorm1d(128, eps=1e-05, momentum=0.1, affine=True)
  )
  (dropout): Dropout(p=0.5)
  (projector): Linear(in_features=128, out_features=2, bias=True)
)",charCNN,0.025,0.2,runs/May17_01-19-11_phobos-aijun_AttentionedYoonKim_lr3_dropout0.5_noise_level0.2_spacy_wordlen8_heads1_IMDB,Mokoron binary classification,298416
124,0.64556,0.7446117647058823,"MaxWordLen 8, MaxTexLen 128",0.5,30,0.6390484337447554,0.7469104136548058,,0.001,"AttentionedYoonKimModel(
  (embedding): Linear(in_features=74, out_features=74, bias=True)
  (chars_cnn): Sequential(
    (0): Conv1d(74, 256, kernel_size=(5,), stride=(1,), padding=(2,))
    (1): ReLU()
    (2): MaxPool1d(kernel_size=8, stride=8, padding=0, dilation=1, ceil_mode=False)
  )
  (words_rnn): GRU(256, 128, dropout=0.5)
  (attention): MultiHeadAttention(
    (query_layer): Linear(in_features=128, out_features=128, bias=False)
    (key_layer): Linear(in_features=128, out_features=128, bias=False)
    (value_layer): Linear(in_features=128, out_features=128, bias=False)
    (bn): BatchNorm1d(128, eps=1e-05, momentum=0.1, affine=True)
  )
  (dropout): Dropout(p=0.5)
  (projector): Linear(in_features=128, out_features=2, bias=True)
)",charCNN,0.05,0.2,runs/May17_01-19-11_phobos-aijun_AttentionedYoonKim_lr3_dropout0.5_noise_level0.2_spacy_wordlen8_heads1_IMDB,Mokoron binary classification,298416
125,0.63476,0.7446117647058823,"MaxWordLen 8, MaxTexLen 128",0.5,30,0.6287154881470337,0.7469104136548058,,0.001,"AttentionedYoonKimModel(
  (embedding): Linear(in_features=74, out_features=74, bias=True)
  (chars_cnn): Sequential(
    (0): Conv1d(74, 256, kernel_size=(5,), stride=(1,), padding=(2,))
    (1): ReLU()
    (2): MaxPool1d(kernel_size=8, stride=8, padding=0, dilation=1, ceil_mode=False)
  )
  (words_rnn): GRU(256, 128, dropout=0.5)
  (attention): MultiHeadAttention(
    (query_layer): Linear(in_features=128, out_features=128, bias=False)
    (key_layer): Linear(in_features=128, out_features=128, bias=False)
    (value_layer): Linear(in_features=128, out_features=128, bias=False)
    (bn): BatchNorm1d(128, eps=1e-05, momentum=0.1, affine=True)
  )
  (dropout): Dropout(p=0.5)
  (projector): Linear(in_features=128, out_features=2, bias=True)
)",charCNN,0.075,0.2,runs/May17_01-19-11_phobos-aijun_AttentionedYoonKim_lr3_dropout0.5_noise_level0.2_spacy_wordlen8_heads1_IMDB,Mokoron binary classification,298416
126,0.62192,0.7446117647058823,"MaxWordLen 8, MaxTexLen 128",0.5,30,0.6164272380488597,0.7469104136548058,,0.001,"AttentionedYoonKimModel(
  (embedding): Linear(in_features=74, out_features=74, bias=True)
  (chars_cnn): Sequential(
    (0): Conv1d(74, 256, kernel_size=(5,), stride=(1,), padding=(2,))
    (1): ReLU()
    (2): MaxPool1d(kernel_size=8, stride=8, padding=0, dilation=1, ceil_mode=False)
  )
  (words_rnn): GRU(256, 128, dropout=0.5)
  (attention): MultiHeadAttention(
    (query_layer): Linear(in_features=128, out_features=128, bias=False)
    (key_layer): Linear(in_features=128, out_features=128, bias=False)
    (value_layer): Linear(in_features=128, out_features=128, bias=False)
    (bn): BatchNorm1d(128, eps=1e-05, momentum=0.1, affine=True)
  )
  (dropout): Dropout(p=0.5)
  (projector): Linear(in_features=128, out_features=2, bias=True)
)",charCNN,0.1,0.2,runs/May17_01-19-11_phobos-aijun_AttentionedYoonKim_lr3_dropout0.5_noise_level0.2_spacy_wordlen8_heads1_IMDB,Mokoron binary classification,298416
127,0.60984,0.7446117647058823,"MaxWordLen 8, MaxTexLen 128",0.5,30,0.6064396384764364,0.7469104136548058,,0.001,"AttentionedYoonKimModel(
  (embedding): Linear(in_features=74, out_features=74, bias=True)
  (chars_cnn): Sequential(
    (0): Conv1d(74, 256, kernel_size=(5,), stride=(1,), padding=(2,))
    (1): ReLU()
    (2): MaxPool1d(kernel_size=8, stride=8, padding=0, dilation=1, ceil_mode=False)
  )
  (words_rnn): GRU(256, 128, dropout=0.5)
  (attention): MultiHeadAttention(
    (query_layer): Linear(in_features=128, out_features=128, bias=False)
    (key_layer): Linear(in_features=128, out_features=128, bias=False)
    (value_layer): Linear(in_features=128, out_features=128, bias=False)
    (bn): BatchNorm1d(128, eps=1e-05, momentum=0.1, affine=True)
  )
  (dropout): Dropout(p=0.5)
  (projector): Linear(in_features=128, out_features=2, bias=True)
)",charCNN,0.125,0.2,runs/May17_01-19-11_phobos-aijun_AttentionedYoonKim_lr3_dropout0.5_noise_level0.2_spacy_wordlen8_heads1_IMDB,Mokoron binary classification,298416
128,0.5948,0.7446117647058823,"MaxWordLen 8, MaxTexLen 128",0.5,30,0.5940205193972428,0.7469104136548058,,0.001,"AttentionedYoonKimModel(
  (embedding): Linear(in_features=74, out_features=74, bias=True)
  (chars_cnn): Sequential(
    (0): Conv1d(74, 256, kernel_size=(5,), stride=(1,), padding=(2,))
    (1): ReLU()
    (2): MaxPool1d(kernel_size=8, stride=8, padding=0, dilation=1, ceil_mode=False)
  )
  (words_rnn): GRU(256, 128, dropout=0.5)
  (attention): MultiHeadAttention(
    (query_layer): Linear(in_features=128, out_features=128, bias=False)
    (key_layer): Linear(in_features=128, out_features=128, bias=False)
    (value_layer): Linear(in_features=128, out_features=128, bias=False)
    (bn): BatchNorm1d(128, eps=1e-05, momentum=0.1, affine=True)
  )
  (dropout): Dropout(p=0.5)
  (projector): Linear(in_features=128, out_features=2, bias=True)
)",charCNN,0.15,0.2,runs/May17_01-19-11_phobos-aijun_AttentionedYoonKim_lr3_dropout0.5_noise_level0.2_spacy_wordlen8_heads1_IMDB,Mokoron binary classification,298416
129,0.58608,0.7446117647058823,"MaxWordLen 8, MaxTexLen 128",0.5,30,0.5870051085568327,0.7469104136548058,,0.001,"AttentionedYoonKimModel(
  (embedding): Linear(in_features=74, out_features=74, bias=True)
  (chars_cnn): Sequential(
    (0): Conv1d(74, 256, kernel_size=(5,), stride=(1,), padding=(2,))
    (1): ReLU()
    (2): MaxPool1d(kernel_size=8, stride=8, padding=0, dilation=1, ceil_mode=False)
  )
  (words_rnn): GRU(256, 128, dropout=0.5)
  (attention): MultiHeadAttention(
    (query_layer): Linear(in_features=128, out_features=128, bias=False)
    (key_layer): Linear(in_features=128, out_features=128, bias=False)
    (value_layer): Linear(in_features=128, out_features=128, bias=False)
    (bn): BatchNorm1d(128, eps=1e-05, momentum=0.1, affine=True)
  )
  (dropout): Dropout(p=0.5)
  (projector): Linear(in_features=128, out_features=2, bias=True)
)",charCNN,0.175,0.2,runs/May17_01-19-11_phobos-aijun_AttentionedYoonKim_lr3_dropout0.5_noise_level0.2_spacy_wordlen8_heads1_IMDB,Mokoron binary classification,298416
130,0.57896,0.7446117647058823,"MaxWordLen 8, MaxTexLen 128",0.5,30,0.5803030303030302,0.7469104136548058,,0.001,"AttentionedYoonKimModel(
  (embedding): Linear(in_features=74, out_features=74, bias=True)
  (chars_cnn): Sequential(
    (0): Conv1d(74, 256, kernel_size=(5,), stride=(1,), padding=(2,))
    (1): ReLU()
    (2): MaxPool1d(kernel_size=8, stride=8, padding=0, dilation=1, ceil_mode=False)
  )
  (words_rnn): GRU(256, 128, dropout=0.5)
  (attention): MultiHeadAttention(
    (query_layer): Linear(in_features=128, out_features=128, bias=False)
    (key_layer): Linear(in_features=128, out_features=128, bias=False)
    (value_layer): Linear(in_features=128, out_features=128, bias=False)
    (bn): BatchNorm1d(128, eps=1e-05, momentum=0.1, affine=True)
  )
  (dropout): Dropout(p=0.5)
  (projector): Linear(in_features=128, out_features=2, bias=True)
)",charCNN,0.2,0.2,runs/May17_01-19-11_phobos-aijun_AttentionedYoonKim_lr3_dropout0.5_noise_level0.2_spacy_wordlen8_heads1_IMDB,Mokoron binary classification,298416
131,0.57424,0.7446117647058823,"MaxWordLen 8, MaxTexLen 128",0.5,30,0.5769139041259241,0.7469104136548058,,0.001,"AttentionedYoonKimModel(
  (embedding): Linear(in_features=74, out_features=74, bias=True)
  (chars_cnn): Sequential(
    (0): Conv1d(74, 256, kernel_size=(5,), stride=(1,), padding=(2,))
    (1): ReLU()
    (2): MaxPool1d(kernel_size=8, stride=8, padding=0, dilation=1, ceil_mode=False)
  )
  (words_rnn): GRU(256, 128, dropout=0.5)
  (attention): MultiHeadAttention(
    (query_layer): Linear(in_features=128, out_features=128, bias=False)
    (key_layer): Linear(in_features=128, out_features=128, bias=False)
    (value_layer): Linear(in_features=128, out_features=128, bias=False)
    (bn): BatchNorm1d(128, eps=1e-05, momentum=0.1, affine=True)
  )
  (dropout): Dropout(p=0.5)
  (projector): Linear(in_features=128, out_features=2, bias=True)
)",charCNN,-1.0,0.2,runs/May17_01-19-11_phobos-aijun_AttentionedYoonKim_lr3_dropout0.5_noise_level0.2_spacy_wordlen8_heads1_IMDB,Mokoron binary classification,298416
