,acc_test,acc_train,data_desc,dropout,epochs,f1_test,f1_train,init_function,lr,model_desc,model_type,noise_level_test,noise_level_train,task,trainable_params
120,0.72036,0.9838222222222223,"MAX_WORD_LEN = 8, MAX_TEXT_LEN = 256",0.5,30,0.7240794095591429,0.9840644426932843,,0.001,"AttentionedYoonKimModel(
  (embedding): Linear(in_features=74, out_features=74, bias=True)
  (chars_cnn): Sequential(
    (0): Conv1d(74, 256, kernel_size=(5,), stride=(1,), padding=(2,))
    (1): ReLU()
    (2): MaxPool1d(kernel_size=8, stride=8, padding=0, dilation=1, ceil_mode=False)
  )
  (words_rnn): GRU(256, 128, dropout=0.5)
  (attention): MultiHeadAttention(
    (query_layer): Linear(in_features=128, out_features=128, bias=False)
    (key_layer): Linear(in_features=128, out_features=128, bias=False)
    (value_layer): Linear(in_features=128, out_features=128, bias=False)
    (bn): BatchNorm1d(128, eps=1e-05, momentum=0.1, affine=True)
  )
  (projector): Linear(in_features=128, out_features=2, bias=True)
)",AttentionedYoonKim,0.0,0.0,IMDB binary classification,298416
121,0.7126,0.9838222222222223,"MAX_WORD_LEN = 8, MAX_TEXT_LEN = 256",0.5,30,0.7182684390071756,0.9840644426932843,,0.001,"AttentionedYoonKimModel(
  (embedding): Linear(in_features=74, out_features=74, bias=True)
  (chars_cnn): Sequential(
    (0): Conv1d(74, 256, kernel_size=(5,), stride=(1,), padding=(2,))
    (1): ReLU()
    (2): MaxPool1d(kernel_size=8, stride=8, padding=0, dilation=1, ceil_mode=False)
  )
  (words_rnn): GRU(256, 128, dropout=0.5)
  (attention): MultiHeadAttention(
    (query_layer): Linear(in_features=128, out_features=128, bias=False)
    (key_layer): Linear(in_features=128, out_features=128, bias=False)
    (value_layer): Linear(in_features=128, out_features=128, bias=False)
    (bn): BatchNorm1d(128, eps=1e-05, momentum=0.1, affine=True)
  )
  (projector): Linear(in_features=128, out_features=2, bias=True)
)",AttentionedYoonKim,0.01,0.0,IMDB binary classification,298416
122,0.68996,0.9838222222222223,"MAX_WORD_LEN = 8, MAX_TEXT_LEN = 256",0.5,30,0.6988148435982127,0.9840644426932843,,0.001,"AttentionedYoonKimModel(
  (embedding): Linear(in_features=74, out_features=74, bias=True)
  (chars_cnn): Sequential(
    (0): Conv1d(74, 256, kernel_size=(5,), stride=(1,), padding=(2,))
    (1): ReLU()
    (2): MaxPool1d(kernel_size=8, stride=8, padding=0, dilation=1, ceil_mode=False)
  )
  (words_rnn): GRU(256, 128, dropout=0.5)
  (attention): MultiHeadAttention(
    (query_layer): Linear(in_features=128, out_features=128, bias=False)
    (key_layer): Linear(in_features=128, out_features=128, bias=False)
    (value_layer): Linear(in_features=128, out_features=128, bias=False)
    (bn): BatchNorm1d(128, eps=1e-05, momentum=0.1, affine=True)
  )
  (projector): Linear(in_features=128, out_features=2, bias=True)
)",AttentionedYoonKim,0.025,0.0,IMDB binary classification,298416
123,0.67116,0.9838222222222223,"MAX_WORD_LEN = 8, MAX_TEXT_LEN = 256",0.5,30,0.6831618298839943,0.9840644426932843,,0.001,"AttentionedYoonKimModel(
  (embedding): Linear(in_features=74, out_features=74, bias=True)
  (chars_cnn): Sequential(
    (0): Conv1d(74, 256, kernel_size=(5,), stride=(1,), padding=(2,))
    (1): ReLU()
    (2): MaxPool1d(kernel_size=8, stride=8, padding=0, dilation=1, ceil_mode=False)
  )
  (words_rnn): GRU(256, 128, dropout=0.5)
  (attention): MultiHeadAttention(
    (query_layer): Linear(in_features=128, out_features=128, bias=False)
    (key_layer): Linear(in_features=128, out_features=128, bias=False)
    (value_layer): Linear(in_features=128, out_features=128, bias=False)
    (bn): BatchNorm1d(128, eps=1e-05, momentum=0.1, affine=True)
  )
  (projector): Linear(in_features=128, out_features=2, bias=True)
)",AttentionedYoonKim,0.05,0.0,IMDB binary classification,298416
124,0.6502,0.9838222222222223,"MAX_WORD_LEN = 8, MAX_TEXT_LEN = 256",0.5,30,0.6690132848870216,0.9840644426932843,,0.001,"AttentionedYoonKimModel(
  (embedding): Linear(in_features=74, out_features=74, bias=True)
  (chars_cnn): Sequential(
    (0): Conv1d(74, 256, kernel_size=(5,), stride=(1,), padding=(2,))
    (1): ReLU()
    (2): MaxPool1d(kernel_size=8, stride=8, padding=0, dilation=1, ceil_mode=False)
  )
  (words_rnn): GRU(256, 128, dropout=0.5)
  (attention): MultiHeadAttention(
    (query_layer): Linear(in_features=128, out_features=128, bias=False)
    (key_layer): Linear(in_features=128, out_features=128, bias=False)
    (value_layer): Linear(in_features=128, out_features=128, bias=False)
    (bn): BatchNorm1d(128, eps=1e-05, momentum=0.1, affine=True)
  )
  (projector): Linear(in_features=128, out_features=2, bias=True)
)",AttentionedYoonKim,0.075,0.0,IMDB binary classification,298416
125,0.62444,0.9838222222222223,"MAX_WORD_LEN = 8, MAX_TEXT_LEN = 256",0.5,30,0.6493632595137618,0.9840644426932843,,0.001,"AttentionedYoonKimModel(
  (embedding): Linear(in_features=74, out_features=74, bias=True)
  (chars_cnn): Sequential(
    (0): Conv1d(74, 256, kernel_size=(5,), stride=(1,), padding=(2,))
    (1): ReLU()
    (2): MaxPool1d(kernel_size=8, stride=8, padding=0, dilation=1, ceil_mode=False)
  )
  (words_rnn): GRU(256, 128, dropout=0.5)
  (attention): MultiHeadAttention(
    (query_layer): Linear(in_features=128, out_features=128, bias=False)
    (key_layer): Linear(in_features=128, out_features=128, bias=False)
    (value_layer): Linear(in_features=128, out_features=128, bias=False)
    (bn): BatchNorm1d(128, eps=1e-05, momentum=0.1, affine=True)
  )
  (projector): Linear(in_features=128, out_features=2, bias=True)
)",AttentionedYoonKim,0.1,0.0,IMDB binary classification,298416
126,0.60816,0.9838222222222223,"MAX_WORD_LEN = 8, MAX_TEXT_LEN = 256",0.5,30,0.6391365210344065,0.9840644426932843,,0.001,"AttentionedYoonKimModel(
  (embedding): Linear(in_features=74, out_features=74, bias=True)
  (chars_cnn): Sequential(
    (0): Conv1d(74, 256, kernel_size=(5,), stride=(1,), padding=(2,))
    (1): ReLU()
    (2): MaxPool1d(kernel_size=8, stride=8, padding=0, dilation=1, ceil_mode=False)
  )
  (words_rnn): GRU(256, 128, dropout=0.5)
  (attention): MultiHeadAttention(
    (query_layer): Linear(in_features=128, out_features=128, bias=False)
    (key_layer): Linear(in_features=128, out_features=128, bias=False)
    (value_layer): Linear(in_features=128, out_features=128, bias=False)
    (bn): BatchNorm1d(128, eps=1e-05, momentum=0.1, affine=True)
  )
  (projector): Linear(in_features=128, out_features=2, bias=True)
)",AttentionedYoonKim,0.125,0.0,IMDB binary classification,298416
127,0.59036,0.9838222222222223,"MAX_WORD_LEN = 8, MAX_TEXT_LEN = 256",0.5,30,0.6232571827980723,0.9840644426932843,,0.001,"AttentionedYoonKimModel(
  (embedding): Linear(in_features=74, out_features=74, bias=True)
  (chars_cnn): Sequential(
    (0): Conv1d(74, 256, kernel_size=(5,), stride=(1,), padding=(2,))
    (1): ReLU()
    (2): MaxPool1d(kernel_size=8, stride=8, padding=0, dilation=1, ceil_mode=False)
  )
  (words_rnn): GRU(256, 128, dropout=0.5)
  (attention): MultiHeadAttention(
    (query_layer): Linear(in_features=128, out_features=128, bias=False)
    (key_layer): Linear(in_features=128, out_features=128, bias=False)
    (value_layer): Linear(in_features=128, out_features=128, bias=False)
    (bn): BatchNorm1d(128, eps=1e-05, momentum=0.1, affine=True)
  )
  (projector): Linear(in_features=128, out_features=2, bias=True)
)",AttentionedYoonKim,0.15,0.0,IMDB binary classification,298416
128,0.57716,0.9838222222222223,"MAX_WORD_LEN = 8, MAX_TEXT_LEN = 256",0.5,30,0.6144644224807615,0.9840644426932843,,0.001,"AttentionedYoonKimModel(
  (embedding): Linear(in_features=74, out_features=74, bias=True)
  (chars_cnn): Sequential(
    (0): Conv1d(74, 256, kernel_size=(5,), stride=(1,), padding=(2,))
    (1): ReLU()
    (2): MaxPool1d(kernel_size=8, stride=8, padding=0, dilation=1, ceil_mode=False)
  )
  (words_rnn): GRU(256, 128, dropout=0.5)
  (attention): MultiHeadAttention(
    (query_layer): Linear(in_features=128, out_features=128, bias=False)
    (key_layer): Linear(in_features=128, out_features=128, bias=False)
    (value_layer): Linear(in_features=128, out_features=128, bias=False)
    (bn): BatchNorm1d(128, eps=1e-05, momentum=0.1, affine=True)
  )
  (projector): Linear(in_features=128, out_features=2, bias=True)
)",AttentionedYoonKim,0.175,0.0,IMDB binary classification,298416
129,0.56752,0.9838222222222223,"MAX_WORD_LEN = 8, MAX_TEXT_LEN = 256",0.5,30,0.6125564394753817,0.9840644426932843,,0.001,"AttentionedYoonKimModel(
  (embedding): Linear(in_features=74, out_features=74, bias=True)
  (chars_cnn): Sequential(
    (0): Conv1d(74, 256, kernel_size=(5,), stride=(1,), padding=(2,))
    (1): ReLU()
    (2): MaxPool1d(kernel_size=8, stride=8, padding=0, dilation=1, ceil_mode=False)
  )
  (words_rnn): GRU(256, 128, dropout=0.5)
  (attention): MultiHeadAttention(
    (query_layer): Linear(in_features=128, out_features=128, bias=False)
    (key_layer): Linear(in_features=128, out_features=128, bias=False)
    (value_layer): Linear(in_features=128, out_features=128, bias=False)
    (bn): BatchNorm1d(128, eps=1e-05, momentum=0.1, affine=True)
  )
  (projector): Linear(in_features=128, out_features=2, bias=True)
)",AttentionedYoonKim,0.2,0.0,IMDB binary classification,298416
130,0.78628,0.9848888888888889,"MAX_WORD_LEN = 8, MAX_TEXT_LEN = 256",0.5,30,0.7762281693680111,0.9847218477577064,,0.001,"AttentionedYoonKimModel(
  (embedding): Linear(in_features=74, out_features=74, bias=True)
  (chars_cnn): Sequential(
    (0): Conv1d(74, 256, kernel_size=(5,), stride=(1,), padding=(2,))
    (1): ReLU()
    (2): MaxPool1d(kernel_size=8, stride=8, padding=0, dilation=1, ceil_mode=False)
  )
  (words_rnn): GRU(256, 128, dropout=0.5)
  (attention): MultiHeadAttention(
    (query_layer): Linear(in_features=128, out_features=128, bias=False)
    (key_layer): Linear(in_features=128, out_features=128, bias=False)
    (value_layer): Linear(in_features=128, out_features=128, bias=False)
    (bn): BatchNorm1d(128, eps=1e-05, momentum=0.1, affine=True)
  )
  (projector): Linear(in_features=128, out_features=2, bias=True)
)",AttentionedYoonKim,0.0,0.01,IMDB binary classification,298416
131,0.77724,0.9848888888888889,"MAX_WORD_LEN = 8, MAX_TEXT_LEN = 256",0.5,30,0.7659002059775526,0.9847218477577064,,0.001,"AttentionedYoonKimModel(
  (embedding): Linear(in_features=74, out_features=74, bias=True)
  (chars_cnn): Sequential(
    (0): Conv1d(74, 256, kernel_size=(5,), stride=(1,), padding=(2,))
    (1): ReLU()
    (2): MaxPool1d(kernel_size=8, stride=8, padding=0, dilation=1, ceil_mode=False)
  )
  (words_rnn): GRU(256, 128, dropout=0.5)
  (attention): MultiHeadAttention(
    (query_layer): Linear(in_features=128, out_features=128, bias=False)
    (key_layer): Linear(in_features=128, out_features=128, bias=False)
    (value_layer): Linear(in_features=128, out_features=128, bias=False)
    (bn): BatchNorm1d(128, eps=1e-05, momentum=0.1, affine=True)
  )
  (projector): Linear(in_features=128, out_features=2, bias=True)
)",AttentionedYoonKim,0.01,0.01,IMDB binary classification,298416
132,0.76576,0.9848888888888889,"MAX_WORD_LEN = 8, MAX_TEXT_LEN = 256",0.5,30,0.7530364372469636,0.9847218477577064,,0.001,"AttentionedYoonKimModel(
  (embedding): Linear(in_features=74, out_features=74, bias=True)
  (chars_cnn): Sequential(
    (0): Conv1d(74, 256, kernel_size=(5,), stride=(1,), padding=(2,))
    (1): ReLU()
    (2): MaxPool1d(kernel_size=8, stride=8, padding=0, dilation=1, ceil_mode=False)
  )
  (words_rnn): GRU(256, 128, dropout=0.5)
  (attention): MultiHeadAttention(
    (query_layer): Linear(in_features=128, out_features=128, bias=False)
    (key_layer): Linear(in_features=128, out_features=128, bias=False)
    (value_layer): Linear(in_features=128, out_features=128, bias=False)
    (bn): BatchNorm1d(128, eps=1e-05, momentum=0.1, affine=True)
  )
  (projector): Linear(in_features=128, out_features=2, bias=True)
)",AttentionedYoonKim,0.025,0.01,IMDB binary classification,298416
133,0.7536,0.9848888888888889,"MAX_WORD_LEN = 8, MAX_TEXT_LEN = 256",0.5,30,0.7392702954372302,0.9847218477577064,,0.001,"AttentionedYoonKimModel(
  (embedding): Linear(in_features=74, out_features=74, bias=True)
  (chars_cnn): Sequential(
    (0): Conv1d(74, 256, kernel_size=(5,), stride=(1,), padding=(2,))
    (1): ReLU()
    (2): MaxPool1d(kernel_size=8, stride=8, padding=0, dilation=1, ceil_mode=False)
  )
  (words_rnn): GRU(256, 128, dropout=0.5)
  (attention): MultiHeadAttention(
    (query_layer): Linear(in_features=128, out_features=128, bias=False)
    (key_layer): Linear(in_features=128, out_features=128, bias=False)
    (value_layer): Linear(in_features=128, out_features=128, bias=False)
    (bn): BatchNorm1d(128, eps=1e-05, momentum=0.1, affine=True)
  )
  (projector): Linear(in_features=128, out_features=2, bias=True)
)",AttentionedYoonKim,0.05,0.01,IMDB binary classification,298416
134,0.73672,0.9848888888888889,"MAX_WORD_LEN = 8, MAX_TEXT_LEN = 256",0.5,30,0.7182845403184386,0.9847218477577064,,0.001,"AttentionedYoonKimModel(
  (embedding): Linear(in_features=74, out_features=74, bias=True)
  (chars_cnn): Sequential(
    (0): Conv1d(74, 256, kernel_size=(5,), stride=(1,), padding=(2,))
    (1): ReLU()
    (2): MaxPool1d(kernel_size=8, stride=8, padding=0, dilation=1, ceil_mode=False)
  )
  (words_rnn): GRU(256, 128, dropout=0.5)
  (attention): MultiHeadAttention(
    (query_layer): Linear(in_features=128, out_features=128, bias=False)
    (key_layer): Linear(in_features=128, out_features=128, bias=False)
    (value_layer): Linear(in_features=128, out_features=128, bias=False)
    (bn): BatchNorm1d(128, eps=1e-05, momentum=0.1, affine=True)
  )
  (projector): Linear(in_features=128, out_features=2, bias=True)
)",AttentionedYoonKim,0.075,0.01,IMDB binary classification,298416
135,0.72252,0.9848888888888889,"MAX_WORD_LEN = 8, MAX_TEXT_LEN = 256",0.5,30,0.7020060999183815,0.9847218477577064,,0.001,"AttentionedYoonKimModel(
  (embedding): Linear(in_features=74, out_features=74, bias=True)
  (chars_cnn): Sequential(
    (0): Conv1d(74, 256, kernel_size=(5,), stride=(1,), padding=(2,))
    (1): ReLU()
    (2): MaxPool1d(kernel_size=8, stride=8, padding=0, dilation=1, ceil_mode=False)
  )
  (words_rnn): GRU(256, 128, dropout=0.5)
  (attention): MultiHeadAttention(
    (query_layer): Linear(in_features=128, out_features=128, bias=False)
    (key_layer): Linear(in_features=128, out_features=128, bias=False)
    (value_layer): Linear(in_features=128, out_features=128, bias=False)
    (bn): BatchNorm1d(128, eps=1e-05, momentum=0.1, affine=True)
  )
  (projector): Linear(in_features=128, out_features=2, bias=True)
)",AttentionedYoonKim,0.1,0.01,IMDB binary classification,298416
136,0.70428,0.9848888888888889,"MAX_WORD_LEN = 8, MAX_TEXT_LEN = 256",0.5,30,0.6799428546690333,0.9847218477577064,,0.001,"AttentionedYoonKimModel(
  (embedding): Linear(in_features=74, out_features=74, bias=True)
  (chars_cnn): Sequential(
    (0): Conv1d(74, 256, kernel_size=(5,), stride=(1,), padding=(2,))
    (1): ReLU()
    (2): MaxPool1d(kernel_size=8, stride=8, padding=0, dilation=1, ceil_mode=False)
  )
  (words_rnn): GRU(256, 128, dropout=0.5)
  (attention): MultiHeadAttention(
    (query_layer): Linear(in_features=128, out_features=128, bias=False)
    (key_layer): Linear(in_features=128, out_features=128, bias=False)
    (value_layer): Linear(in_features=128, out_features=128, bias=False)
    (bn): BatchNorm1d(128, eps=1e-05, momentum=0.1, affine=True)
  )
  (projector): Linear(in_features=128, out_features=2, bias=True)
)",AttentionedYoonKim,0.125,0.01,IMDB binary classification,298416
137,0.68124,0.9848888888888889,"MAX_WORD_LEN = 8, MAX_TEXT_LEN = 256",0.5,30,0.6519935368356696,0.9847218477577064,,0.001,"AttentionedYoonKimModel(
  (embedding): Linear(in_features=74, out_features=74, bias=True)
  (chars_cnn): Sequential(
    (0): Conv1d(74, 256, kernel_size=(5,), stride=(1,), padding=(2,))
    (1): ReLU()
    (2): MaxPool1d(kernel_size=8, stride=8, padding=0, dilation=1, ceil_mode=False)
  )
  (words_rnn): GRU(256, 128, dropout=0.5)
  (attention): MultiHeadAttention(
    (query_layer): Linear(in_features=128, out_features=128, bias=False)
    (key_layer): Linear(in_features=128, out_features=128, bias=False)
    (value_layer): Linear(in_features=128, out_features=128, bias=False)
    (bn): BatchNorm1d(128, eps=1e-05, momentum=0.1, affine=True)
  )
  (projector): Linear(in_features=128, out_features=2, bias=True)
)",AttentionedYoonKim,0.15,0.01,IMDB binary classification,298416
138,0.67236,0.9848888888888889,"MAX_WORD_LEN = 8, MAX_TEXT_LEN = 256",0.5,30,0.6435751272790566,0.9847218477577064,,0.001,"AttentionedYoonKimModel(
  (embedding): Linear(in_features=74, out_features=74, bias=True)
  (chars_cnn): Sequential(
    (0): Conv1d(74, 256, kernel_size=(5,), stride=(1,), padding=(2,))
    (1): ReLU()
    (2): MaxPool1d(kernel_size=8, stride=8, padding=0, dilation=1, ceil_mode=False)
  )
  (words_rnn): GRU(256, 128, dropout=0.5)
  (attention): MultiHeadAttention(
    (query_layer): Linear(in_features=128, out_features=128, bias=False)
    (key_layer): Linear(in_features=128, out_features=128, bias=False)
    (value_layer): Linear(in_features=128, out_features=128, bias=False)
    (bn): BatchNorm1d(128, eps=1e-05, momentum=0.1, affine=True)
  )
  (projector): Linear(in_features=128, out_features=2, bias=True)
)",AttentionedYoonKim,0.175,0.01,IMDB binary classification,298416
139,0.6524,0.9848888888888889,"MAX_WORD_LEN = 8, MAX_TEXT_LEN = 256",0.5,30,0.6149415101028004,0.9847218477577064,,0.001,"AttentionedYoonKimModel(
  (embedding): Linear(in_features=74, out_features=74, bias=True)
  (chars_cnn): Sequential(
    (0): Conv1d(74, 256, kernel_size=(5,), stride=(1,), padding=(2,))
    (1): ReLU()
    (2): MaxPool1d(kernel_size=8, stride=8, padding=0, dilation=1, ceil_mode=False)
  )
  (words_rnn): GRU(256, 128, dropout=0.5)
  (attention): MultiHeadAttention(
    (query_layer): Linear(in_features=128, out_features=128, bias=False)
    (key_layer): Linear(in_features=128, out_features=128, bias=False)
    (value_layer): Linear(in_features=128, out_features=128, bias=False)
    (bn): BatchNorm1d(128, eps=1e-05, momentum=0.1, affine=True)
  )
  (projector): Linear(in_features=128, out_features=2, bias=True)
)",AttentionedYoonKim,0.2,0.01,IMDB binary classification,298416
140,0.8118,0.9793777777777778,"MAX_WORD_LEN = 8, MAX_TEXT_LEN = 256",0.5,30,0.8107782022923788,0.9793392109715914,,0.001,"AttentionedYoonKimModel(
  (embedding): Linear(in_features=74, out_features=74, bias=True)
  (chars_cnn): Sequential(
    (0): Conv1d(74, 256, kernel_size=(5,), stride=(1,), padding=(2,))
    (1): ReLU()
    (2): MaxPool1d(kernel_size=8, stride=8, padding=0, dilation=1, ceil_mode=False)
  )
  (words_rnn): GRU(256, 128, dropout=0.5)
  (attention): MultiHeadAttention(
    (query_layer): Linear(in_features=128, out_features=128, bias=False)
    (key_layer): Linear(in_features=128, out_features=128, bias=False)
    (value_layer): Linear(in_features=128, out_features=128, bias=False)
    (bn): BatchNorm1d(128, eps=1e-05, momentum=0.1, affine=True)
  )
  (projector): Linear(in_features=128, out_features=2, bias=True)
)",AttentionedYoonKim,0.0,0.025,IMDB binary classification,298416
141,0.80708,0.9793777777777778,"MAX_WORD_LEN = 8, MAX_TEXT_LEN = 256",0.5,30,0.8057200402819737,0.9793392109715914,,0.001,"AttentionedYoonKimModel(
  (embedding): Linear(in_features=74, out_features=74, bias=True)
  (chars_cnn): Sequential(
    (0): Conv1d(74, 256, kernel_size=(5,), stride=(1,), padding=(2,))
    (1): ReLU()
    (2): MaxPool1d(kernel_size=8, stride=8, padding=0, dilation=1, ceil_mode=False)
  )
  (words_rnn): GRU(256, 128, dropout=0.5)
  (attention): MultiHeadAttention(
    (query_layer): Linear(in_features=128, out_features=128, bias=False)
    (key_layer): Linear(in_features=128, out_features=128, bias=False)
    (value_layer): Linear(in_features=128, out_features=128, bias=False)
    (bn): BatchNorm1d(128, eps=1e-05, momentum=0.1, affine=True)
  )
  (projector): Linear(in_features=128, out_features=2, bias=True)
)",AttentionedYoonKim,0.01,0.025,IMDB binary classification,298416
142,0.80208,0.9793777777777778,"MAX_WORD_LEN = 8, MAX_TEXT_LEN = 256",0.5,30,0.8010614345448698,0.9793392109715914,,0.001,"AttentionedYoonKimModel(
  (embedding): Linear(in_features=74, out_features=74, bias=True)
  (chars_cnn): Sequential(
    (0): Conv1d(74, 256, kernel_size=(5,), stride=(1,), padding=(2,))
    (1): ReLU()
    (2): MaxPool1d(kernel_size=8, stride=8, padding=0, dilation=1, ceil_mode=False)
  )
  (words_rnn): GRU(256, 128, dropout=0.5)
  (attention): MultiHeadAttention(
    (query_layer): Linear(in_features=128, out_features=128, bias=False)
    (key_layer): Linear(in_features=128, out_features=128, bias=False)
    (value_layer): Linear(in_features=128, out_features=128, bias=False)
    (bn): BatchNorm1d(128, eps=1e-05, momentum=0.1, affine=True)
  )
  (projector): Linear(in_features=128, out_features=2, bias=True)
)",AttentionedYoonKim,0.025,0.025,IMDB binary classification,298416
143,0.78724,0.9793777777777778,"MAX_WORD_LEN = 8, MAX_TEXT_LEN = 256",0.5,30,0.7860676507259784,0.9793392109715914,,0.001,"AttentionedYoonKimModel(
  (embedding): Linear(in_features=74, out_features=74, bias=True)
  (chars_cnn): Sequential(
    (0): Conv1d(74, 256, kernel_size=(5,), stride=(1,), padding=(2,))
    (1): ReLU()
    (2): MaxPool1d(kernel_size=8, stride=8, padding=0, dilation=1, ceil_mode=False)
  )
  (words_rnn): GRU(256, 128, dropout=0.5)
  (attention): MultiHeadAttention(
    (query_layer): Linear(in_features=128, out_features=128, bias=False)
    (key_layer): Linear(in_features=128, out_features=128, bias=False)
    (value_layer): Linear(in_features=128, out_features=128, bias=False)
    (bn): BatchNorm1d(128, eps=1e-05, momentum=0.1, affine=True)
  )
  (projector): Linear(in_features=128, out_features=2, bias=True)
)",AttentionedYoonKim,0.05,0.025,IMDB binary classification,298416
144,0.76688,0.9793777777777778,"MAX_WORD_LEN = 8, MAX_TEXT_LEN = 256",0.5,30,0.766450268494029,0.9793392109715914,,0.001,"AttentionedYoonKimModel(
  (embedding): Linear(in_features=74, out_features=74, bias=True)
  (chars_cnn): Sequential(
    (0): Conv1d(74, 256, kernel_size=(5,), stride=(1,), padding=(2,))
    (1): ReLU()
    (2): MaxPool1d(kernel_size=8, stride=8, padding=0, dilation=1, ceil_mode=False)
  )
  (words_rnn): GRU(256, 128, dropout=0.5)
  (attention): MultiHeadAttention(
    (query_layer): Linear(in_features=128, out_features=128, bias=False)
    (key_layer): Linear(in_features=128, out_features=128, bias=False)
    (value_layer): Linear(in_features=128, out_features=128, bias=False)
    (bn): BatchNorm1d(128, eps=1e-05, momentum=0.1, affine=True)
  )
  (projector): Linear(in_features=128, out_features=2, bias=True)
)",AttentionedYoonKim,0.075,0.025,IMDB binary classification,298416
145,0.75596,0.9793777777777778,"MAX_WORD_LEN = 8, MAX_TEXT_LEN = 256",0.5,30,0.7556570146982258,0.9793392109715914,,0.001,"AttentionedYoonKimModel(
  (embedding): Linear(in_features=74, out_features=74, bias=True)
  (chars_cnn): Sequential(
    (0): Conv1d(74, 256, kernel_size=(5,), stride=(1,), padding=(2,))
    (1): ReLU()
    (2): MaxPool1d(kernel_size=8, stride=8, padding=0, dilation=1, ceil_mode=False)
  )
  (words_rnn): GRU(256, 128, dropout=0.5)
  (attention): MultiHeadAttention(
    (query_layer): Linear(in_features=128, out_features=128, bias=False)
    (key_layer): Linear(in_features=128, out_features=128, bias=False)
    (value_layer): Linear(in_features=128, out_features=128, bias=False)
    (bn): BatchNorm1d(128, eps=1e-05, momentum=0.1, affine=True)
  )
  (projector): Linear(in_features=128, out_features=2, bias=True)
)",AttentionedYoonKim,0.1,0.025,IMDB binary classification,298416
146,0.7426,0.9793777777777778,"MAX_WORD_LEN = 8, MAX_TEXT_LEN = 256",0.5,30,0.7432265272734528,0.9793392109715914,,0.001,"AttentionedYoonKimModel(
  (embedding): Linear(in_features=74, out_features=74, bias=True)
  (chars_cnn): Sequential(
    (0): Conv1d(74, 256, kernel_size=(5,), stride=(1,), padding=(2,))
    (1): ReLU()
    (2): MaxPool1d(kernel_size=8, stride=8, padding=0, dilation=1, ceil_mode=False)
  )
  (words_rnn): GRU(256, 128, dropout=0.5)
  (attention): MultiHeadAttention(
    (query_layer): Linear(in_features=128, out_features=128, bias=False)
    (key_layer): Linear(in_features=128, out_features=128, bias=False)
    (value_layer): Linear(in_features=128, out_features=128, bias=False)
    (bn): BatchNorm1d(128, eps=1e-05, momentum=0.1, affine=True)
  )
  (projector): Linear(in_features=128, out_features=2, bias=True)
)",AttentionedYoonKim,0.125,0.025,IMDB binary classification,298416
147,0.72836,0.9793777777777778,"MAX_WORD_LEN = 8, MAX_TEXT_LEN = 256",0.5,30,0.7317188796270689,0.9793392109715914,,0.001,"AttentionedYoonKimModel(
  (embedding): Linear(in_features=74, out_features=74, bias=True)
  (chars_cnn): Sequential(
    (0): Conv1d(74, 256, kernel_size=(5,), stride=(1,), padding=(2,))
    (1): ReLU()
    (2): MaxPool1d(kernel_size=8, stride=8, padding=0, dilation=1, ceil_mode=False)
  )
  (words_rnn): GRU(256, 128, dropout=0.5)
  (attention): MultiHeadAttention(
    (query_layer): Linear(in_features=128, out_features=128, bias=False)
    (key_layer): Linear(in_features=128, out_features=128, bias=False)
    (value_layer): Linear(in_features=128, out_features=128, bias=False)
    (bn): BatchNorm1d(128, eps=1e-05, momentum=0.1, affine=True)
  )
  (projector): Linear(in_features=128, out_features=2, bias=True)
)",AttentionedYoonKim,0.15,0.025,IMDB binary classification,298416
148,0.71012,0.9793777777777778,"MAX_WORD_LEN = 8, MAX_TEXT_LEN = 256",0.5,30,0.7147187340077943,0.9793392109715914,,0.001,"AttentionedYoonKimModel(
  (embedding): Linear(in_features=74, out_features=74, bias=True)
  (chars_cnn): Sequential(
    (0): Conv1d(74, 256, kernel_size=(5,), stride=(1,), padding=(2,))
    (1): ReLU()
    (2): MaxPool1d(kernel_size=8, stride=8, padding=0, dilation=1, ceil_mode=False)
  )
  (words_rnn): GRU(256, 128, dropout=0.5)
  (attention): MultiHeadAttention(
    (query_layer): Linear(in_features=128, out_features=128, bias=False)
    (key_layer): Linear(in_features=128, out_features=128, bias=False)
    (value_layer): Linear(in_features=128, out_features=128, bias=False)
    (bn): BatchNorm1d(128, eps=1e-05, momentum=0.1, affine=True)
  )
  (projector): Linear(in_features=128, out_features=2, bias=True)
)",AttentionedYoonKim,0.175,0.025,IMDB binary classification,298416
149,0.69392,0.9793777777777778,"MAX_WORD_LEN = 8, MAX_TEXT_LEN = 256",0.5,30,0.7019088430074016,0.9793392109715914,,0.001,"AttentionedYoonKimModel(
  (embedding): Linear(in_features=74, out_features=74, bias=True)
  (chars_cnn): Sequential(
    (0): Conv1d(74, 256, kernel_size=(5,), stride=(1,), padding=(2,))
    (1): ReLU()
    (2): MaxPool1d(kernel_size=8, stride=8, padding=0, dilation=1, ceil_mode=False)
  )
  (words_rnn): GRU(256, 128, dropout=0.5)
  (attention): MultiHeadAttention(
    (query_layer): Linear(in_features=128, out_features=128, bias=False)
    (key_layer): Linear(in_features=128, out_features=128, bias=False)
    (value_layer): Linear(in_features=128, out_features=128, bias=False)
    (bn): BatchNorm1d(128, eps=1e-05, momentum=0.1, affine=True)
  )
  (projector): Linear(in_features=128, out_features=2, bias=True)
)",AttentionedYoonKim,0.2,0.025,IMDB binary classification,298416
150,0.76364,0.9661333333333333,"MAX_WORD_LEN = 8, MAX_TEXT_LEN = 256",0.5,30,0.7599236176004551,0.966160405009326,,0.001,"AttentionedYoonKimModel(
  (embedding): Linear(in_features=74, out_features=74, bias=True)
  (chars_cnn): Sequential(
    (0): Conv1d(74, 256, kernel_size=(5,), stride=(1,), padding=(2,))
    (1): ReLU()
    (2): MaxPool1d(kernel_size=8, stride=8, padding=0, dilation=1, ceil_mode=False)
  )
  (words_rnn): GRU(256, 128, dropout=0.5)
  (attention): MultiHeadAttention(
    (query_layer): Linear(in_features=128, out_features=128, bias=False)
    (key_layer): Linear(in_features=128, out_features=128, bias=False)
    (value_layer): Linear(in_features=128, out_features=128, bias=False)
    (bn): BatchNorm1d(128, eps=1e-05, momentum=0.1, affine=True)
  )
  (projector): Linear(in_features=128, out_features=2, bias=True)
)",AttentionedYoonKim,0.0,0.05,IMDB binary classification,298416
151,0.76284,0.9661333333333333,"MAX_WORD_LEN = 8, MAX_TEXT_LEN = 256",0.5,30,0.7590914631668767,0.966160405009326,,0.001,"AttentionedYoonKimModel(
  (embedding): Linear(in_features=74, out_features=74, bias=True)
  (chars_cnn): Sequential(
    (0): Conv1d(74, 256, kernel_size=(5,), stride=(1,), padding=(2,))
    (1): ReLU()
    (2): MaxPool1d(kernel_size=8, stride=8, padding=0, dilation=1, ceil_mode=False)
  )
  (words_rnn): GRU(256, 128, dropout=0.5)
  (attention): MultiHeadAttention(
    (query_layer): Linear(in_features=128, out_features=128, bias=False)
    (key_layer): Linear(in_features=128, out_features=128, bias=False)
    (value_layer): Linear(in_features=128, out_features=128, bias=False)
    (bn): BatchNorm1d(128, eps=1e-05, momentum=0.1, affine=True)
  )
  (projector): Linear(in_features=128, out_features=2, bias=True)
)",AttentionedYoonKim,0.01,0.05,IMDB binary classification,298416
152,0.7582,0.9661333333333333,"MAX_WORD_LEN = 8, MAX_TEXT_LEN = 256",0.5,30,0.7547368848135676,0.966160405009326,,0.001,"AttentionedYoonKimModel(
  (embedding): Linear(in_features=74, out_features=74, bias=True)
  (chars_cnn): Sequential(
    (0): Conv1d(74, 256, kernel_size=(5,), stride=(1,), padding=(2,))
    (1): ReLU()
    (2): MaxPool1d(kernel_size=8, stride=8, padding=0, dilation=1, ceil_mode=False)
  )
  (words_rnn): GRU(256, 128, dropout=0.5)
  (attention): MultiHeadAttention(
    (query_layer): Linear(in_features=128, out_features=128, bias=False)
    (key_layer): Linear(in_features=128, out_features=128, bias=False)
    (value_layer): Linear(in_features=128, out_features=128, bias=False)
    (bn): BatchNorm1d(128, eps=1e-05, momentum=0.1, affine=True)
  )
  (projector): Linear(in_features=128, out_features=2, bias=True)
)",AttentionedYoonKim,0.025,0.05,IMDB binary classification,298416
153,0.7522,0.9661333333333333,"MAX_WORD_LEN = 8, MAX_TEXT_LEN = 256",0.5,30,0.7483241925655089,0.966160405009326,,0.001,"AttentionedYoonKimModel(
  (embedding): Linear(in_features=74, out_features=74, bias=True)
  (chars_cnn): Sequential(
    (0): Conv1d(74, 256, kernel_size=(5,), stride=(1,), padding=(2,))
    (1): ReLU()
    (2): MaxPool1d(kernel_size=8, stride=8, padding=0, dilation=1, ceil_mode=False)
  )
  (words_rnn): GRU(256, 128, dropout=0.5)
  (attention): MultiHeadAttention(
    (query_layer): Linear(in_features=128, out_features=128, bias=False)
    (key_layer): Linear(in_features=128, out_features=128, bias=False)
    (value_layer): Linear(in_features=128, out_features=128, bias=False)
    (bn): BatchNorm1d(128, eps=1e-05, momentum=0.1, affine=True)
  )
  (projector): Linear(in_features=128, out_features=2, bias=True)
)",AttentionedYoonKim,0.05,0.05,IMDB binary classification,298416
154,0.74048,0.9661333333333333,"MAX_WORD_LEN = 8, MAX_TEXT_LEN = 256",0.5,30,0.7374129836490205,0.966160405009326,,0.001,"AttentionedYoonKimModel(
  (embedding): Linear(in_features=74, out_features=74, bias=True)
  (chars_cnn): Sequential(
    (0): Conv1d(74, 256, kernel_size=(5,), stride=(1,), padding=(2,))
    (1): ReLU()
    (2): MaxPool1d(kernel_size=8, stride=8, padding=0, dilation=1, ceil_mode=False)
  )
  (words_rnn): GRU(256, 128, dropout=0.5)
  (attention): MultiHeadAttention(
    (query_layer): Linear(in_features=128, out_features=128, bias=False)
    (key_layer): Linear(in_features=128, out_features=128, bias=False)
    (value_layer): Linear(in_features=128, out_features=128, bias=False)
    (bn): BatchNorm1d(128, eps=1e-05, momentum=0.1, affine=True)
  )
  (projector): Linear(in_features=128, out_features=2, bias=True)
)",AttentionedYoonKim,0.075,0.05,IMDB binary classification,298416
155,0.73576,0.9661333333333333,"MAX_WORD_LEN = 8, MAX_TEXT_LEN = 256",0.5,30,0.7323772484200292,0.966160405009326,,0.001,"AttentionedYoonKimModel(
  (embedding): Linear(in_features=74, out_features=74, bias=True)
  (chars_cnn): Sequential(
    (0): Conv1d(74, 256, kernel_size=(5,), stride=(1,), padding=(2,))
    (1): ReLU()
    (2): MaxPool1d(kernel_size=8, stride=8, padding=0, dilation=1, ceil_mode=False)
  )
  (words_rnn): GRU(256, 128, dropout=0.5)
  (attention): MultiHeadAttention(
    (query_layer): Linear(in_features=128, out_features=128, bias=False)
    (key_layer): Linear(in_features=128, out_features=128, bias=False)
    (value_layer): Linear(in_features=128, out_features=128, bias=False)
    (bn): BatchNorm1d(128, eps=1e-05, momentum=0.1, affine=True)
  )
  (projector): Linear(in_features=128, out_features=2, bias=True)
)",AttentionedYoonKim,0.1,0.05,IMDB binary classification,298416
156,0.7248,0.9661333333333333,"MAX_WORD_LEN = 8, MAX_TEXT_LEN = 256",0.5,30,0.7214123744735991,0.966160405009326,,0.001,"AttentionedYoonKimModel(
  (embedding): Linear(in_features=74, out_features=74, bias=True)
  (chars_cnn): Sequential(
    (0): Conv1d(74, 256, kernel_size=(5,), stride=(1,), padding=(2,))
    (1): ReLU()
    (2): MaxPool1d(kernel_size=8, stride=8, padding=0, dilation=1, ceil_mode=False)
  )
  (words_rnn): GRU(256, 128, dropout=0.5)
  (attention): MultiHeadAttention(
    (query_layer): Linear(in_features=128, out_features=128, bias=False)
    (key_layer): Linear(in_features=128, out_features=128, bias=False)
    (value_layer): Linear(in_features=128, out_features=128, bias=False)
    (bn): BatchNorm1d(128, eps=1e-05, momentum=0.1, affine=True)
  )
  (projector): Linear(in_features=128, out_features=2, bias=True)
)",AttentionedYoonKim,0.125,0.05,IMDB binary classification,298416
157,0.71696,0.9661333333333333,"MAX_WORD_LEN = 8, MAX_TEXT_LEN = 256",0.5,30,0.7117484112758676,0.966160405009326,,0.001,"AttentionedYoonKimModel(
  (embedding): Linear(in_features=74, out_features=74, bias=True)
  (chars_cnn): Sequential(
    (0): Conv1d(74, 256, kernel_size=(5,), stride=(1,), padding=(2,))
    (1): ReLU()
    (2): MaxPool1d(kernel_size=8, stride=8, padding=0, dilation=1, ceil_mode=False)
  )
  (words_rnn): GRU(256, 128, dropout=0.5)
  (attention): MultiHeadAttention(
    (query_layer): Linear(in_features=128, out_features=128, bias=False)
    (key_layer): Linear(in_features=128, out_features=128, bias=False)
    (value_layer): Linear(in_features=128, out_features=128, bias=False)
    (bn): BatchNorm1d(128, eps=1e-05, momentum=0.1, affine=True)
  )
  (projector): Linear(in_features=128, out_features=2, bias=True)
)",AttentionedYoonKim,0.15,0.05,IMDB binary classification,298416
158,0.70952,0.9661333333333333,"MAX_WORD_LEN = 8, MAX_TEXT_LEN = 256",0.5,30,0.7060157072301837,0.966160405009326,,0.001,"AttentionedYoonKimModel(
  (embedding): Linear(in_features=74, out_features=74, bias=True)
  (chars_cnn): Sequential(
    (0): Conv1d(74, 256, kernel_size=(5,), stride=(1,), padding=(2,))
    (1): ReLU()
    (2): MaxPool1d(kernel_size=8, stride=8, padding=0, dilation=1, ceil_mode=False)
  )
  (words_rnn): GRU(256, 128, dropout=0.5)
  (attention): MultiHeadAttention(
    (query_layer): Linear(in_features=128, out_features=128, bias=False)
    (key_layer): Linear(in_features=128, out_features=128, bias=False)
    (value_layer): Linear(in_features=128, out_features=128, bias=False)
    (bn): BatchNorm1d(128, eps=1e-05, momentum=0.1, affine=True)
  )
  (projector): Linear(in_features=128, out_features=2, bias=True)
)",AttentionedYoonKim,0.175,0.05,IMDB binary classification,298416
159,0.70204,0.9661333333333333,"MAX_WORD_LEN = 8, MAX_TEXT_LEN = 256",0.5,30,0.6969117467550963,0.966160405009326,,0.001,"AttentionedYoonKimModel(
  (embedding): Linear(in_features=74, out_features=74, bias=True)
  (chars_cnn): Sequential(
    (0): Conv1d(74, 256, kernel_size=(5,), stride=(1,), padding=(2,))
    (1): ReLU()
    (2): MaxPool1d(kernel_size=8, stride=8, padding=0, dilation=1, ceil_mode=False)
  )
  (words_rnn): GRU(256, 128, dropout=0.5)
  (attention): MultiHeadAttention(
    (query_layer): Linear(in_features=128, out_features=128, bias=False)
    (key_layer): Linear(in_features=128, out_features=128, bias=False)
    (value_layer): Linear(in_features=128, out_features=128, bias=False)
    (bn): BatchNorm1d(128, eps=1e-05, momentum=0.1, affine=True)
  )
  (projector): Linear(in_features=128, out_features=2, bias=True)
)",AttentionedYoonKim,0.2,0.05,IMDB binary classification,298416
160,0.74736,0.9513777777777778,"MAX_WORD_LEN = 8, MAX_TEXT_LEN = 256",0.5,30,0.745096456534022,0.9513777777777778,,0.001,"AttentionedYoonKimModel(
  (embedding): Linear(in_features=74, out_features=74, bias=True)
  (chars_cnn): Sequential(
    (0): Conv1d(74, 256, kernel_size=(5,), stride=(1,), padding=(2,))
    (1): ReLU()
    (2): MaxPool1d(kernel_size=8, stride=8, padding=0, dilation=1, ceil_mode=False)
  )
  (words_rnn): GRU(256, 128, dropout=0.5)
  (attention): MultiHeadAttention(
    (query_layer): Linear(in_features=128, out_features=128, bias=False)
    (key_layer): Linear(in_features=128, out_features=128, bias=False)
    (value_layer): Linear(in_features=128, out_features=128, bias=False)
    (bn): BatchNorm1d(128, eps=1e-05, momentum=0.1, affine=True)
  )
  (projector): Linear(in_features=128, out_features=2, bias=True)
)",AttentionedYoonKim,0.0,0.075,IMDB binary classification,298416
161,0.74348,0.9513777777777778,"MAX_WORD_LEN = 8, MAX_TEXT_LEN = 256",0.5,30,0.7417133191026621,0.9513777777777778,,0.001,"AttentionedYoonKimModel(
  (embedding): Linear(in_features=74, out_features=74, bias=True)
  (chars_cnn): Sequential(
    (0): Conv1d(74, 256, kernel_size=(5,), stride=(1,), padding=(2,))
    (1): ReLU()
    (2): MaxPool1d(kernel_size=8, stride=8, padding=0, dilation=1, ceil_mode=False)
  )
  (words_rnn): GRU(256, 128, dropout=0.5)
  (attention): MultiHeadAttention(
    (query_layer): Linear(in_features=128, out_features=128, bias=False)
    (key_layer): Linear(in_features=128, out_features=128, bias=False)
    (value_layer): Linear(in_features=128, out_features=128, bias=False)
    (bn): BatchNorm1d(128, eps=1e-05, momentum=0.1, affine=True)
  )
  (projector): Linear(in_features=128, out_features=2, bias=True)
)",AttentionedYoonKim,0.01,0.075,IMDB binary classification,298416
162,0.7396,0.9513777777777778,"MAX_WORD_LEN = 8, MAX_TEXT_LEN = 256",0.5,30,0.7383861115576273,0.9513777777777778,,0.001,"AttentionedYoonKimModel(
  (embedding): Linear(in_features=74, out_features=74, bias=True)
  (chars_cnn): Sequential(
    (0): Conv1d(74, 256, kernel_size=(5,), stride=(1,), padding=(2,))
    (1): ReLU()
    (2): MaxPool1d(kernel_size=8, stride=8, padding=0, dilation=1, ceil_mode=False)
  )
  (words_rnn): GRU(256, 128, dropout=0.5)
  (attention): MultiHeadAttention(
    (query_layer): Linear(in_features=128, out_features=128, bias=False)
    (key_layer): Linear(in_features=128, out_features=128, bias=False)
    (value_layer): Linear(in_features=128, out_features=128, bias=False)
    (bn): BatchNorm1d(128, eps=1e-05, momentum=0.1, affine=True)
  )
  (projector): Linear(in_features=128, out_features=2, bias=True)
)",AttentionedYoonKim,0.025,0.075,IMDB binary classification,298416
163,0.73032,0.9513777777777778,"MAX_WORD_LEN = 8, MAX_TEXT_LEN = 256",0.5,30,0.7298661751742928,0.9513777777777778,,0.001,"AttentionedYoonKimModel(
  (embedding): Linear(in_features=74, out_features=74, bias=True)
  (chars_cnn): Sequential(
    (0): Conv1d(74, 256, kernel_size=(5,), stride=(1,), padding=(2,))
    (1): ReLU()
    (2): MaxPool1d(kernel_size=8, stride=8, padding=0, dilation=1, ceil_mode=False)
  )
  (words_rnn): GRU(256, 128, dropout=0.5)
  (attention): MultiHeadAttention(
    (query_layer): Linear(in_features=128, out_features=128, bias=False)
    (key_layer): Linear(in_features=128, out_features=128, bias=False)
    (value_layer): Linear(in_features=128, out_features=128, bias=False)
    (bn): BatchNorm1d(128, eps=1e-05, momentum=0.1, affine=True)
  )
  (projector): Linear(in_features=128, out_features=2, bias=True)
)",AttentionedYoonKim,0.05,0.075,IMDB binary classification,298416
164,0.72552,0.9513777777777778,"MAX_WORD_LEN = 8, MAX_TEXT_LEN = 256",0.5,30,0.7247272143774068,0.9513777777777778,,0.001,"AttentionedYoonKimModel(
  (embedding): Linear(in_features=74, out_features=74, bias=True)
  (chars_cnn): Sequential(
    (0): Conv1d(74, 256, kernel_size=(5,), stride=(1,), padding=(2,))
    (1): ReLU()
    (2): MaxPool1d(kernel_size=8, stride=8, padding=0, dilation=1, ceil_mode=False)
  )
  (words_rnn): GRU(256, 128, dropout=0.5)
  (attention): MultiHeadAttention(
    (query_layer): Linear(in_features=128, out_features=128, bias=False)
    (key_layer): Linear(in_features=128, out_features=128, bias=False)
    (value_layer): Linear(in_features=128, out_features=128, bias=False)
    (bn): BatchNorm1d(128, eps=1e-05, momentum=0.1, affine=True)
  )
  (projector): Linear(in_features=128, out_features=2, bias=True)
)",AttentionedYoonKim,0.075,0.075,IMDB binary classification,298416
165,0.7172,0.9513777777777778,"MAX_WORD_LEN = 8, MAX_TEXT_LEN = 256",0.5,30,0.7170641908115895,0.9513777777777778,,0.001,"AttentionedYoonKimModel(
  (embedding): Linear(in_features=74, out_features=74, bias=True)
  (chars_cnn): Sequential(
    (0): Conv1d(74, 256, kernel_size=(5,), stride=(1,), padding=(2,))
    (1): ReLU()
    (2): MaxPool1d(kernel_size=8, stride=8, padding=0, dilation=1, ceil_mode=False)
  )
  (words_rnn): GRU(256, 128, dropout=0.5)
  (attention): MultiHeadAttention(
    (query_layer): Linear(in_features=128, out_features=128, bias=False)
    (key_layer): Linear(in_features=128, out_features=128, bias=False)
    (value_layer): Linear(in_features=128, out_features=128, bias=False)
    (bn): BatchNorm1d(128, eps=1e-05, momentum=0.1, affine=True)
  )
  (projector): Linear(in_features=128, out_features=2, bias=True)
)",AttentionedYoonKim,0.1,0.075,IMDB binary classification,298416
166,0.70688,0.9513777777777778,"MAX_WORD_LEN = 8, MAX_TEXT_LEN = 256",0.5,30,0.7083034790223708,0.9513777777777778,,0.001,"AttentionedYoonKimModel(
  (embedding): Linear(in_features=74, out_features=74, bias=True)
  (chars_cnn): Sequential(
    (0): Conv1d(74, 256, kernel_size=(5,), stride=(1,), padding=(2,))
    (1): ReLU()
    (2): MaxPool1d(kernel_size=8, stride=8, padding=0, dilation=1, ceil_mode=False)
  )
  (words_rnn): GRU(256, 128, dropout=0.5)
  (attention): MultiHeadAttention(
    (query_layer): Linear(in_features=128, out_features=128, bias=False)
    (key_layer): Linear(in_features=128, out_features=128, bias=False)
    (value_layer): Linear(in_features=128, out_features=128, bias=False)
    (bn): BatchNorm1d(128, eps=1e-05, momentum=0.1, affine=True)
  )
  (projector): Linear(in_features=128, out_features=2, bias=True)
)",AttentionedYoonKim,0.125,0.075,IMDB binary classification,298416
167,0.69948,0.9513777777777778,"MAX_WORD_LEN = 8, MAX_TEXT_LEN = 256",0.5,30,0.7007369049990042,0.9513777777777778,,0.001,"AttentionedYoonKimModel(
  (embedding): Linear(in_features=74, out_features=74, bias=True)
  (chars_cnn): Sequential(
    (0): Conv1d(74, 256, kernel_size=(5,), stride=(1,), padding=(2,))
    (1): ReLU()
    (2): MaxPool1d(kernel_size=8, stride=8, padding=0, dilation=1, ceil_mode=False)
  )
  (words_rnn): GRU(256, 128, dropout=0.5)
  (attention): MultiHeadAttention(
    (query_layer): Linear(in_features=128, out_features=128, bias=False)
    (key_layer): Linear(in_features=128, out_features=128, bias=False)
    (value_layer): Linear(in_features=128, out_features=128, bias=False)
    (bn): BatchNorm1d(128, eps=1e-05, momentum=0.1, affine=True)
  )
  (projector): Linear(in_features=128, out_features=2, bias=True)
)",AttentionedYoonKim,0.15,0.075,IMDB binary classification,298416
168,0.69172,0.9513777777777778,"MAX_WORD_LEN = 8, MAX_TEXT_LEN = 256",0.5,30,0.6955559944696819,0.9513777777777778,,0.001,"AttentionedYoonKimModel(
  (embedding): Linear(in_features=74, out_features=74, bias=True)
  (chars_cnn): Sequential(
    (0): Conv1d(74, 256, kernel_size=(5,), stride=(1,), padding=(2,))
    (1): ReLU()
    (2): MaxPool1d(kernel_size=8, stride=8, padding=0, dilation=1, ceil_mode=False)
  )
  (words_rnn): GRU(256, 128, dropout=0.5)
  (attention): MultiHeadAttention(
    (query_layer): Linear(in_features=128, out_features=128, bias=False)
    (key_layer): Linear(in_features=128, out_features=128, bias=False)
    (value_layer): Linear(in_features=128, out_features=128, bias=False)
    (bn): BatchNorm1d(128, eps=1e-05, momentum=0.1, affine=True)
  )
  (projector): Linear(in_features=128, out_features=2, bias=True)
)",AttentionedYoonKim,0.175,0.075,IMDB binary classification,298416
169,0.68456,0.9513777777777778,"MAX_WORD_LEN = 8, MAX_TEXT_LEN = 256",0.5,30,0.68955200377923,0.9513777777777778,,0.001,"AttentionedYoonKimModel(
  (embedding): Linear(in_features=74, out_features=74, bias=True)
  (chars_cnn): Sequential(
    (0): Conv1d(74, 256, kernel_size=(5,), stride=(1,), padding=(2,))
    (1): ReLU()
    (2): MaxPool1d(kernel_size=8, stride=8, padding=0, dilation=1, ceil_mode=False)
  )
  (words_rnn): GRU(256, 128, dropout=0.5)
  (attention): MultiHeadAttention(
    (query_layer): Linear(in_features=128, out_features=128, bias=False)
    (key_layer): Linear(in_features=128, out_features=128, bias=False)
    (value_layer): Linear(in_features=128, out_features=128, bias=False)
    (bn): BatchNorm1d(128, eps=1e-05, momentum=0.1, affine=True)
  )
  (projector): Linear(in_features=128, out_features=2, bias=True)
)",AttentionedYoonKim,0.2,0.075,IMDB binary classification,298416
170,0.78856,0.9358666666666666,"MAX_WORD_LEN = 8, MAX_TEXT_LEN = 256",0.5,30,0.7909845788849349,0.9364960612595167,,0.001,"AttentionedYoonKimModel(
  (embedding): Linear(in_features=74, out_features=74, bias=True)
  (chars_cnn): Sequential(
    (0): Conv1d(74, 256, kernel_size=(5,), stride=(1,), padding=(2,))
    (1): ReLU()
    (2): MaxPool1d(kernel_size=8, stride=8, padding=0, dilation=1, ceil_mode=False)
  )
  (words_rnn): GRU(256, 128, dropout=0.5)
  (attention): MultiHeadAttention(
    (query_layer): Linear(in_features=128, out_features=128, bias=False)
    (key_layer): Linear(in_features=128, out_features=128, bias=False)
    (value_layer): Linear(in_features=128, out_features=128, bias=False)
    (bn): BatchNorm1d(128, eps=1e-05, momentum=0.1, affine=True)
  )
  (projector): Linear(in_features=128, out_features=2, bias=True)
)",AttentionedYoonKim,0.0,0.1,IMDB binary classification,298416
171,0.78764,0.9358666666666666,"MAX_WORD_LEN = 8, MAX_TEXT_LEN = 256",0.5,30,0.7906132912640504,0.9364960612595167,,0.001,"AttentionedYoonKimModel(
  (embedding): Linear(in_features=74, out_features=74, bias=True)
  (chars_cnn): Sequential(
    (0): Conv1d(74, 256, kernel_size=(5,), stride=(1,), padding=(2,))
    (1): ReLU()
    (2): MaxPool1d(kernel_size=8, stride=8, padding=0, dilation=1, ceil_mode=False)
  )
  (words_rnn): GRU(256, 128, dropout=0.5)
  (attention): MultiHeadAttention(
    (query_layer): Linear(in_features=128, out_features=128, bias=False)
    (key_layer): Linear(in_features=128, out_features=128, bias=False)
    (value_layer): Linear(in_features=128, out_features=128, bias=False)
    (bn): BatchNorm1d(128, eps=1e-05, momentum=0.1, affine=True)
  )
  (projector): Linear(in_features=128, out_features=2, bias=True)
)",AttentionedYoonKim,0.01,0.1,IMDB binary classification,298416
172,0.78432,0.9358666666666666,"MAX_WORD_LEN = 8, MAX_TEXT_LEN = 256",0.5,30,0.7867257337235978,0.9364960612595167,,0.001,"AttentionedYoonKimModel(
  (embedding): Linear(in_features=74, out_features=74, bias=True)
  (chars_cnn): Sequential(
    (0): Conv1d(74, 256, kernel_size=(5,), stride=(1,), padding=(2,))
    (1): ReLU()
    (2): MaxPool1d(kernel_size=8, stride=8, padding=0, dilation=1, ceil_mode=False)
  )
  (words_rnn): GRU(256, 128, dropout=0.5)
  (attention): MultiHeadAttention(
    (query_layer): Linear(in_features=128, out_features=128, bias=False)
    (key_layer): Linear(in_features=128, out_features=128, bias=False)
    (value_layer): Linear(in_features=128, out_features=128, bias=False)
    (bn): BatchNorm1d(128, eps=1e-05, momentum=0.1, affine=True)
  )
  (projector): Linear(in_features=128, out_features=2, bias=True)
)",AttentionedYoonKim,0.025,0.1,IMDB binary classification,298416
173,0.77612,0.9358666666666666,"MAX_WORD_LEN = 8, MAX_TEXT_LEN = 256",0.5,30,0.7783278545684977,0.9364960612595167,,0.001,"AttentionedYoonKimModel(
  (embedding): Linear(in_features=74, out_features=74, bias=True)
  (chars_cnn): Sequential(
    (0): Conv1d(74, 256, kernel_size=(5,), stride=(1,), padding=(2,))
    (1): ReLU()
    (2): MaxPool1d(kernel_size=8, stride=8, padding=0, dilation=1, ceil_mode=False)
  )
  (words_rnn): GRU(256, 128, dropout=0.5)
  (attention): MultiHeadAttention(
    (query_layer): Linear(in_features=128, out_features=128, bias=False)
    (key_layer): Linear(in_features=128, out_features=128, bias=False)
    (value_layer): Linear(in_features=128, out_features=128, bias=False)
    (bn): BatchNorm1d(128, eps=1e-05, momentum=0.1, affine=True)
  )
  (projector): Linear(in_features=128, out_features=2, bias=True)
)",AttentionedYoonKim,0.05,0.1,IMDB binary classification,298416
174,0.77048,0.9358666666666666,"MAX_WORD_LEN = 8, MAX_TEXT_LEN = 256",0.5,30,0.7724280161814865,0.9364960612595167,,0.001,"AttentionedYoonKimModel(
  (embedding): Linear(in_features=74, out_features=74, bias=True)
  (chars_cnn): Sequential(
    (0): Conv1d(74, 256, kernel_size=(5,), stride=(1,), padding=(2,))
    (1): ReLU()
    (2): MaxPool1d(kernel_size=8, stride=8, padding=0, dilation=1, ceil_mode=False)
  )
  (words_rnn): GRU(256, 128, dropout=0.5)
  (attention): MultiHeadAttention(
    (query_layer): Linear(in_features=128, out_features=128, bias=False)
    (key_layer): Linear(in_features=128, out_features=128, bias=False)
    (value_layer): Linear(in_features=128, out_features=128, bias=False)
    (bn): BatchNorm1d(128, eps=1e-05, momentum=0.1, affine=True)
  )
  (projector): Linear(in_features=128, out_features=2, bias=True)
)",AttentionedYoonKim,0.075,0.1,IMDB binary classification,298416
175,0.76352,0.9358666666666666,"MAX_WORD_LEN = 8, MAX_TEXT_LEN = 256",0.5,30,0.7670606776989756,0.9364960612595167,,0.001,"AttentionedYoonKimModel(
  (embedding): Linear(in_features=74, out_features=74, bias=True)
  (chars_cnn): Sequential(
    (0): Conv1d(74, 256, kernel_size=(5,), stride=(1,), padding=(2,))
    (1): ReLU()
    (2): MaxPool1d(kernel_size=8, stride=8, padding=0, dilation=1, ceil_mode=False)
  )
  (words_rnn): GRU(256, 128, dropout=0.5)
  (attention): MultiHeadAttention(
    (query_layer): Linear(in_features=128, out_features=128, bias=False)
    (key_layer): Linear(in_features=128, out_features=128, bias=False)
    (value_layer): Linear(in_features=128, out_features=128, bias=False)
    (bn): BatchNorm1d(128, eps=1e-05, momentum=0.1, affine=True)
  )
  (projector): Linear(in_features=128, out_features=2, bias=True)
)",AttentionedYoonKim,0.1,0.1,IMDB binary classification,298416
176,0.7556,0.9358666666666666,"MAX_WORD_LEN = 8, MAX_TEXT_LEN = 256",0.5,30,0.7586506557118029,0.9364960612595167,,0.001,"AttentionedYoonKimModel(
  (embedding): Linear(in_features=74, out_features=74, bias=True)
  (chars_cnn): Sequential(
    (0): Conv1d(74, 256, kernel_size=(5,), stride=(1,), padding=(2,))
    (1): ReLU()
    (2): MaxPool1d(kernel_size=8, stride=8, padding=0, dilation=1, ceil_mode=False)
  )
  (words_rnn): GRU(256, 128, dropout=0.5)
  (attention): MultiHeadAttention(
    (query_layer): Linear(in_features=128, out_features=128, bias=False)
    (key_layer): Linear(in_features=128, out_features=128, bias=False)
    (value_layer): Linear(in_features=128, out_features=128, bias=False)
    (bn): BatchNorm1d(128, eps=1e-05, momentum=0.1, affine=True)
  )
  (projector): Linear(in_features=128, out_features=2, bias=True)
)",AttentionedYoonKim,0.125,0.1,IMDB binary classification,298416
177,0.74828,0.9358666666666666,"MAX_WORD_LEN = 8, MAX_TEXT_LEN = 256",0.5,30,0.7505845983116007,0.9364960612595167,,0.001,"AttentionedYoonKimModel(
  (embedding): Linear(in_features=74, out_features=74, bias=True)
  (chars_cnn): Sequential(
    (0): Conv1d(74, 256, kernel_size=(5,), stride=(1,), padding=(2,))
    (1): ReLU()
    (2): MaxPool1d(kernel_size=8, stride=8, padding=0, dilation=1, ceil_mode=False)
  )
  (words_rnn): GRU(256, 128, dropout=0.5)
  (attention): MultiHeadAttention(
    (query_layer): Linear(in_features=128, out_features=128, bias=False)
    (key_layer): Linear(in_features=128, out_features=128, bias=False)
    (value_layer): Linear(in_features=128, out_features=128, bias=False)
    (bn): BatchNorm1d(128, eps=1e-05, momentum=0.1, affine=True)
  )
  (projector): Linear(in_features=128, out_features=2, bias=True)
)",AttentionedYoonKim,0.15,0.1,IMDB binary classification,298416
178,0.73768,0.9358666666666666,"MAX_WORD_LEN = 8, MAX_TEXT_LEN = 256",0.5,30,0.7411792564527587,0.9364960612595167,,0.001,"AttentionedYoonKimModel(
  (embedding): Linear(in_features=74, out_features=74, bias=True)
  (chars_cnn): Sequential(
    (0): Conv1d(74, 256, kernel_size=(5,), stride=(1,), padding=(2,))
    (1): ReLU()
    (2): MaxPool1d(kernel_size=8, stride=8, padding=0, dilation=1, ceil_mode=False)
  )
  (words_rnn): GRU(256, 128, dropout=0.5)
  (attention): MultiHeadAttention(
    (query_layer): Linear(in_features=128, out_features=128, bias=False)
    (key_layer): Linear(in_features=128, out_features=128, bias=False)
    (value_layer): Linear(in_features=128, out_features=128, bias=False)
    (bn): BatchNorm1d(128, eps=1e-05, momentum=0.1, affine=True)
  )
  (projector): Linear(in_features=128, out_features=2, bias=True)
)",AttentionedYoonKim,0.175,0.1,IMDB binary classification,298416
179,0.73252,0.9358666666666666,"MAX_WORD_LEN = 8, MAX_TEXT_LEN = 256",0.5,30,0.735994314817008,0.9364960612595167,,0.001,"AttentionedYoonKimModel(
  (embedding): Linear(in_features=74, out_features=74, bias=True)
  (chars_cnn): Sequential(
    (0): Conv1d(74, 256, kernel_size=(5,), stride=(1,), padding=(2,))
    (1): ReLU()
    (2): MaxPool1d(kernel_size=8, stride=8, padding=0, dilation=1, ceil_mode=False)
  )
  (words_rnn): GRU(256, 128, dropout=0.5)
  (attention): MultiHeadAttention(
    (query_layer): Linear(in_features=128, out_features=128, bias=False)
    (key_layer): Linear(in_features=128, out_features=128, bias=False)
    (value_layer): Linear(in_features=128, out_features=128, bias=False)
    (bn): BatchNorm1d(128, eps=1e-05, momentum=0.1, affine=True)
  )
  (projector): Linear(in_features=128, out_features=2, bias=True)
)",AttentionedYoonKim,0.2,0.1,IMDB binary classification,298416
180,0.80004,0.9063555555555556,"MAX_WORD_LEN = 8, MAX_TEXT_LEN = 256",0.5,30,0.80753089747045,0.9102678761551892,,0.001,"AttentionedYoonKimModel(
  (embedding): Linear(in_features=74, out_features=74, bias=True)
  (chars_cnn): Sequential(
    (0): Conv1d(74, 256, kernel_size=(5,), stride=(1,), padding=(2,))
    (1): ReLU()
    (2): MaxPool1d(kernel_size=8, stride=8, padding=0, dilation=1, ceil_mode=False)
  )
  (words_rnn): GRU(256, 128, dropout=0.5)
  (attention): MultiHeadAttention(
    (query_layer): Linear(in_features=128, out_features=128, bias=False)
    (key_layer): Linear(in_features=128, out_features=128, bias=False)
    (value_layer): Linear(in_features=128, out_features=128, bias=False)
    (bn): BatchNorm1d(128, eps=1e-05, momentum=0.1, affine=True)
  )
  (projector): Linear(in_features=128, out_features=2, bias=True)
)",AttentionedYoonKim,0.0,0.125,IMDB binary classification,298416
181,0.79748,0.9063555555555556,"MAX_WORD_LEN = 8, MAX_TEXT_LEN = 256",0.5,30,0.805381510666923,0.9102678761551892,,0.001,"AttentionedYoonKimModel(
  (embedding): Linear(in_features=74, out_features=74, bias=True)
  (chars_cnn): Sequential(
    (0): Conv1d(74, 256, kernel_size=(5,), stride=(1,), padding=(2,))
    (1): ReLU()
    (2): MaxPool1d(kernel_size=8, stride=8, padding=0, dilation=1, ceil_mode=False)
  )
  (words_rnn): GRU(256, 128, dropout=0.5)
  (attention): MultiHeadAttention(
    (query_layer): Linear(in_features=128, out_features=128, bias=False)
    (key_layer): Linear(in_features=128, out_features=128, bias=False)
    (value_layer): Linear(in_features=128, out_features=128, bias=False)
    (bn): BatchNorm1d(128, eps=1e-05, momentum=0.1, affine=True)
  )
  (projector): Linear(in_features=128, out_features=2, bias=True)
)",AttentionedYoonKim,0.01,0.125,IMDB binary classification,298416
182,0.79336,0.9063555555555556,"MAX_WORD_LEN = 8, MAX_TEXT_LEN = 256",0.5,30,0.8023415977961433,0.9102678761551892,,0.001,"AttentionedYoonKimModel(
  (embedding): Linear(in_features=74, out_features=74, bias=True)
  (chars_cnn): Sequential(
    (0): Conv1d(74, 256, kernel_size=(5,), stride=(1,), padding=(2,))
    (1): ReLU()
    (2): MaxPool1d(kernel_size=8, stride=8, padding=0, dilation=1, ceil_mode=False)
  )
  (words_rnn): GRU(256, 128, dropout=0.5)
  (attention): MultiHeadAttention(
    (query_layer): Linear(in_features=128, out_features=128, bias=False)
    (key_layer): Linear(in_features=128, out_features=128, bias=False)
    (value_layer): Linear(in_features=128, out_features=128, bias=False)
    (bn): BatchNorm1d(128, eps=1e-05, momentum=0.1, affine=True)
  )
  (projector): Linear(in_features=128, out_features=2, bias=True)
)",AttentionedYoonKim,0.025,0.125,IMDB binary classification,298416
183,0.78324,0.9063555555555556,"MAX_WORD_LEN = 8, MAX_TEXT_LEN = 256",0.5,30,0.7937426255090779,0.9102678761551892,,0.001,"AttentionedYoonKimModel(
  (embedding): Linear(in_features=74, out_features=74, bias=True)
  (chars_cnn): Sequential(
    (0): Conv1d(74, 256, kernel_size=(5,), stride=(1,), padding=(2,))
    (1): ReLU()
    (2): MaxPool1d(kernel_size=8, stride=8, padding=0, dilation=1, ceil_mode=False)
  )
  (words_rnn): GRU(256, 128, dropout=0.5)
  (attention): MultiHeadAttention(
    (query_layer): Linear(in_features=128, out_features=128, bias=False)
    (key_layer): Linear(in_features=128, out_features=128, bias=False)
    (value_layer): Linear(in_features=128, out_features=128, bias=False)
    (bn): BatchNorm1d(128, eps=1e-05, momentum=0.1, affine=True)
  )
  (projector): Linear(in_features=128, out_features=2, bias=True)
)",AttentionedYoonKim,0.05,0.125,IMDB binary classification,298416
184,0.7742,0.9063555555555556,"MAX_WORD_LEN = 8, MAX_TEXT_LEN = 256",0.5,30,0.7864088690453669,0.9102678761551892,,0.001,"AttentionedYoonKimModel(
  (embedding): Linear(in_features=74, out_features=74, bias=True)
  (chars_cnn): Sequential(
    (0): Conv1d(74, 256, kernel_size=(5,), stride=(1,), padding=(2,))
    (1): ReLU()
    (2): MaxPool1d(kernel_size=8, stride=8, padding=0, dilation=1, ceil_mode=False)
  )
  (words_rnn): GRU(256, 128, dropout=0.5)
  (attention): MultiHeadAttention(
    (query_layer): Linear(in_features=128, out_features=128, bias=False)
    (key_layer): Linear(in_features=128, out_features=128, bias=False)
    (value_layer): Linear(in_features=128, out_features=128, bias=False)
    (bn): BatchNorm1d(128, eps=1e-05, momentum=0.1, affine=True)
  )
  (projector): Linear(in_features=128, out_features=2, bias=True)
)",AttentionedYoonKim,0.075,0.125,IMDB binary classification,298416
185,0.7634,0.9063555555555556,"MAX_WORD_LEN = 8, MAX_TEXT_LEN = 256",0.5,30,0.7779071077235009,0.9102678761551892,,0.001,"AttentionedYoonKimModel(
  (embedding): Linear(in_features=74, out_features=74, bias=True)
  (chars_cnn): Sequential(
    (0): Conv1d(74, 256, kernel_size=(5,), stride=(1,), padding=(2,))
    (1): ReLU()
    (2): MaxPool1d(kernel_size=8, stride=8, padding=0, dilation=1, ceil_mode=False)
  )
  (words_rnn): GRU(256, 128, dropout=0.5)
  (attention): MultiHeadAttention(
    (query_layer): Linear(in_features=128, out_features=128, bias=False)
    (key_layer): Linear(in_features=128, out_features=128, bias=False)
    (value_layer): Linear(in_features=128, out_features=128, bias=False)
    (bn): BatchNorm1d(128, eps=1e-05, momentum=0.1, affine=True)
  )
  (projector): Linear(in_features=128, out_features=2, bias=True)
)",AttentionedYoonKim,0.1,0.125,IMDB binary classification,298416
186,0.75116,0.9063555555555556,"MAX_WORD_LEN = 8, MAX_TEXT_LEN = 256",0.5,30,0.7673957749111984,0.9102678761551892,,0.001,"AttentionedYoonKimModel(
  (embedding): Linear(in_features=74, out_features=74, bias=True)
  (chars_cnn): Sequential(
    (0): Conv1d(74, 256, kernel_size=(5,), stride=(1,), padding=(2,))
    (1): ReLU()
    (2): MaxPool1d(kernel_size=8, stride=8, padding=0, dilation=1, ceil_mode=False)
  )
  (words_rnn): GRU(256, 128, dropout=0.5)
  (attention): MultiHeadAttention(
    (query_layer): Linear(in_features=128, out_features=128, bias=False)
    (key_layer): Linear(in_features=128, out_features=128, bias=False)
    (value_layer): Linear(in_features=128, out_features=128, bias=False)
    (bn): BatchNorm1d(128, eps=1e-05, momentum=0.1, affine=True)
  )
  (projector): Linear(in_features=128, out_features=2, bias=True)
)",AttentionedYoonKim,0.125,0.125,IMDB binary classification,298416
187,0.74632,0.9063555555555556,"MAX_WORD_LEN = 8, MAX_TEXT_LEN = 256",0.5,30,0.7636404293381037,0.9102678761551892,,0.001,"AttentionedYoonKimModel(
  (embedding): Linear(in_features=74, out_features=74, bias=True)
  (chars_cnn): Sequential(
    (0): Conv1d(74, 256, kernel_size=(5,), stride=(1,), padding=(2,))
    (1): ReLU()
    (2): MaxPool1d(kernel_size=8, stride=8, padding=0, dilation=1, ceil_mode=False)
  )
  (words_rnn): GRU(256, 128, dropout=0.5)
  (attention): MultiHeadAttention(
    (query_layer): Linear(in_features=128, out_features=128, bias=False)
    (key_layer): Linear(in_features=128, out_features=128, bias=False)
    (value_layer): Linear(in_features=128, out_features=128, bias=False)
    (bn): BatchNorm1d(128, eps=1e-05, momentum=0.1, affine=True)
  )
  (projector): Linear(in_features=128, out_features=2, bias=True)
)",AttentionedYoonKim,0.15,0.125,IMDB binary classification,298416
188,0.73232,0.9063555555555556,"MAX_WORD_LEN = 8, MAX_TEXT_LEN = 256",0.5,30,0.7520195657007337,0.9102678761551892,,0.001,"AttentionedYoonKimModel(
  (embedding): Linear(in_features=74, out_features=74, bias=True)
  (chars_cnn): Sequential(
    (0): Conv1d(74, 256, kernel_size=(5,), stride=(1,), padding=(2,))
    (1): ReLU()
    (2): MaxPool1d(kernel_size=8, stride=8, padding=0, dilation=1, ceil_mode=False)
  )
  (words_rnn): GRU(256, 128, dropout=0.5)
  (attention): MultiHeadAttention(
    (query_layer): Linear(in_features=128, out_features=128, bias=False)
    (key_layer): Linear(in_features=128, out_features=128, bias=False)
    (value_layer): Linear(in_features=128, out_features=128, bias=False)
    (bn): BatchNorm1d(128, eps=1e-05, momentum=0.1, affine=True)
  )
  (projector): Linear(in_features=128, out_features=2, bias=True)
)",AttentionedYoonKim,0.175,0.125,IMDB binary classification,298416
189,0.72184,0.9063555555555556,"MAX_WORD_LEN = 8, MAX_TEXT_LEN = 256",0.5,30,0.744601145879242,0.9102678761551892,,0.001,"AttentionedYoonKimModel(
  (embedding): Linear(in_features=74, out_features=74, bias=True)
  (chars_cnn): Sequential(
    (0): Conv1d(74, 256, kernel_size=(5,), stride=(1,), padding=(2,))
    (1): ReLU()
    (2): MaxPool1d(kernel_size=8, stride=8, padding=0, dilation=1, ceil_mode=False)
  )
  (words_rnn): GRU(256, 128, dropout=0.5)
  (attention): MultiHeadAttention(
    (query_layer): Linear(in_features=128, out_features=128, bias=False)
    (key_layer): Linear(in_features=128, out_features=128, bias=False)
    (value_layer): Linear(in_features=128, out_features=128, bias=False)
    (bn): BatchNorm1d(128, eps=1e-05, momentum=0.1, affine=True)
  )
  (projector): Linear(in_features=128, out_features=2, bias=True)
)",AttentionedYoonKim,0.2,0.125,IMDB binary classification,298416
190,0.79716,0.8943111111111111,"MAX_WORD_LEN = 8, MAX_TEXT_LEN = 256",0.5,30,0.8003464703334777,0.896211592178771,,0.001,"AttentionedYoonKimModel(
  (embedding): Linear(in_features=74, out_features=74, bias=True)
  (chars_cnn): Sequential(
    (0): Conv1d(74, 256, kernel_size=(5,), stride=(1,), padding=(2,))
    (1): ReLU()
    (2): MaxPool1d(kernel_size=8, stride=8, padding=0, dilation=1, ceil_mode=False)
  )
  (words_rnn): GRU(256, 128, dropout=0.5)
  (attention): MultiHeadAttention(
    (query_layer): Linear(in_features=128, out_features=128, bias=False)
    (key_layer): Linear(in_features=128, out_features=128, bias=False)
    (value_layer): Linear(in_features=128, out_features=128, bias=False)
    (bn): BatchNorm1d(128, eps=1e-05, momentum=0.1, affine=True)
  )
  (projector): Linear(in_features=128, out_features=2, bias=True)
)",AttentionedYoonKim,0.0,0.15,IMDB binary classification,298416
191,0.79416,0.8943111111111111,"MAX_WORD_LEN = 8, MAX_TEXT_LEN = 256",0.5,30,0.7976087469519391,0.896211592178771,,0.001,"AttentionedYoonKimModel(
  (embedding): Linear(in_features=74, out_features=74, bias=True)
  (chars_cnn): Sequential(
    (0): Conv1d(74, 256, kernel_size=(5,), stride=(1,), padding=(2,))
    (1): ReLU()
    (2): MaxPool1d(kernel_size=8, stride=8, padding=0, dilation=1, ceil_mode=False)
  )
  (words_rnn): GRU(256, 128, dropout=0.5)
  (attention): MultiHeadAttention(
    (query_layer): Linear(in_features=128, out_features=128, bias=False)
    (key_layer): Linear(in_features=128, out_features=128, bias=False)
    (value_layer): Linear(in_features=128, out_features=128, bias=False)
    (bn): BatchNorm1d(128, eps=1e-05, momentum=0.1, affine=True)
  )
  (projector): Linear(in_features=128, out_features=2, bias=True)
)",AttentionedYoonKim,0.01,0.15,IMDB binary classification,298416
192,0.78868,0.8943111111111111,"MAX_WORD_LEN = 8, MAX_TEXT_LEN = 256",0.5,30,0.792685319624848,0.896211592178771,,0.001,"AttentionedYoonKimModel(
  (embedding): Linear(in_features=74, out_features=74, bias=True)
  (chars_cnn): Sequential(
    (0): Conv1d(74, 256, kernel_size=(5,), stride=(1,), padding=(2,))
    (1): ReLU()
    (2): MaxPool1d(kernel_size=8, stride=8, padding=0, dilation=1, ceil_mode=False)
  )
  (words_rnn): GRU(256, 128, dropout=0.5)
  (attention): MultiHeadAttention(
    (query_layer): Linear(in_features=128, out_features=128, bias=False)
    (key_layer): Linear(in_features=128, out_features=128, bias=False)
    (value_layer): Linear(in_features=128, out_features=128, bias=False)
    (bn): BatchNorm1d(128, eps=1e-05, momentum=0.1, affine=True)
  )
  (projector): Linear(in_features=128, out_features=2, bias=True)
)",AttentionedYoonKim,0.025,0.15,IMDB binary classification,298416
193,0.78204,0.8943111111111111,"MAX_WORD_LEN = 8, MAX_TEXT_LEN = 256",0.5,30,0.7867068540337417,0.896211592178771,,0.001,"AttentionedYoonKimModel(
  (embedding): Linear(in_features=74, out_features=74, bias=True)
  (chars_cnn): Sequential(
    (0): Conv1d(74, 256, kernel_size=(5,), stride=(1,), padding=(2,))
    (1): ReLU()
    (2): MaxPool1d(kernel_size=8, stride=8, padding=0, dilation=1, ceil_mode=False)
  )
  (words_rnn): GRU(256, 128, dropout=0.5)
  (attention): MultiHeadAttention(
    (query_layer): Linear(in_features=128, out_features=128, bias=False)
    (key_layer): Linear(in_features=128, out_features=128, bias=False)
    (value_layer): Linear(in_features=128, out_features=128, bias=False)
    (bn): BatchNorm1d(128, eps=1e-05, momentum=0.1, affine=True)
  )
  (projector): Linear(in_features=128, out_features=2, bias=True)
)",AttentionedYoonKim,0.05,0.15,IMDB binary classification,298416
194,0.76808,0.8943111111111111,"MAX_WORD_LEN = 8, MAX_TEXT_LEN = 256",0.5,30,0.7733385457388585,0.896211592178771,,0.001,"AttentionedYoonKimModel(
  (embedding): Linear(in_features=74, out_features=74, bias=True)
  (chars_cnn): Sequential(
    (0): Conv1d(74, 256, kernel_size=(5,), stride=(1,), padding=(2,))
    (1): ReLU()
    (2): MaxPool1d(kernel_size=8, stride=8, padding=0, dilation=1, ceil_mode=False)
  )
  (words_rnn): GRU(256, 128, dropout=0.5)
  (attention): MultiHeadAttention(
    (query_layer): Linear(in_features=128, out_features=128, bias=False)
    (key_layer): Linear(in_features=128, out_features=128, bias=False)
    (value_layer): Linear(in_features=128, out_features=128, bias=False)
    (bn): BatchNorm1d(128, eps=1e-05, momentum=0.1, affine=True)
  )
  (projector): Linear(in_features=128, out_features=2, bias=True)
)",AttentionedYoonKim,0.075,0.15,IMDB binary classification,298416
195,0.76208,0.8943111111111111,"MAX_WORD_LEN = 8, MAX_TEXT_LEN = 256",0.5,30,0.7686863187368749,0.896211592178771,,0.001,"AttentionedYoonKimModel(
  (embedding): Linear(in_features=74, out_features=74, bias=True)
  (chars_cnn): Sequential(
    (0): Conv1d(74, 256, kernel_size=(5,), stride=(1,), padding=(2,))
    (1): ReLU()
    (2): MaxPool1d(kernel_size=8, stride=8, padding=0, dilation=1, ceil_mode=False)
  )
  (words_rnn): GRU(256, 128, dropout=0.5)
  (attention): MultiHeadAttention(
    (query_layer): Linear(in_features=128, out_features=128, bias=False)
    (key_layer): Linear(in_features=128, out_features=128, bias=False)
    (value_layer): Linear(in_features=128, out_features=128, bias=False)
    (bn): BatchNorm1d(128, eps=1e-05, momentum=0.1, affine=True)
  )
  (projector): Linear(in_features=128, out_features=2, bias=True)
)",AttentionedYoonKim,0.1,0.15,IMDB binary classification,298416
196,0.74852,0.8943111111111111,"MAX_WORD_LEN = 8, MAX_TEXT_LEN = 256",0.5,30,0.7567797593717357,0.896211592178771,,0.001,"AttentionedYoonKimModel(
  (embedding): Linear(in_features=74, out_features=74, bias=True)
  (chars_cnn): Sequential(
    (0): Conv1d(74, 256, kernel_size=(5,), stride=(1,), padding=(2,))
    (1): ReLU()
    (2): MaxPool1d(kernel_size=8, stride=8, padding=0, dilation=1, ceil_mode=False)
  )
  (words_rnn): GRU(256, 128, dropout=0.5)
  (attention): MultiHeadAttention(
    (query_layer): Linear(in_features=128, out_features=128, bias=False)
    (key_layer): Linear(in_features=128, out_features=128, bias=False)
    (value_layer): Linear(in_features=128, out_features=128, bias=False)
    (bn): BatchNorm1d(128, eps=1e-05, momentum=0.1, affine=True)
  )
  (projector): Linear(in_features=128, out_features=2, bias=True)
)",AttentionedYoonKim,0.125,0.15,IMDB binary classification,298416
197,0.7362,0.8943111111111111,"MAX_WORD_LEN = 8, MAX_TEXT_LEN = 256",0.5,30,0.7467066098244806,0.896211592178771,,0.001,"AttentionedYoonKimModel(
  (embedding): Linear(in_features=74, out_features=74, bias=True)
  (chars_cnn): Sequential(
    (0): Conv1d(74, 256, kernel_size=(5,), stride=(1,), padding=(2,))
    (1): ReLU()
    (2): MaxPool1d(kernel_size=8, stride=8, padding=0, dilation=1, ceil_mode=False)
  )
  (words_rnn): GRU(256, 128, dropout=0.5)
  (attention): MultiHeadAttention(
    (query_layer): Linear(in_features=128, out_features=128, bias=False)
    (key_layer): Linear(in_features=128, out_features=128, bias=False)
    (value_layer): Linear(in_features=128, out_features=128, bias=False)
    (bn): BatchNorm1d(128, eps=1e-05, momentum=0.1, affine=True)
  )
  (projector): Linear(in_features=128, out_features=2, bias=True)
)",AttentionedYoonKim,0.15,0.15,IMDB binary classification,298416
198,0.72872,0.8943111111111111,"MAX_WORD_LEN = 8, MAX_TEXT_LEN = 256",0.5,30,0.740113427345187,0.896211592178771,,0.001,"AttentionedYoonKimModel(
  (embedding): Linear(in_features=74, out_features=74, bias=True)
  (chars_cnn): Sequential(
    (0): Conv1d(74, 256, kernel_size=(5,), stride=(1,), padding=(2,))
    (1): ReLU()
    (2): MaxPool1d(kernel_size=8, stride=8, padding=0, dilation=1, ceil_mode=False)
  )
  (words_rnn): GRU(256, 128, dropout=0.5)
  (attention): MultiHeadAttention(
    (query_layer): Linear(in_features=128, out_features=128, bias=False)
    (key_layer): Linear(in_features=128, out_features=128, bias=False)
    (value_layer): Linear(in_features=128, out_features=128, bias=False)
    (bn): BatchNorm1d(128, eps=1e-05, momentum=0.1, affine=True)
  )
  (projector): Linear(in_features=128, out_features=2, bias=True)
)",AttentionedYoonKim,0.175,0.15,IMDB binary classification,298416
199,0.7114,0.8943111111111111,"MAX_WORD_LEN = 8, MAX_TEXT_LEN = 256",0.5,30,0.7259259259259259,0.896211592178771,,0.001,"AttentionedYoonKimModel(
  (embedding): Linear(in_features=74, out_features=74, bias=True)
  (chars_cnn): Sequential(
    (0): Conv1d(74, 256, kernel_size=(5,), stride=(1,), padding=(2,))
    (1): ReLU()
    (2): MaxPool1d(kernel_size=8, stride=8, padding=0, dilation=1, ceil_mode=False)
  )
  (words_rnn): GRU(256, 128, dropout=0.5)
  (attention): MultiHeadAttention(
    (query_layer): Linear(in_features=128, out_features=128, bias=False)
    (key_layer): Linear(in_features=128, out_features=128, bias=False)
    (value_layer): Linear(in_features=128, out_features=128, bias=False)
    (bn): BatchNorm1d(128, eps=1e-05, momentum=0.1, affine=True)
  )
  (projector): Linear(in_features=128, out_features=2, bias=True)
)",AttentionedYoonKim,0.2,0.15,IMDB binary classification,298416
200,0.7754,0.8835555555555555,"MAX_WORD_LEN = 8, MAX_TEXT_LEN = 256",0.5,30,0.7808780487804878,0.8866193526051583,,0.001,"AttentionedYoonKimModel(
  (embedding): Linear(in_features=74, out_features=74, bias=True)
  (chars_cnn): Sequential(
    (0): Conv1d(74, 256, kernel_size=(5,), stride=(1,), padding=(2,))
    (1): ReLU()
    (2): MaxPool1d(kernel_size=8, stride=8, padding=0, dilation=1, ceil_mode=False)
  )
  (words_rnn): GRU(256, 128, dropout=0.5)
  (attention): MultiHeadAttention(
    (query_layer): Linear(in_features=128, out_features=128, bias=False)
    (key_layer): Linear(in_features=128, out_features=128, bias=False)
    (value_layer): Linear(in_features=128, out_features=128, bias=False)
    (bn): BatchNorm1d(128, eps=1e-05, momentum=0.1, affine=True)
  )
  (projector): Linear(in_features=128, out_features=2, bias=True)
)",AttentionedYoonKim,0.0,0.175,IMDB binary classification,298416
201,0.77196,0.8835555555555555,"MAX_WORD_LEN = 8, MAX_TEXT_LEN = 256",0.5,30,0.7779033074915268,0.8866193526051583,,0.001,"AttentionedYoonKimModel(
  (embedding): Linear(in_features=74, out_features=74, bias=True)
  (chars_cnn): Sequential(
    (0): Conv1d(74, 256, kernel_size=(5,), stride=(1,), padding=(2,))
    (1): ReLU()
    (2): MaxPool1d(kernel_size=8, stride=8, padding=0, dilation=1, ceil_mode=False)
  )
  (words_rnn): GRU(256, 128, dropout=0.5)
  (attention): MultiHeadAttention(
    (query_layer): Linear(in_features=128, out_features=128, bias=False)
    (key_layer): Linear(in_features=128, out_features=128, bias=False)
    (value_layer): Linear(in_features=128, out_features=128, bias=False)
    (bn): BatchNorm1d(128, eps=1e-05, momentum=0.1, affine=True)
  )
  (projector): Linear(in_features=128, out_features=2, bias=True)
)",AttentionedYoonKim,0.01,0.175,IMDB binary classification,298416
202,0.76844,0.8835555555555555,"MAX_WORD_LEN = 8, MAX_TEXT_LEN = 256",0.5,30,0.7744750477229343,0.8866193526051583,,0.001,"AttentionedYoonKimModel(
  (embedding): Linear(in_features=74, out_features=74, bias=True)
  (chars_cnn): Sequential(
    (0): Conv1d(74, 256, kernel_size=(5,), stride=(1,), padding=(2,))
    (1): ReLU()
    (2): MaxPool1d(kernel_size=8, stride=8, padding=0, dilation=1, ceil_mode=False)
  )
  (words_rnn): GRU(256, 128, dropout=0.5)
  (attention): MultiHeadAttention(
    (query_layer): Linear(in_features=128, out_features=128, bias=False)
    (key_layer): Linear(in_features=128, out_features=128, bias=False)
    (value_layer): Linear(in_features=128, out_features=128, bias=False)
    (bn): BatchNorm1d(128, eps=1e-05, momentum=0.1, affine=True)
  )
  (projector): Linear(in_features=128, out_features=2, bias=True)
)",AttentionedYoonKim,0.025,0.175,IMDB binary classification,298416
203,0.76024,0.8835555555555555,"MAX_WORD_LEN = 8, MAX_TEXT_LEN = 256",0.5,30,0.7664614665315983,0.8866193526051583,,0.001,"AttentionedYoonKimModel(
  (embedding): Linear(in_features=74, out_features=74, bias=True)
  (chars_cnn): Sequential(
    (0): Conv1d(74, 256, kernel_size=(5,), stride=(1,), padding=(2,))
    (1): ReLU()
    (2): MaxPool1d(kernel_size=8, stride=8, padding=0, dilation=1, ceil_mode=False)
  )
  (words_rnn): GRU(256, 128, dropout=0.5)
  (attention): MultiHeadAttention(
    (query_layer): Linear(in_features=128, out_features=128, bias=False)
    (key_layer): Linear(in_features=128, out_features=128, bias=False)
    (value_layer): Linear(in_features=128, out_features=128, bias=False)
    (bn): BatchNorm1d(128, eps=1e-05, momentum=0.1, affine=True)
  )
  (projector): Linear(in_features=128, out_features=2, bias=True)
)",AttentionedYoonKim,0.05,0.175,IMDB binary classification,298416
204,0.75036,0.8835555555555555,"MAX_WORD_LEN = 8, MAX_TEXT_LEN = 256",0.5,30,0.7572067691110679,0.8866193526051583,,0.001,"AttentionedYoonKimModel(
  (embedding): Linear(in_features=74, out_features=74, bias=True)
  (chars_cnn): Sequential(
    (0): Conv1d(74, 256, kernel_size=(5,), stride=(1,), padding=(2,))
    (1): ReLU()
    (2): MaxPool1d(kernel_size=8, stride=8, padding=0, dilation=1, ceil_mode=False)
  )
  (words_rnn): GRU(256, 128, dropout=0.5)
  (attention): MultiHeadAttention(
    (query_layer): Linear(in_features=128, out_features=128, bias=False)
    (key_layer): Linear(in_features=128, out_features=128, bias=False)
    (value_layer): Linear(in_features=128, out_features=128, bias=False)
    (bn): BatchNorm1d(128, eps=1e-05, momentum=0.1, affine=True)
  )
  (projector): Linear(in_features=128, out_features=2, bias=True)
)",AttentionedYoonKim,0.075,0.175,IMDB binary classification,298416
205,0.74504,0.8835555555555555,"MAX_WORD_LEN = 8, MAX_TEXT_LEN = 256",0.5,30,0.7523121162664179,0.8866193526051583,,0.001,"AttentionedYoonKimModel(
  (embedding): Linear(in_features=74, out_features=74, bias=True)
  (chars_cnn): Sequential(
    (0): Conv1d(74, 256, kernel_size=(5,), stride=(1,), padding=(2,))
    (1): ReLU()
    (2): MaxPool1d(kernel_size=8, stride=8, padding=0, dilation=1, ceil_mode=False)
  )
  (words_rnn): GRU(256, 128, dropout=0.5)
  (attention): MultiHeadAttention(
    (query_layer): Linear(in_features=128, out_features=128, bias=False)
    (key_layer): Linear(in_features=128, out_features=128, bias=False)
    (value_layer): Linear(in_features=128, out_features=128, bias=False)
    (bn): BatchNorm1d(128, eps=1e-05, momentum=0.1, affine=True)
  )
  (projector): Linear(in_features=128, out_features=2, bias=True)
)",AttentionedYoonKim,0.1,0.175,IMDB binary classification,298416
206,0.73468,0.8835555555555555,"MAX_WORD_LEN = 8, MAX_TEXT_LEN = 256",0.5,30,0.7424777730325737,0.8866193526051583,,0.001,"AttentionedYoonKimModel(
  (embedding): Linear(in_features=74, out_features=74, bias=True)
  (chars_cnn): Sequential(
    (0): Conv1d(74, 256, kernel_size=(5,), stride=(1,), padding=(2,))
    (1): ReLU()
    (2): MaxPool1d(kernel_size=8, stride=8, padding=0, dilation=1, ceil_mode=False)
  )
  (words_rnn): GRU(256, 128, dropout=0.5)
  (attention): MultiHeadAttention(
    (query_layer): Linear(in_features=128, out_features=128, bias=False)
    (key_layer): Linear(in_features=128, out_features=128, bias=False)
    (value_layer): Linear(in_features=128, out_features=128, bias=False)
    (bn): BatchNorm1d(128, eps=1e-05, momentum=0.1, affine=True)
  )
  (projector): Linear(in_features=128, out_features=2, bias=True)
)",AttentionedYoonKim,0.125,0.175,IMDB binary classification,298416
207,0.7268,0.8835555555555555,"MAX_WORD_LEN = 8, MAX_TEXT_LEN = 256",0.5,30,0.7363341568869672,0.8866193526051583,,0.001,"AttentionedYoonKimModel(
  (embedding): Linear(in_features=74, out_features=74, bias=True)
  (chars_cnn): Sequential(
    (0): Conv1d(74, 256, kernel_size=(5,), stride=(1,), padding=(2,))
    (1): ReLU()
    (2): MaxPool1d(kernel_size=8, stride=8, padding=0, dilation=1, ceil_mode=False)
  )
  (words_rnn): GRU(256, 128, dropout=0.5)
  (attention): MultiHeadAttention(
    (query_layer): Linear(in_features=128, out_features=128, bias=False)
    (key_layer): Linear(in_features=128, out_features=128, bias=False)
    (value_layer): Linear(in_features=128, out_features=128, bias=False)
    (bn): BatchNorm1d(128, eps=1e-05, momentum=0.1, affine=True)
  )
  (projector): Linear(in_features=128, out_features=2, bias=True)
)",AttentionedYoonKim,0.15,0.175,IMDB binary classification,298416
208,0.71676,0.8835555555555555,"MAX_WORD_LEN = 8, MAX_TEXT_LEN = 256",0.5,30,0.7258932373320945,0.8866193526051583,,0.001,"AttentionedYoonKimModel(
  (embedding): Linear(in_features=74, out_features=74, bias=True)
  (chars_cnn): Sequential(
    (0): Conv1d(74, 256, kernel_size=(5,), stride=(1,), padding=(2,))
    (1): ReLU()
    (2): MaxPool1d(kernel_size=8, stride=8, padding=0, dilation=1, ceil_mode=False)
  )
  (words_rnn): GRU(256, 128, dropout=0.5)
  (attention): MultiHeadAttention(
    (query_layer): Linear(in_features=128, out_features=128, bias=False)
    (key_layer): Linear(in_features=128, out_features=128, bias=False)
    (value_layer): Linear(in_features=128, out_features=128, bias=False)
    (bn): BatchNorm1d(128, eps=1e-05, momentum=0.1, affine=True)
  )
  (projector): Linear(in_features=128, out_features=2, bias=True)
)",AttentionedYoonKim,0.175,0.175,IMDB binary classification,298416
209,0.70712,0.8835555555555555,"MAX_WORD_LEN = 8, MAX_TEXT_LEN = 256",0.5,30,0.7168381158635625,0.8866193526051583,,0.001,"AttentionedYoonKimModel(
  (embedding): Linear(in_features=74, out_features=74, bias=True)
  (chars_cnn): Sequential(
    (0): Conv1d(74, 256, kernel_size=(5,), stride=(1,), padding=(2,))
    (1): ReLU()
    (2): MaxPool1d(kernel_size=8, stride=8, padding=0, dilation=1, ceil_mode=False)
  )
  (words_rnn): GRU(256, 128, dropout=0.5)
  (attention): MultiHeadAttention(
    (query_layer): Linear(in_features=128, out_features=128, bias=False)
    (key_layer): Linear(in_features=128, out_features=128, bias=False)
    (value_layer): Linear(in_features=128, out_features=128, bias=False)
    (bn): BatchNorm1d(128, eps=1e-05, momentum=0.1, affine=True)
  )
  (projector): Linear(in_features=128, out_features=2, bias=True)
)",AttentionedYoonKim,0.2,0.175,IMDB binary classification,298416
210,0.722,0.8666666666666667,"MAX_WORD_LEN = 8, MAX_TEXT_LEN = 256",0.5,30,0.7193506703278953,0.8656515897895208,,0.001,"AttentionedYoonKimModel(
  (embedding): Linear(in_features=74, out_features=74, bias=True)
  (chars_cnn): Sequential(
    (0): Conv1d(74, 256, kernel_size=(5,), stride=(1,), padding=(2,))
    (1): ReLU()
    (2): MaxPool1d(kernel_size=8, stride=8, padding=0, dilation=1, ceil_mode=False)
  )
  (words_rnn): GRU(256, 128, dropout=0.5)
  (attention): MultiHeadAttention(
    (query_layer): Linear(in_features=128, out_features=128, bias=False)
    (key_layer): Linear(in_features=128, out_features=128, bias=False)
    (value_layer): Linear(in_features=128, out_features=128, bias=False)
    (bn): BatchNorm1d(128, eps=1e-05, momentum=0.1, affine=True)
  )
  (projector): Linear(in_features=128, out_features=2, bias=True)
)",AttentionedYoonKim,0.0,0.2,IMDB binary classification,298416
211,0.71828,0.8666666666666667,"MAX_WORD_LEN = 8, MAX_TEXT_LEN = 256",0.5,30,0.7157673836716575,0.8656515897895208,,0.001,"AttentionedYoonKimModel(
  (embedding): Linear(in_features=74, out_features=74, bias=True)
  (chars_cnn): Sequential(
    (0): Conv1d(74, 256, kernel_size=(5,), stride=(1,), padding=(2,))
    (1): ReLU()
    (2): MaxPool1d(kernel_size=8, stride=8, padding=0, dilation=1, ceil_mode=False)
  )
  (words_rnn): GRU(256, 128, dropout=0.5)
  (attention): MultiHeadAttention(
    (query_layer): Linear(in_features=128, out_features=128, bias=False)
    (key_layer): Linear(in_features=128, out_features=128, bias=False)
    (value_layer): Linear(in_features=128, out_features=128, bias=False)
    (bn): BatchNorm1d(128, eps=1e-05, momentum=0.1, affine=True)
  )
  (projector): Linear(in_features=128, out_features=2, bias=True)
)",AttentionedYoonKim,0.01,0.2,IMDB binary classification,298416
212,0.71216,0.8666666666666667,"MAX_WORD_LEN = 8, MAX_TEXT_LEN = 256",0.5,30,0.7091114883984154,0.8656515897895208,,0.001,"AttentionedYoonKimModel(
  (embedding): Linear(in_features=74, out_features=74, bias=True)
  (chars_cnn): Sequential(
    (0): Conv1d(74, 256, kernel_size=(5,), stride=(1,), padding=(2,))
    (1): ReLU()
    (2): MaxPool1d(kernel_size=8, stride=8, padding=0, dilation=1, ceil_mode=False)
  )
  (words_rnn): GRU(256, 128, dropout=0.5)
  (attention): MultiHeadAttention(
    (query_layer): Linear(in_features=128, out_features=128, bias=False)
    (key_layer): Linear(in_features=128, out_features=128, bias=False)
    (value_layer): Linear(in_features=128, out_features=128, bias=False)
    (bn): BatchNorm1d(128, eps=1e-05, momentum=0.1, affine=True)
  )
  (projector): Linear(in_features=128, out_features=2, bias=True)
)",AttentionedYoonKim,0.025,0.2,IMDB binary classification,298416
213,0.7048,0.8666666666666667,"MAX_WORD_LEN = 8, MAX_TEXT_LEN = 256",0.5,30,0.7012629533678756,0.8656515897895208,,0.001,"AttentionedYoonKimModel(
  (embedding): Linear(in_features=74, out_features=74, bias=True)
  (chars_cnn): Sequential(
    (0): Conv1d(74, 256, kernel_size=(5,), stride=(1,), padding=(2,))
    (1): ReLU()
    (2): MaxPool1d(kernel_size=8, stride=8, padding=0, dilation=1, ceil_mode=False)
  )
  (words_rnn): GRU(256, 128, dropout=0.5)
  (attention): MultiHeadAttention(
    (query_layer): Linear(in_features=128, out_features=128, bias=False)
    (key_layer): Linear(in_features=128, out_features=128, bias=False)
    (value_layer): Linear(in_features=128, out_features=128, bias=False)
    (bn): BatchNorm1d(128, eps=1e-05, momentum=0.1, affine=True)
  )
  (projector): Linear(in_features=128, out_features=2, bias=True)
)",AttentionedYoonKim,0.05,0.2,IMDB binary classification,298416
214,0.69164,0.8666666666666667,"MAX_WORD_LEN = 8, MAX_TEXT_LEN = 256",0.5,30,0.6881093983897723,0.8656515897895208,,0.001,"AttentionedYoonKimModel(
  (embedding): Linear(in_features=74, out_features=74, bias=True)
  (chars_cnn): Sequential(
    (0): Conv1d(74, 256, kernel_size=(5,), stride=(1,), padding=(2,))
    (1): ReLU()
    (2): MaxPool1d(kernel_size=8, stride=8, padding=0, dilation=1, ceil_mode=False)
  )
  (words_rnn): GRU(256, 128, dropout=0.5)
  (attention): MultiHeadAttention(
    (query_layer): Linear(in_features=128, out_features=128, bias=False)
    (key_layer): Linear(in_features=128, out_features=128, bias=False)
    (value_layer): Linear(in_features=128, out_features=128, bias=False)
    (bn): BatchNorm1d(128, eps=1e-05, momentum=0.1, affine=True)
  )
  (projector): Linear(in_features=128, out_features=2, bias=True)
)",AttentionedYoonKim,0.075,0.2,IMDB binary classification,298416
215,0.68248,0.8666666666666667,"MAX_WORD_LEN = 8, MAX_TEXT_LEN = 256",0.5,30,0.6793763631957347,0.8656515897895208,,0.001,"AttentionedYoonKimModel(
  (embedding): Linear(in_features=74, out_features=74, bias=True)
  (chars_cnn): Sequential(
    (0): Conv1d(74, 256, kernel_size=(5,), stride=(1,), padding=(2,))
    (1): ReLU()
    (2): MaxPool1d(kernel_size=8, stride=8, padding=0, dilation=1, ceil_mode=False)
  )
  (words_rnn): GRU(256, 128, dropout=0.5)
  (attention): MultiHeadAttention(
    (query_layer): Linear(in_features=128, out_features=128, bias=False)
    (key_layer): Linear(in_features=128, out_features=128, bias=False)
    (value_layer): Linear(in_features=128, out_features=128, bias=False)
    (bn): BatchNorm1d(128, eps=1e-05, momentum=0.1, affine=True)
  )
  (projector): Linear(in_features=128, out_features=2, bias=True)
)",AttentionedYoonKim,0.1,0.2,IMDB binary classification,298416
216,0.67208,0.8666666666666667,"MAX_WORD_LEN = 8, MAX_TEXT_LEN = 256",0.5,30,0.6686873585515681,0.8656515897895208,,0.001,"AttentionedYoonKimModel(
  (embedding): Linear(in_features=74, out_features=74, bias=True)
  (chars_cnn): Sequential(
    (0): Conv1d(74, 256, kernel_size=(5,), stride=(1,), padding=(2,))
    (1): ReLU()
    (2): MaxPool1d(kernel_size=8, stride=8, padding=0, dilation=1, ceil_mode=False)
  )
  (words_rnn): GRU(256, 128, dropout=0.5)
  (attention): MultiHeadAttention(
    (query_layer): Linear(in_features=128, out_features=128, bias=False)
    (key_layer): Linear(in_features=128, out_features=128, bias=False)
    (value_layer): Linear(in_features=128, out_features=128, bias=False)
    (bn): BatchNorm1d(128, eps=1e-05, momentum=0.1, affine=True)
  )
  (projector): Linear(in_features=128, out_features=2, bias=True)
)",AttentionedYoonKim,0.125,0.2,IMDB binary classification,298416
217,0.66332,0.8666666666666667,"MAX_WORD_LEN = 8, MAX_TEXT_LEN = 256",0.5,30,0.6592445649973685,0.8656515897895208,,0.001,"AttentionedYoonKimModel(
  (embedding): Linear(in_features=74, out_features=74, bias=True)
  (chars_cnn): Sequential(
    (0): Conv1d(74, 256, kernel_size=(5,), stride=(1,), padding=(2,))
    (1): ReLU()
    (2): MaxPool1d(kernel_size=8, stride=8, padding=0, dilation=1, ceil_mode=False)
  )
  (words_rnn): GRU(256, 128, dropout=0.5)
  (attention): MultiHeadAttention(
    (query_layer): Linear(in_features=128, out_features=128, bias=False)
    (key_layer): Linear(in_features=128, out_features=128, bias=False)
    (value_layer): Linear(in_features=128, out_features=128, bias=False)
    (bn): BatchNorm1d(128, eps=1e-05, momentum=0.1, affine=True)
  )
  (projector): Linear(in_features=128, out_features=2, bias=True)
)",AttentionedYoonKim,0.15,0.2,IMDB binary classification,298416
218,0.65204,0.8666666666666667,"MAX_WORD_LEN = 8, MAX_TEXT_LEN = 256",0.5,30,0.6479705394358788,0.8656515897895208,,0.001,"AttentionedYoonKimModel(
  (embedding): Linear(in_features=74, out_features=74, bias=True)
  (chars_cnn): Sequential(
    (0): Conv1d(74, 256, kernel_size=(5,), stride=(1,), padding=(2,))
    (1): ReLU()
    (2): MaxPool1d(kernel_size=8, stride=8, padding=0, dilation=1, ceil_mode=False)
  )
  (words_rnn): GRU(256, 128, dropout=0.5)
  (attention): MultiHeadAttention(
    (query_layer): Linear(in_features=128, out_features=128, bias=False)
    (key_layer): Linear(in_features=128, out_features=128, bias=False)
    (value_layer): Linear(in_features=128, out_features=128, bias=False)
    (bn): BatchNorm1d(128, eps=1e-05, momentum=0.1, affine=True)
  )
  (projector): Linear(in_features=128, out_features=2, bias=True)
)",AttentionedYoonKim,0.175,0.2,IMDB binary classification,298416
219,0.64168,0.8666666666666667,"MAX_WORD_LEN = 8, MAX_TEXT_LEN = 256",0.5,30,0.6380606060606061,0.8656515897895208,,0.001,"AttentionedYoonKimModel(
  (embedding): Linear(in_features=74, out_features=74, bias=True)
  (chars_cnn): Sequential(
    (0): Conv1d(74, 256, kernel_size=(5,), stride=(1,), padding=(2,))
    (1): ReLU()
    (2): MaxPool1d(kernel_size=8, stride=8, padding=0, dilation=1, ceil_mode=False)
  )
  (words_rnn): GRU(256, 128, dropout=0.5)
  (attention): MultiHeadAttention(
    (query_layer): Linear(in_features=128, out_features=128, bias=False)
    (key_layer): Linear(in_features=128, out_features=128, bias=False)
    (value_layer): Linear(in_features=128, out_features=128, bias=False)
    (bn): BatchNorm1d(128, eps=1e-05, momentum=0.1, affine=True)
  )
  (projector): Linear(in_features=128, out_features=2, bias=True)
)",AttentionedYoonKim,0.2,0.2,IMDB binary classification,298416
