,acc_test,acc_train,data_desc,dropout,epochs,f1_test,f1_train,init_function,lr,model_desc,model_type,noise_level_test,noise_level_train,task,trainable_params
0,0.77336,0.9921777777777778,"MAX_WORD_LEN = 8, MAX_TEXT_LEN = 256",0.5,30,0.7636409144001335,0.992129505410965,,0.001,"AttentionedYoonKimModel(
  (embedding): Linear(in_features=74, out_features=74, bias=True)
  (chars_cnn): Sequential(
    (0): Conv1d(74, 256, kernel_size=(5,), stride=(1,), padding=(2,))
    (1): ReLU()
    (2): MaxPool1d(kernel_size=8, stride=8, padding=0, dilation=1, ceil_mode=False)
  )
  (words_rnn): GRU(256, 128, dropout=0.5)
  (attention): MultiHeadAttention(
    (query_layer): Linear(in_features=128, out_features=128, bias=False)
    (key_layer): Linear(in_features=128, out_features=128, bias=False)
    (value_layer): Linear(in_features=128, out_features=128, bias=False)
    (bn): BatchNorm1d(128, eps=1e-05, momentum=0.1, affine=True)
  )
  (projector): Linear(in_features=128, out_features=2, bias=True)
)",AttentionedYoonKim,0.0,0.0,IMDB binary classification,298416
1,0.7606,0.9921777777777778,"MAX_WORD_LEN = 8, MAX_TEXT_LEN = 256",0.5,30,0.75032330732969,0.992129505410965,,0.001,"AttentionedYoonKimModel(
  (embedding): Linear(in_features=74, out_features=74, bias=True)
  (chars_cnn): Sequential(
    (0): Conv1d(74, 256, kernel_size=(5,), stride=(1,), padding=(2,))
    (1): ReLU()
    (2): MaxPool1d(kernel_size=8, stride=8, padding=0, dilation=1, ceil_mode=False)
  )
  (words_rnn): GRU(256, 128, dropout=0.5)
  (attention): MultiHeadAttention(
    (query_layer): Linear(in_features=128, out_features=128, bias=False)
    (key_layer): Linear(in_features=128, out_features=128, bias=False)
    (value_layer): Linear(in_features=128, out_features=128, bias=False)
    (bn): BatchNorm1d(128, eps=1e-05, momentum=0.1, affine=True)
  )
  (projector): Linear(in_features=128, out_features=2, bias=True)
)",AttentionedYoonKim,0.01,0.0,IMDB binary classification,298416
2,0.74488,0.9921777777777778,"MAX_WORD_LEN = 8, MAX_TEXT_LEN = 256",0.5,30,0.7322867696440564,0.992129505410965,,0.001,"AttentionedYoonKimModel(
  (embedding): Linear(in_features=74, out_features=74, bias=True)
  (chars_cnn): Sequential(
    (0): Conv1d(74, 256, kernel_size=(5,), stride=(1,), padding=(2,))
    (1): ReLU()
    (2): MaxPool1d(kernel_size=8, stride=8, padding=0, dilation=1, ceil_mode=False)
  )
  (words_rnn): GRU(256, 128, dropout=0.5)
  (attention): MultiHeadAttention(
    (query_layer): Linear(in_features=128, out_features=128, bias=False)
    (key_layer): Linear(in_features=128, out_features=128, bias=False)
    (value_layer): Linear(in_features=128, out_features=128, bias=False)
    (bn): BatchNorm1d(128, eps=1e-05, momentum=0.1, affine=True)
  )
  (projector): Linear(in_features=128, out_features=2, bias=True)
)",AttentionedYoonKim,0.025,0.0,IMDB binary classification,298416
3,0.713,0.9921777777777778,"MAX_WORD_LEN = 8, MAX_TEXT_LEN = 256",0.5,30,0.69474579876622,0.992129505410965,,0.001,"AttentionedYoonKimModel(
  (embedding): Linear(in_features=74, out_features=74, bias=True)
  (chars_cnn): Sequential(
    (0): Conv1d(74, 256, kernel_size=(5,), stride=(1,), padding=(2,))
    (1): ReLU()
    (2): MaxPool1d(kernel_size=8, stride=8, padding=0, dilation=1, ceil_mode=False)
  )
  (words_rnn): GRU(256, 128, dropout=0.5)
  (attention): MultiHeadAttention(
    (query_layer): Linear(in_features=128, out_features=128, bias=False)
    (key_layer): Linear(in_features=128, out_features=128, bias=False)
    (value_layer): Linear(in_features=128, out_features=128, bias=False)
    (bn): BatchNorm1d(128, eps=1e-05, momentum=0.1, affine=True)
  )
  (projector): Linear(in_features=128, out_features=2, bias=True)
)",AttentionedYoonKim,0.05,0.0,IMDB binary classification,298416
4,0.686,0.9921777777777778,"MAX_WORD_LEN = 8, MAX_TEXT_LEN = 256",0.5,30,0.6654449369246506,0.992129505410965,,0.001,"AttentionedYoonKimModel(
  (embedding): Linear(in_features=74, out_features=74, bias=True)
  (chars_cnn): Sequential(
    (0): Conv1d(74, 256, kernel_size=(5,), stride=(1,), padding=(2,))
    (1): ReLU()
    (2): MaxPool1d(kernel_size=8, stride=8, padding=0, dilation=1, ceil_mode=False)
  )
  (words_rnn): GRU(256, 128, dropout=0.5)
  (attention): MultiHeadAttention(
    (query_layer): Linear(in_features=128, out_features=128, bias=False)
    (key_layer): Linear(in_features=128, out_features=128, bias=False)
    (value_layer): Linear(in_features=128, out_features=128, bias=False)
    (bn): BatchNorm1d(128, eps=1e-05, momentum=0.1, affine=True)
  )
  (projector): Linear(in_features=128, out_features=2, bias=True)
)",AttentionedYoonKim,0.075,0.0,IMDB binary classification,298416
5,0.65536,0.9921777777777778,"MAX_WORD_LEN = 8, MAX_TEXT_LEN = 256",0.5,30,0.627367874751319,0.992129505410965,,0.001,"AttentionedYoonKimModel(
  (embedding): Linear(in_features=74, out_features=74, bias=True)
  (chars_cnn): Sequential(
    (0): Conv1d(74, 256, kernel_size=(5,), stride=(1,), padding=(2,))
    (1): ReLU()
    (2): MaxPool1d(kernel_size=8, stride=8, padding=0, dilation=1, ceil_mode=False)
  )
  (words_rnn): GRU(256, 128, dropout=0.5)
  (attention): MultiHeadAttention(
    (query_layer): Linear(in_features=128, out_features=128, bias=False)
    (key_layer): Linear(in_features=128, out_features=128, bias=False)
    (value_layer): Linear(in_features=128, out_features=128, bias=False)
    (bn): BatchNorm1d(128, eps=1e-05, momentum=0.1, affine=True)
  )
  (projector): Linear(in_features=128, out_features=2, bias=True)
)",AttentionedYoonKim,0.1,0.0,IMDB binary classification,298416
6,0.631,0.9921777777777778,"MAX_WORD_LEN = 8, MAX_TEXT_LEN = 256",0.5,30,0.6004936988437053,0.992129505410965,,0.001,"AttentionedYoonKimModel(
  (embedding): Linear(in_features=74, out_features=74, bias=True)
  (chars_cnn): Sequential(
    (0): Conv1d(74, 256, kernel_size=(5,), stride=(1,), padding=(2,))
    (1): ReLU()
    (2): MaxPool1d(kernel_size=8, stride=8, padding=0, dilation=1, ceil_mode=False)
  )
  (words_rnn): GRU(256, 128, dropout=0.5)
  (attention): MultiHeadAttention(
    (query_layer): Linear(in_features=128, out_features=128, bias=False)
    (key_layer): Linear(in_features=128, out_features=128, bias=False)
    (value_layer): Linear(in_features=128, out_features=128, bias=False)
    (bn): BatchNorm1d(128, eps=1e-05, momentum=0.1, affine=True)
  )
  (projector): Linear(in_features=128, out_features=2, bias=True)
)",AttentionedYoonKim,0.125,0.0,IMDB binary classification,298416
7,0.61772,0.9921777777777778,"MAX_WORD_LEN = 8, MAX_TEXT_LEN = 256",0.5,30,0.5794499449944994,0.992129505410965,,0.001,"AttentionedYoonKimModel(
  (embedding): Linear(in_features=74, out_features=74, bias=True)
  (chars_cnn): Sequential(
    (0): Conv1d(74, 256, kernel_size=(5,), stride=(1,), padding=(2,))
    (1): ReLU()
    (2): MaxPool1d(kernel_size=8, stride=8, padding=0, dilation=1, ceil_mode=False)
  )
  (words_rnn): GRU(256, 128, dropout=0.5)
  (attention): MultiHeadAttention(
    (query_layer): Linear(in_features=128, out_features=128, bias=False)
    (key_layer): Linear(in_features=128, out_features=128, bias=False)
    (value_layer): Linear(in_features=128, out_features=128, bias=False)
    (bn): BatchNorm1d(128, eps=1e-05, momentum=0.1, affine=True)
  )
  (projector): Linear(in_features=128, out_features=2, bias=True)
)",AttentionedYoonKim,0.15,0.0,IMDB binary classification,298416
8,0.5934,0.9921777777777778,"MAX_WORD_LEN = 8, MAX_TEXT_LEN = 256",0.5,30,0.5516298354726302,0.992129505410965,,0.001,"AttentionedYoonKimModel(
  (embedding): Linear(in_features=74, out_features=74, bias=True)
  (chars_cnn): Sequential(
    (0): Conv1d(74, 256, kernel_size=(5,), stride=(1,), padding=(2,))
    (1): ReLU()
    (2): MaxPool1d(kernel_size=8, stride=8, padding=0, dilation=1, ceil_mode=False)
  )
  (words_rnn): GRU(256, 128, dropout=0.5)
  (attention): MultiHeadAttention(
    (query_layer): Linear(in_features=128, out_features=128, bias=False)
    (key_layer): Linear(in_features=128, out_features=128, bias=False)
    (value_layer): Linear(in_features=128, out_features=128, bias=False)
    (bn): BatchNorm1d(128, eps=1e-05, momentum=0.1, affine=True)
  )
  (projector): Linear(in_features=128, out_features=2, bias=True)
)",AttentionedYoonKim,0.175,0.0,IMDB binary classification,298416
9,0.5806,0.9921777777777778,"MAX_WORD_LEN = 8, MAX_TEXT_LEN = 256",0.5,30,0.5359592830272183,0.992129505410965,,0.001,"AttentionedYoonKimModel(
  (embedding): Linear(in_features=74, out_features=74, bias=True)
  (chars_cnn): Sequential(
    (0): Conv1d(74, 256, kernel_size=(5,), stride=(1,), padding=(2,))
    (1): ReLU()
    (2): MaxPool1d(kernel_size=8, stride=8, padding=0, dilation=1, ceil_mode=False)
  )
  (words_rnn): GRU(256, 128, dropout=0.5)
  (attention): MultiHeadAttention(
    (query_layer): Linear(in_features=128, out_features=128, bias=False)
    (key_layer): Linear(in_features=128, out_features=128, bias=False)
    (value_layer): Linear(in_features=128, out_features=128, bias=False)
    (bn): BatchNorm1d(128, eps=1e-05, momentum=0.1, affine=True)
  )
  (projector): Linear(in_features=128, out_features=2, bias=True)
)",AttentionedYoonKim,0.2,0.0,IMDB binary classification,298416
10,0.71408,0.9789777777777777,"MAX_WORD_LEN = 8, MAX_TEXT_LEN = 256",0.5,30,0.7192899780081684,0.9793169793169794,,0.001,"AttentionedYoonKimModel(
  (embedding): Linear(in_features=74, out_features=74, bias=True)
  (chars_cnn): Sequential(
    (0): Conv1d(74, 256, kernel_size=(5,), stride=(1,), padding=(2,))
    (1): ReLU()
    (2): MaxPool1d(kernel_size=8, stride=8, padding=0, dilation=1, ceil_mode=False)
  )
  (words_rnn): GRU(256, 128, dropout=0.5)
  (attention): MultiHeadAttention(
    (query_layer): Linear(in_features=128, out_features=128, bias=False)
    (key_layer): Linear(in_features=128, out_features=128, bias=False)
    (value_layer): Linear(in_features=128, out_features=128, bias=False)
    (bn): BatchNorm1d(128, eps=1e-05, momentum=0.1, affine=True)
  )
  (projector): Linear(in_features=128, out_features=2, bias=True)
)",AttentionedYoonKim,0.0,0.01,IMDB binary classification,298416
11,0.70696,0.9789777777777777,"MAX_WORD_LEN = 8, MAX_TEXT_LEN = 256",0.5,30,0.7131558339859043,0.9793169793169794,,0.001,"AttentionedYoonKimModel(
  (embedding): Linear(in_features=74, out_features=74, bias=True)
  (chars_cnn): Sequential(
    (0): Conv1d(74, 256, kernel_size=(5,), stride=(1,), padding=(2,))
    (1): ReLU()
    (2): MaxPool1d(kernel_size=8, stride=8, padding=0, dilation=1, ceil_mode=False)
  )
  (words_rnn): GRU(256, 128, dropout=0.5)
  (attention): MultiHeadAttention(
    (query_layer): Linear(in_features=128, out_features=128, bias=False)
    (key_layer): Linear(in_features=128, out_features=128, bias=False)
    (value_layer): Linear(in_features=128, out_features=128, bias=False)
    (bn): BatchNorm1d(128, eps=1e-05, momentum=0.1, affine=True)
  )
  (projector): Linear(in_features=128, out_features=2, bias=True)
)",AttentionedYoonKim,0.01,0.01,IMDB binary classification,298416
12,0.69016,0.9789777777777777,"MAX_WORD_LEN = 8, MAX_TEXT_LEN = 256",0.5,30,0.6971142566669274,0.9793169793169794,,0.001,"AttentionedYoonKimModel(
  (embedding): Linear(in_features=74, out_features=74, bias=True)
  (chars_cnn): Sequential(
    (0): Conv1d(74, 256, kernel_size=(5,), stride=(1,), padding=(2,))
    (1): ReLU()
    (2): MaxPool1d(kernel_size=8, stride=8, padding=0, dilation=1, ceil_mode=False)
  )
  (words_rnn): GRU(256, 128, dropout=0.5)
  (attention): MultiHeadAttention(
    (query_layer): Linear(in_features=128, out_features=128, bias=False)
    (key_layer): Linear(in_features=128, out_features=128, bias=False)
    (value_layer): Linear(in_features=128, out_features=128, bias=False)
    (bn): BatchNorm1d(128, eps=1e-05, momentum=0.1, affine=True)
  )
  (projector): Linear(in_features=128, out_features=2, bias=True)
)",AttentionedYoonKim,0.025,0.01,IMDB binary classification,298416
13,0.67668,0.9789777777777777,"MAX_WORD_LEN = 8, MAX_TEXT_LEN = 256",0.5,30,0.6866446985849971,0.9793169793169794,,0.001,"AttentionedYoonKimModel(
  (embedding): Linear(in_features=74, out_features=74, bias=True)
  (chars_cnn): Sequential(
    (0): Conv1d(74, 256, kernel_size=(5,), stride=(1,), padding=(2,))
    (1): ReLU()
    (2): MaxPool1d(kernel_size=8, stride=8, padding=0, dilation=1, ceil_mode=False)
  )
  (words_rnn): GRU(256, 128, dropout=0.5)
  (attention): MultiHeadAttention(
    (query_layer): Linear(in_features=128, out_features=128, bias=False)
    (key_layer): Linear(in_features=128, out_features=128, bias=False)
    (value_layer): Linear(in_features=128, out_features=128, bias=False)
    (bn): BatchNorm1d(128, eps=1e-05, momentum=0.1, affine=True)
  )
  (projector): Linear(in_features=128, out_features=2, bias=True)
)",AttentionedYoonKim,0.05,0.01,IMDB binary classification,298416
14,0.64872,0.9789777777777777,"MAX_WORD_LEN = 8, MAX_TEXT_LEN = 256",0.5,30,0.664193943101866,0.9793169793169794,,0.001,"AttentionedYoonKimModel(
  (embedding): Linear(in_features=74, out_features=74, bias=True)
  (chars_cnn): Sequential(
    (0): Conv1d(74, 256, kernel_size=(5,), stride=(1,), padding=(2,))
    (1): ReLU()
    (2): MaxPool1d(kernel_size=8, stride=8, padding=0, dilation=1, ceil_mode=False)
  )
  (words_rnn): GRU(256, 128, dropout=0.5)
  (attention): MultiHeadAttention(
    (query_layer): Linear(in_features=128, out_features=128, bias=False)
    (key_layer): Linear(in_features=128, out_features=128, bias=False)
    (value_layer): Linear(in_features=128, out_features=128, bias=False)
    (bn): BatchNorm1d(128, eps=1e-05, momentum=0.1, affine=True)
  )
  (projector): Linear(in_features=128, out_features=2, bias=True)
)",AttentionedYoonKim,0.075,0.01,IMDB binary classification,298416
15,0.63532,0.9789777777777777,"MAX_WORD_LEN = 8, MAX_TEXT_LEN = 256",0.5,30,0.6540694365395561,0.9793169793169794,,0.001,"AttentionedYoonKimModel(
  (embedding): Linear(in_features=74, out_features=74, bias=True)
  (chars_cnn): Sequential(
    (0): Conv1d(74, 256, kernel_size=(5,), stride=(1,), padding=(2,))
    (1): ReLU()
    (2): MaxPool1d(kernel_size=8, stride=8, padding=0, dilation=1, ceil_mode=False)
  )
  (words_rnn): GRU(256, 128, dropout=0.5)
  (attention): MultiHeadAttention(
    (query_layer): Linear(in_features=128, out_features=128, bias=False)
    (key_layer): Linear(in_features=128, out_features=128, bias=False)
    (value_layer): Linear(in_features=128, out_features=128, bias=False)
    (bn): BatchNorm1d(128, eps=1e-05, momentum=0.1, affine=True)
  )
  (projector): Linear(in_features=128, out_features=2, bias=True)
)",AttentionedYoonKim,0.1,0.01,IMDB binary classification,298416
16,0.61568,0.9789777777777777,"MAX_WORD_LEN = 8, MAX_TEXT_LEN = 256",0.5,30,0.6360054553720261,0.9793169793169794,,0.001,"AttentionedYoonKimModel(
  (embedding): Linear(in_features=74, out_features=74, bias=True)
  (chars_cnn): Sequential(
    (0): Conv1d(74, 256, kernel_size=(5,), stride=(1,), padding=(2,))
    (1): ReLU()
    (2): MaxPool1d(kernel_size=8, stride=8, padding=0, dilation=1, ceil_mode=False)
  )
  (words_rnn): GRU(256, 128, dropout=0.5)
  (attention): MultiHeadAttention(
    (query_layer): Linear(in_features=128, out_features=128, bias=False)
    (key_layer): Linear(in_features=128, out_features=128, bias=False)
    (value_layer): Linear(in_features=128, out_features=128, bias=False)
    (bn): BatchNorm1d(128, eps=1e-05, momentum=0.1, affine=True)
  )
  (projector): Linear(in_features=128, out_features=2, bias=True)
)",AttentionedYoonKim,0.125,0.01,IMDB binary classification,298416
17,0.6008,0.9789777777777777,"MAX_WORD_LEN = 8, MAX_TEXT_LEN = 256",0.5,30,0.6267763649962603,0.9793169793169794,,0.001,"AttentionedYoonKimModel(
  (embedding): Linear(in_features=74, out_features=74, bias=True)
  (chars_cnn): Sequential(
    (0): Conv1d(74, 256, kernel_size=(5,), stride=(1,), padding=(2,))
    (1): ReLU()
    (2): MaxPool1d(kernel_size=8, stride=8, padding=0, dilation=1, ceil_mode=False)
  )
  (words_rnn): GRU(256, 128, dropout=0.5)
  (attention): MultiHeadAttention(
    (query_layer): Linear(in_features=128, out_features=128, bias=False)
    (key_layer): Linear(in_features=128, out_features=128, bias=False)
    (value_layer): Linear(in_features=128, out_features=128, bias=False)
    (bn): BatchNorm1d(128, eps=1e-05, momentum=0.1, affine=True)
  )
  (projector): Linear(in_features=128, out_features=2, bias=True)
)",AttentionedYoonKim,0.15,0.01,IMDB binary classification,298416
18,0.58496,0.9789777777777777,"MAX_WORD_LEN = 8, MAX_TEXT_LEN = 256",0.5,30,0.6147906147906148,0.9793169793169794,,0.001,"AttentionedYoonKimModel(
  (embedding): Linear(in_features=74, out_features=74, bias=True)
  (chars_cnn): Sequential(
    (0): Conv1d(74, 256, kernel_size=(5,), stride=(1,), padding=(2,))
    (1): ReLU()
    (2): MaxPool1d(kernel_size=8, stride=8, padding=0, dilation=1, ceil_mode=False)
  )
  (words_rnn): GRU(256, 128, dropout=0.5)
  (attention): MultiHeadAttention(
    (query_layer): Linear(in_features=128, out_features=128, bias=False)
    (key_layer): Linear(in_features=128, out_features=128, bias=False)
    (value_layer): Linear(in_features=128, out_features=128, bias=False)
    (bn): BatchNorm1d(128, eps=1e-05, momentum=0.1, affine=True)
  )
  (projector): Linear(in_features=128, out_features=2, bias=True)
)",AttentionedYoonKim,0.175,0.01,IMDB binary classification,298416
19,0.5772,0.9789777777777777,"MAX_WORD_LEN = 8, MAX_TEXT_LEN = 256",0.5,30,0.6114827611556274,0.9793169793169794,,0.001,"AttentionedYoonKimModel(
  (embedding): Linear(in_features=74, out_features=74, bias=True)
  (chars_cnn): Sequential(
    (0): Conv1d(74, 256, kernel_size=(5,), stride=(1,), padding=(2,))
    (1): ReLU()
    (2): MaxPool1d(kernel_size=8, stride=8, padding=0, dilation=1, ceil_mode=False)
  )
  (words_rnn): GRU(256, 128, dropout=0.5)
  (attention): MultiHeadAttention(
    (query_layer): Linear(in_features=128, out_features=128, bias=False)
    (key_layer): Linear(in_features=128, out_features=128, bias=False)
    (value_layer): Linear(in_features=128, out_features=128, bias=False)
    (bn): BatchNorm1d(128, eps=1e-05, momentum=0.1, affine=True)
  )
  (projector): Linear(in_features=128, out_features=2, bias=True)
)",AttentionedYoonKim,0.2,0.01,IMDB binary classification,298416
20,0.7374,0.9731111111111111,"MAX_WORD_LEN = 8, MAX_TEXT_LEN = 256",0.5,30,0.739038836109234,0.9728370673012167,,0.001,"AttentionedYoonKimModel(
  (embedding): Linear(in_features=74, out_features=74, bias=True)
  (chars_cnn): Sequential(
    (0): Conv1d(74, 256, kernel_size=(5,), stride=(1,), padding=(2,))
    (1): ReLU()
    (2): MaxPool1d(kernel_size=8, stride=8, padding=0, dilation=1, ceil_mode=False)
  )
  (words_rnn): GRU(256, 128, dropout=0.5)
  (attention): MultiHeadAttention(
    (query_layer): Linear(in_features=128, out_features=128, bias=False)
    (key_layer): Linear(in_features=128, out_features=128, bias=False)
    (value_layer): Linear(in_features=128, out_features=128, bias=False)
    (bn): BatchNorm1d(128, eps=1e-05, momentum=0.1, affine=True)
  )
  (projector): Linear(in_features=128, out_features=2, bias=True)
)",AttentionedYoonKim,0.0,0.025,IMDB binary classification,298416
21,0.7334,0.9731111111111111,"MAX_WORD_LEN = 8, MAX_TEXT_LEN = 256",0.5,30,0.7351269721416365,0.9728370673012167,,0.001,"AttentionedYoonKimModel(
  (embedding): Linear(in_features=74, out_features=74, bias=True)
  (chars_cnn): Sequential(
    (0): Conv1d(74, 256, kernel_size=(5,), stride=(1,), padding=(2,))
    (1): ReLU()
    (2): MaxPool1d(kernel_size=8, stride=8, padding=0, dilation=1, ceil_mode=False)
  )
  (words_rnn): GRU(256, 128, dropout=0.5)
  (attention): MultiHeadAttention(
    (query_layer): Linear(in_features=128, out_features=128, bias=False)
    (key_layer): Linear(in_features=128, out_features=128, bias=False)
    (value_layer): Linear(in_features=128, out_features=128, bias=False)
    (bn): BatchNorm1d(128, eps=1e-05, momentum=0.1, affine=True)
  )
  (projector): Linear(in_features=128, out_features=2, bias=True)
)",AttentionedYoonKim,0.01,0.025,IMDB binary classification,298416
22,0.723,0.9731111111111111,"MAX_WORD_LEN = 8, MAX_TEXT_LEN = 256",0.5,30,0.7256665214118766,0.9728370673012167,,0.001,"AttentionedYoonKimModel(
  (embedding): Linear(in_features=74, out_features=74, bias=True)
  (chars_cnn): Sequential(
    (0): Conv1d(74, 256, kernel_size=(5,), stride=(1,), padding=(2,))
    (1): ReLU()
    (2): MaxPool1d(kernel_size=8, stride=8, padding=0, dilation=1, ceil_mode=False)
  )
  (words_rnn): GRU(256, 128, dropout=0.5)
  (attention): MultiHeadAttention(
    (query_layer): Linear(in_features=128, out_features=128, bias=False)
    (key_layer): Linear(in_features=128, out_features=128, bias=False)
    (value_layer): Linear(in_features=128, out_features=128, bias=False)
    (bn): BatchNorm1d(128, eps=1e-05, momentum=0.1, affine=True)
  )
  (projector): Linear(in_features=128, out_features=2, bias=True)
)",AttentionedYoonKim,0.025,0.025,IMDB binary classification,298416
23,0.70368,0.9731111111111111,"MAX_WORD_LEN = 8, MAX_TEXT_LEN = 256",0.5,30,0.7065208779019094,0.9728370673012167,,0.001,"AttentionedYoonKimModel(
  (embedding): Linear(in_features=74, out_features=74, bias=True)
  (chars_cnn): Sequential(
    (0): Conv1d(74, 256, kernel_size=(5,), stride=(1,), padding=(2,))
    (1): ReLU()
    (2): MaxPool1d(kernel_size=8, stride=8, padding=0, dilation=1, ceil_mode=False)
  )
  (words_rnn): GRU(256, 128, dropout=0.5)
  (attention): MultiHeadAttention(
    (query_layer): Linear(in_features=128, out_features=128, bias=False)
    (key_layer): Linear(in_features=128, out_features=128, bias=False)
    (value_layer): Linear(in_features=128, out_features=128, bias=False)
    (bn): BatchNorm1d(128, eps=1e-05, momentum=0.1, affine=True)
  )
  (projector): Linear(in_features=128, out_features=2, bias=True)
)",AttentionedYoonKim,0.05,0.025,IMDB binary classification,298416
24,0.67892,0.9731111111111111,"MAX_WORD_LEN = 8, MAX_TEXT_LEN = 256",0.5,30,0.6841628959276018,0.9728370673012167,,0.001,"AttentionedYoonKimModel(
  (embedding): Linear(in_features=74, out_features=74, bias=True)
  (chars_cnn): Sequential(
    (0): Conv1d(74, 256, kernel_size=(5,), stride=(1,), padding=(2,))
    (1): ReLU()
    (2): MaxPool1d(kernel_size=8, stride=8, padding=0, dilation=1, ceil_mode=False)
  )
  (words_rnn): GRU(256, 128, dropout=0.5)
  (attention): MultiHeadAttention(
    (query_layer): Linear(in_features=128, out_features=128, bias=False)
    (key_layer): Linear(in_features=128, out_features=128, bias=False)
    (value_layer): Linear(in_features=128, out_features=128, bias=False)
    (bn): BatchNorm1d(128, eps=1e-05, momentum=0.1, affine=True)
  )
  (projector): Linear(in_features=128, out_features=2, bias=True)
)",AttentionedYoonKim,0.075,0.025,IMDB binary classification,298416
25,0.66316,0.9731111111111111,"MAX_WORD_LEN = 8, MAX_TEXT_LEN = 256",0.5,30,0.669050894085282,0.9728370673012167,,0.001,"AttentionedYoonKimModel(
  (embedding): Linear(in_features=74, out_features=74, bias=True)
  (chars_cnn): Sequential(
    (0): Conv1d(74, 256, kernel_size=(5,), stride=(1,), padding=(2,))
    (1): ReLU()
    (2): MaxPool1d(kernel_size=8, stride=8, padding=0, dilation=1, ceil_mode=False)
  )
  (words_rnn): GRU(256, 128, dropout=0.5)
  (attention): MultiHeadAttention(
    (query_layer): Linear(in_features=128, out_features=128, bias=False)
    (key_layer): Linear(in_features=128, out_features=128, bias=False)
    (value_layer): Linear(in_features=128, out_features=128, bias=False)
    (bn): BatchNorm1d(128, eps=1e-05, momentum=0.1, affine=True)
  )
  (projector): Linear(in_features=128, out_features=2, bias=True)
)",AttentionedYoonKim,0.1,0.025,IMDB binary classification,298416
26,0.65072,0.9731111111111111,"MAX_WORD_LEN = 8, MAX_TEXT_LEN = 256",0.5,30,0.6572998430141287,0.9728370673012167,,0.001,"AttentionedYoonKimModel(
  (embedding): Linear(in_features=74, out_features=74, bias=True)
  (chars_cnn): Sequential(
    (0): Conv1d(74, 256, kernel_size=(5,), stride=(1,), padding=(2,))
    (1): ReLU()
    (2): MaxPool1d(kernel_size=8, stride=8, padding=0, dilation=1, ceil_mode=False)
  )
  (words_rnn): GRU(256, 128, dropout=0.5)
  (attention): MultiHeadAttention(
    (query_layer): Linear(in_features=128, out_features=128, bias=False)
    (key_layer): Linear(in_features=128, out_features=128, bias=False)
    (value_layer): Linear(in_features=128, out_features=128, bias=False)
    (bn): BatchNorm1d(128, eps=1e-05, momentum=0.1, affine=True)
  )
  (projector): Linear(in_features=128, out_features=2, bias=True)
)",AttentionedYoonKim,0.125,0.025,IMDB binary classification,298416
27,0.63096,0.9731111111111111,"MAX_WORD_LEN = 8, MAX_TEXT_LEN = 256",0.5,30,0.6409837341427349,0.9728370673012167,,0.001,"AttentionedYoonKimModel(
  (embedding): Linear(in_features=74, out_features=74, bias=True)
  (chars_cnn): Sequential(
    (0): Conv1d(74, 256, kernel_size=(5,), stride=(1,), padding=(2,))
    (1): ReLU()
    (2): MaxPool1d(kernel_size=8, stride=8, padding=0, dilation=1, ceil_mode=False)
  )
  (words_rnn): GRU(256, 128, dropout=0.5)
  (attention): MultiHeadAttention(
    (query_layer): Linear(in_features=128, out_features=128, bias=False)
    (key_layer): Linear(in_features=128, out_features=128, bias=False)
    (value_layer): Linear(in_features=128, out_features=128, bias=False)
    (bn): BatchNorm1d(128, eps=1e-05, momentum=0.1, affine=True)
  )
  (projector): Linear(in_features=128, out_features=2, bias=True)
)",AttentionedYoonKim,0.15,0.025,IMDB binary classification,298416
28,0.6176,0.9731111111111111,"MAX_WORD_LEN = 8, MAX_TEXT_LEN = 256",0.5,30,0.6270287141073657,0.9728370673012167,,0.001,"AttentionedYoonKimModel(
  (embedding): Linear(in_features=74, out_features=74, bias=True)
  (chars_cnn): Sequential(
    (0): Conv1d(74, 256, kernel_size=(5,), stride=(1,), padding=(2,))
    (1): ReLU()
    (2): MaxPool1d(kernel_size=8, stride=8, padding=0, dilation=1, ceil_mode=False)
  )
  (words_rnn): GRU(256, 128, dropout=0.5)
  (attention): MultiHeadAttention(
    (query_layer): Linear(in_features=128, out_features=128, bias=False)
    (key_layer): Linear(in_features=128, out_features=128, bias=False)
    (value_layer): Linear(in_features=128, out_features=128, bias=False)
    (bn): BatchNorm1d(128, eps=1e-05, momentum=0.1, affine=True)
  )
  (projector): Linear(in_features=128, out_features=2, bias=True)
)",AttentionedYoonKim,0.175,0.025,IMDB binary classification,298416
29,0.59988,0.9731111111111111,"MAX_WORD_LEN = 8, MAX_TEXT_LEN = 256",0.5,30,0.6132910658367804,0.9728370673012167,,0.001,"AttentionedYoonKimModel(
  (embedding): Linear(in_features=74, out_features=74, bias=True)
  (chars_cnn): Sequential(
    (0): Conv1d(74, 256, kernel_size=(5,), stride=(1,), padding=(2,))
    (1): ReLU()
    (2): MaxPool1d(kernel_size=8, stride=8, padding=0, dilation=1, ceil_mode=False)
  )
  (words_rnn): GRU(256, 128, dropout=0.5)
  (attention): MultiHeadAttention(
    (query_layer): Linear(in_features=128, out_features=128, bias=False)
    (key_layer): Linear(in_features=128, out_features=128, bias=False)
    (value_layer): Linear(in_features=128, out_features=128, bias=False)
    (bn): BatchNorm1d(128, eps=1e-05, momentum=0.1, affine=True)
  )
  (projector): Linear(in_features=128, out_features=2, bias=True)
)",AttentionedYoonKim,0.2,0.025,IMDB binary classification,298416
30,0.77488,0.9656888888888889,"MAX_WORD_LEN = 8, MAX_TEXT_LEN = 256",0.5,30,0.771182306066027,0.9654987486592779,,0.001,"AttentionedYoonKimModel(
  (embedding): Linear(in_features=74, out_features=74, bias=True)
  (chars_cnn): Sequential(
    (0): Conv1d(74, 256, kernel_size=(5,), stride=(1,), padding=(2,))
    (1): ReLU()
    (2): MaxPool1d(kernel_size=8, stride=8, padding=0, dilation=1, ceil_mode=False)
  )
  (words_rnn): GRU(256, 128, dropout=0.5)
  (attention): MultiHeadAttention(
    (query_layer): Linear(in_features=128, out_features=128, bias=False)
    (key_layer): Linear(in_features=128, out_features=128, bias=False)
    (value_layer): Linear(in_features=128, out_features=128, bias=False)
    (bn): BatchNorm1d(128, eps=1e-05, momentum=0.1, affine=True)
  )
  (projector): Linear(in_features=128, out_features=2, bias=True)
)",AttentionedYoonKim,0.0,0.05,IMDB binary classification,298416
31,0.76916,0.9656888888888889,"MAX_WORD_LEN = 8, MAX_TEXT_LEN = 256",0.5,30,0.7652442744986373,0.9654987486592779,,0.001,"AttentionedYoonKimModel(
  (embedding): Linear(in_features=74, out_features=74, bias=True)
  (chars_cnn): Sequential(
    (0): Conv1d(74, 256, kernel_size=(5,), stride=(1,), padding=(2,))
    (1): ReLU()
    (2): MaxPool1d(kernel_size=8, stride=8, padding=0, dilation=1, ceil_mode=False)
  )
  (words_rnn): GRU(256, 128, dropout=0.5)
  (attention): MultiHeadAttention(
    (query_layer): Linear(in_features=128, out_features=128, bias=False)
    (key_layer): Linear(in_features=128, out_features=128, bias=False)
    (value_layer): Linear(in_features=128, out_features=128, bias=False)
    (bn): BatchNorm1d(128, eps=1e-05, momentum=0.1, affine=True)
  )
  (projector): Linear(in_features=128, out_features=2, bias=True)
)",AttentionedYoonKim,0.01,0.05,IMDB binary classification,298416
32,0.76152,0.9656888888888889,"MAX_WORD_LEN = 8, MAX_TEXT_LEN = 256",0.5,30,0.7564940369220716,0.9654987486592779,,0.001,"AttentionedYoonKimModel(
  (embedding): Linear(in_features=74, out_features=74, bias=True)
  (chars_cnn): Sequential(
    (0): Conv1d(74, 256, kernel_size=(5,), stride=(1,), padding=(2,))
    (1): ReLU()
    (2): MaxPool1d(kernel_size=8, stride=8, padding=0, dilation=1, ceil_mode=False)
  )
  (words_rnn): GRU(256, 128, dropout=0.5)
  (attention): MultiHeadAttention(
    (query_layer): Linear(in_features=128, out_features=128, bias=False)
    (key_layer): Linear(in_features=128, out_features=128, bias=False)
    (value_layer): Linear(in_features=128, out_features=128, bias=False)
    (bn): BatchNorm1d(128, eps=1e-05, momentum=0.1, affine=True)
  )
  (projector): Linear(in_features=128, out_features=2, bias=True)
)",AttentionedYoonKim,0.025,0.05,IMDB binary classification,298416
33,0.74948,0.9656888888888889,"MAX_WORD_LEN = 8, MAX_TEXT_LEN = 256",0.5,30,0.7439597726993991,0.9654987486592779,,0.001,"AttentionedYoonKimModel(
  (embedding): Linear(in_features=74, out_features=74, bias=True)
  (chars_cnn): Sequential(
    (0): Conv1d(74, 256, kernel_size=(5,), stride=(1,), padding=(2,))
    (1): ReLU()
    (2): MaxPool1d(kernel_size=8, stride=8, padding=0, dilation=1, ceil_mode=False)
  )
  (words_rnn): GRU(256, 128, dropout=0.5)
  (attention): MultiHeadAttention(
    (query_layer): Linear(in_features=128, out_features=128, bias=False)
    (key_layer): Linear(in_features=128, out_features=128, bias=False)
    (value_layer): Linear(in_features=128, out_features=128, bias=False)
    (bn): BatchNorm1d(128, eps=1e-05, momentum=0.1, affine=True)
  )
  (projector): Linear(in_features=128, out_features=2, bias=True)
)",AttentionedYoonKim,0.05,0.05,IMDB binary classification,298416
34,0.731,0.9656888888888889,"MAX_WORD_LEN = 8, MAX_TEXT_LEN = 256",0.5,30,0.7239666707712514,0.9654987486592779,,0.001,"AttentionedYoonKimModel(
  (embedding): Linear(in_features=74, out_features=74, bias=True)
  (chars_cnn): Sequential(
    (0): Conv1d(74, 256, kernel_size=(5,), stride=(1,), padding=(2,))
    (1): ReLU()
    (2): MaxPool1d(kernel_size=8, stride=8, padding=0, dilation=1, ceil_mode=False)
  )
  (words_rnn): GRU(256, 128, dropout=0.5)
  (attention): MultiHeadAttention(
    (query_layer): Linear(in_features=128, out_features=128, bias=False)
    (key_layer): Linear(in_features=128, out_features=128, bias=False)
    (value_layer): Linear(in_features=128, out_features=128, bias=False)
    (bn): BatchNorm1d(128, eps=1e-05, momentum=0.1, affine=True)
  )
  (projector): Linear(in_features=128, out_features=2, bias=True)
)",AttentionedYoonKim,0.075,0.05,IMDB binary classification,298416
35,0.724,0.9656888888888889,"MAX_WORD_LEN = 8, MAX_TEXT_LEN = 256",0.5,30,0.7170275590551182,0.9654987486592779,,0.001,"AttentionedYoonKimModel(
  (embedding): Linear(in_features=74, out_features=74, bias=True)
  (chars_cnn): Sequential(
    (0): Conv1d(74, 256, kernel_size=(5,), stride=(1,), padding=(2,))
    (1): ReLU()
    (2): MaxPool1d(kernel_size=8, stride=8, padding=0, dilation=1, ceil_mode=False)
  )
  (words_rnn): GRU(256, 128, dropout=0.5)
  (attention): MultiHeadAttention(
    (query_layer): Linear(in_features=128, out_features=128, bias=False)
    (key_layer): Linear(in_features=128, out_features=128, bias=False)
    (value_layer): Linear(in_features=128, out_features=128, bias=False)
    (bn): BatchNorm1d(128, eps=1e-05, momentum=0.1, affine=True)
  )
  (projector): Linear(in_features=128, out_features=2, bias=True)
)",AttentionedYoonKim,0.1,0.05,IMDB binary classification,298416
36,0.70836,0.9656888888888889,"MAX_WORD_LEN = 8, MAX_TEXT_LEN = 256",0.5,30,0.7004396236492872,0.9654987486592779,,0.001,"AttentionedYoonKimModel(
  (embedding): Linear(in_features=74, out_features=74, bias=True)
  (chars_cnn): Sequential(
    (0): Conv1d(74, 256, kernel_size=(5,), stride=(1,), padding=(2,))
    (1): ReLU()
    (2): MaxPool1d(kernel_size=8, stride=8, padding=0, dilation=1, ceil_mode=False)
  )
  (words_rnn): GRU(256, 128, dropout=0.5)
  (attention): MultiHeadAttention(
    (query_layer): Linear(in_features=128, out_features=128, bias=False)
    (key_layer): Linear(in_features=128, out_features=128, bias=False)
    (value_layer): Linear(in_features=128, out_features=128, bias=False)
    (bn): BatchNorm1d(128, eps=1e-05, momentum=0.1, affine=True)
  )
  (projector): Linear(in_features=128, out_features=2, bias=True)
)",AttentionedYoonKim,0.125,0.05,IMDB binary classification,298416
37,0.6876,0.9656888888888889,"MAX_WORD_LEN = 8, MAX_TEXT_LEN = 256",0.5,30,0.6764169705004971,0.9654987486592779,,0.001,"AttentionedYoonKimModel(
  (embedding): Linear(in_features=74, out_features=74, bias=True)
  (chars_cnn): Sequential(
    (0): Conv1d(74, 256, kernel_size=(5,), stride=(1,), padding=(2,))
    (1): ReLU()
    (2): MaxPool1d(kernel_size=8, stride=8, padding=0, dilation=1, ceil_mode=False)
  )
  (words_rnn): GRU(256, 128, dropout=0.5)
  (attention): MultiHeadAttention(
    (query_layer): Linear(in_features=128, out_features=128, bias=False)
    (key_layer): Linear(in_features=128, out_features=128, bias=False)
    (value_layer): Linear(in_features=128, out_features=128, bias=False)
    (bn): BatchNorm1d(128, eps=1e-05, momentum=0.1, affine=True)
  )
  (projector): Linear(in_features=128, out_features=2, bias=True)
)",AttentionedYoonKim,0.15,0.05,IMDB binary classification,298416
38,0.6828,0.9656888888888889,"MAX_WORD_LEN = 8, MAX_TEXT_LEN = 256",0.5,30,0.6707904350714049,0.9654987486592779,,0.001,"AttentionedYoonKimModel(
  (embedding): Linear(in_features=74, out_features=74, bias=True)
  (chars_cnn): Sequential(
    (0): Conv1d(74, 256, kernel_size=(5,), stride=(1,), padding=(2,))
    (1): ReLU()
    (2): MaxPool1d(kernel_size=8, stride=8, padding=0, dilation=1, ceil_mode=False)
  )
  (words_rnn): GRU(256, 128, dropout=0.5)
  (attention): MultiHeadAttention(
    (query_layer): Linear(in_features=128, out_features=128, bias=False)
    (key_layer): Linear(in_features=128, out_features=128, bias=False)
    (value_layer): Linear(in_features=128, out_features=128, bias=False)
    (bn): BatchNorm1d(128, eps=1e-05, momentum=0.1, affine=True)
  )
  (projector): Linear(in_features=128, out_features=2, bias=True)
)",AttentionedYoonKim,0.175,0.05,IMDB binary classification,298416
39,0.66428,0.9656888888888889,"MAX_WORD_LEN = 8, MAX_TEXT_LEN = 256",0.5,30,0.6501604768454837,0.9654987486592779,,0.001,"AttentionedYoonKimModel(
  (embedding): Linear(in_features=74, out_features=74, bias=True)
  (chars_cnn): Sequential(
    (0): Conv1d(74, 256, kernel_size=(5,), stride=(1,), padding=(2,))
    (1): ReLU()
    (2): MaxPool1d(kernel_size=8, stride=8, padding=0, dilation=1, ceil_mode=False)
  )
  (words_rnn): GRU(256, 128, dropout=0.5)
  (attention): MultiHeadAttention(
    (query_layer): Linear(in_features=128, out_features=128, bias=False)
    (key_layer): Linear(in_features=128, out_features=128, bias=False)
    (value_layer): Linear(in_features=128, out_features=128, bias=False)
    (bn): BatchNorm1d(128, eps=1e-05, momentum=0.1, affine=True)
  )
  (projector): Linear(in_features=128, out_features=2, bias=True)
)",AttentionedYoonKim,0.2,0.05,IMDB binary classification,298416
40,0.79852,0.9493333333333334,"MAX_WORD_LEN = 8, MAX_TEXT_LEN = 256",0.5,30,0.7994904661438638,0.9494859978730946,,0.001,"AttentionedYoonKimModel(
  (embedding): Linear(in_features=74, out_features=74, bias=True)
  (chars_cnn): Sequential(
    (0): Conv1d(74, 256, kernel_size=(5,), stride=(1,), padding=(2,))
    (1): ReLU()
    (2): MaxPool1d(kernel_size=8, stride=8, padding=0, dilation=1, ceil_mode=False)
  )
  (words_rnn): GRU(256, 128, dropout=0.5)
  (attention): MultiHeadAttention(
    (query_layer): Linear(in_features=128, out_features=128, bias=False)
    (key_layer): Linear(in_features=128, out_features=128, bias=False)
    (value_layer): Linear(in_features=128, out_features=128, bias=False)
    (bn): BatchNorm1d(128, eps=1e-05, momentum=0.1, affine=True)
  )
  (projector): Linear(in_features=128, out_features=2, bias=True)
)",AttentionedYoonKim,0.0,0.075,IMDB binary classification,298416
41,0.79668,0.9493333333333334,"MAX_WORD_LEN = 8, MAX_TEXT_LEN = 256",0.5,30,0.7970615243342516,0.9494859978730946,,0.001,"AttentionedYoonKimModel(
  (embedding): Linear(in_features=74, out_features=74, bias=True)
  (chars_cnn): Sequential(
    (0): Conv1d(74, 256, kernel_size=(5,), stride=(1,), padding=(2,))
    (1): ReLU()
    (2): MaxPool1d(kernel_size=8, stride=8, padding=0, dilation=1, ceil_mode=False)
  )
  (words_rnn): GRU(256, 128, dropout=0.5)
  (attention): MultiHeadAttention(
    (query_layer): Linear(in_features=128, out_features=128, bias=False)
    (key_layer): Linear(in_features=128, out_features=128, bias=False)
    (value_layer): Linear(in_features=128, out_features=128, bias=False)
    (bn): BatchNorm1d(128, eps=1e-05, momentum=0.1, affine=True)
  )
  (projector): Linear(in_features=128, out_features=2, bias=True)
)",AttentionedYoonKim,0.01,0.075,IMDB binary classification,298416
42,0.79332,0.9493333333333334,"MAX_WORD_LEN = 8, MAX_TEXT_LEN = 256",0.5,30,0.7942499900449966,0.9494859978730946,,0.001,"AttentionedYoonKimModel(
  (embedding): Linear(in_features=74, out_features=74, bias=True)
  (chars_cnn): Sequential(
    (0): Conv1d(74, 256, kernel_size=(5,), stride=(1,), padding=(2,))
    (1): ReLU()
    (2): MaxPool1d(kernel_size=8, stride=8, padding=0, dilation=1, ceil_mode=False)
  )
  (words_rnn): GRU(256, 128, dropout=0.5)
  (attention): MultiHeadAttention(
    (query_layer): Linear(in_features=128, out_features=128, bias=False)
    (key_layer): Linear(in_features=128, out_features=128, bias=False)
    (value_layer): Linear(in_features=128, out_features=128, bias=False)
    (bn): BatchNorm1d(128, eps=1e-05, momentum=0.1, affine=True)
  )
  (projector): Linear(in_features=128, out_features=2, bias=True)
)",AttentionedYoonKim,0.025,0.075,IMDB binary classification,298416
43,0.78376,0.9493333333333334,"MAX_WORD_LEN = 8, MAX_TEXT_LEN = 256",0.5,30,0.7848443843031122,0.9494859978730946,,0.001,"AttentionedYoonKimModel(
  (embedding): Linear(in_features=74, out_features=74, bias=True)
  (chars_cnn): Sequential(
    (0): Conv1d(74, 256, kernel_size=(5,), stride=(1,), padding=(2,))
    (1): ReLU()
    (2): MaxPool1d(kernel_size=8, stride=8, padding=0, dilation=1, ceil_mode=False)
  )
  (words_rnn): GRU(256, 128, dropout=0.5)
  (attention): MultiHeadAttention(
    (query_layer): Linear(in_features=128, out_features=128, bias=False)
    (key_layer): Linear(in_features=128, out_features=128, bias=False)
    (value_layer): Linear(in_features=128, out_features=128, bias=False)
    (bn): BatchNorm1d(128, eps=1e-05, momentum=0.1, affine=True)
  )
  (projector): Linear(in_features=128, out_features=2, bias=True)
)",AttentionedYoonKim,0.05,0.075,IMDB binary classification,298416
44,0.7724,0.9493333333333334,"MAX_WORD_LEN = 8, MAX_TEXT_LEN = 256",0.5,30,0.7737934324560706,0.9494859978730946,,0.001,"AttentionedYoonKimModel(
  (embedding): Linear(in_features=74, out_features=74, bias=True)
  (chars_cnn): Sequential(
    (0): Conv1d(74, 256, kernel_size=(5,), stride=(1,), padding=(2,))
    (1): ReLU()
    (2): MaxPool1d(kernel_size=8, stride=8, padding=0, dilation=1, ceil_mode=False)
  )
  (words_rnn): GRU(256, 128, dropout=0.5)
  (attention): MultiHeadAttention(
    (query_layer): Linear(in_features=128, out_features=128, bias=False)
    (key_layer): Linear(in_features=128, out_features=128, bias=False)
    (value_layer): Linear(in_features=128, out_features=128, bias=False)
    (bn): BatchNorm1d(128, eps=1e-05, momentum=0.1, affine=True)
  )
  (projector): Linear(in_features=128, out_features=2, bias=True)
)",AttentionedYoonKim,0.075,0.075,IMDB binary classification,298416
45,0.76604,0.9493333333333334,"MAX_WORD_LEN = 8, MAX_TEXT_LEN = 256",0.5,30,0.7675185818196273,0.9494859978730946,,0.001,"AttentionedYoonKimModel(
  (embedding): Linear(in_features=74, out_features=74, bias=True)
  (chars_cnn): Sequential(
    (0): Conv1d(74, 256, kernel_size=(5,), stride=(1,), padding=(2,))
    (1): ReLU()
    (2): MaxPool1d(kernel_size=8, stride=8, padding=0, dilation=1, ceil_mode=False)
  )
  (words_rnn): GRU(256, 128, dropout=0.5)
  (attention): MultiHeadAttention(
    (query_layer): Linear(in_features=128, out_features=128, bias=False)
    (key_layer): Linear(in_features=128, out_features=128, bias=False)
    (value_layer): Linear(in_features=128, out_features=128, bias=False)
    (bn): BatchNorm1d(128, eps=1e-05, momentum=0.1, affine=True)
  )
  (projector): Linear(in_features=128, out_features=2, bias=True)
)",AttentionedYoonKim,0.1,0.075,IMDB binary classification,298416
46,0.75816,0.9493333333333334,"MAX_WORD_LEN = 8, MAX_TEXT_LEN = 256",0.5,30,0.7599269377382465,0.9494859978730946,,0.001,"AttentionedYoonKimModel(
  (embedding): Linear(in_features=74, out_features=74, bias=True)
  (chars_cnn): Sequential(
    (0): Conv1d(74, 256, kernel_size=(5,), stride=(1,), padding=(2,))
    (1): ReLU()
    (2): MaxPool1d(kernel_size=8, stride=8, padding=0, dilation=1, ceil_mode=False)
  )
  (words_rnn): GRU(256, 128, dropout=0.5)
  (attention): MultiHeadAttention(
    (query_layer): Linear(in_features=128, out_features=128, bias=False)
    (key_layer): Linear(in_features=128, out_features=128, bias=False)
    (value_layer): Linear(in_features=128, out_features=128, bias=False)
    (bn): BatchNorm1d(128, eps=1e-05, momentum=0.1, affine=True)
  )
  (projector): Linear(in_features=128, out_features=2, bias=True)
)",AttentionedYoonKim,0.125,0.075,IMDB binary classification,298416
47,0.74944,0.9493333333333334,"MAX_WORD_LEN = 8, MAX_TEXT_LEN = 256",0.5,30,0.7518814861760279,0.9494859978730946,,0.001,"AttentionedYoonKimModel(
  (embedding): Linear(in_features=74, out_features=74, bias=True)
  (chars_cnn): Sequential(
    (0): Conv1d(74, 256, kernel_size=(5,), stride=(1,), padding=(2,))
    (1): ReLU()
    (2): MaxPool1d(kernel_size=8, stride=8, padding=0, dilation=1, ceil_mode=False)
  )
  (words_rnn): GRU(256, 128, dropout=0.5)
  (attention): MultiHeadAttention(
    (query_layer): Linear(in_features=128, out_features=128, bias=False)
    (key_layer): Linear(in_features=128, out_features=128, bias=False)
    (value_layer): Linear(in_features=128, out_features=128, bias=False)
    (bn): BatchNorm1d(128, eps=1e-05, momentum=0.1, affine=True)
  )
  (projector): Linear(in_features=128, out_features=2, bias=True)
)",AttentionedYoonKim,0.15,0.075,IMDB binary classification,298416
48,0.73536,0.9493333333333334,"MAX_WORD_LEN = 8, MAX_TEXT_LEN = 256",0.5,30,0.7368755965637925,0.9494859978730946,,0.001,"AttentionedYoonKimModel(
  (embedding): Linear(in_features=74, out_features=74, bias=True)
  (chars_cnn): Sequential(
    (0): Conv1d(74, 256, kernel_size=(5,), stride=(1,), padding=(2,))
    (1): ReLU()
    (2): MaxPool1d(kernel_size=8, stride=8, padding=0, dilation=1, ceil_mode=False)
  )
  (words_rnn): GRU(256, 128, dropout=0.5)
  (attention): MultiHeadAttention(
    (query_layer): Linear(in_features=128, out_features=128, bias=False)
    (key_layer): Linear(in_features=128, out_features=128, bias=False)
    (value_layer): Linear(in_features=128, out_features=128, bias=False)
    (bn): BatchNorm1d(128, eps=1e-05, momentum=0.1, affine=True)
  )
  (projector): Linear(in_features=128, out_features=2, bias=True)
)",AttentionedYoonKim,0.175,0.075,IMDB binary classification,298416
49,0.72992,0.9493333333333334,"MAX_WORD_LEN = 8, MAX_TEXT_LEN = 256",0.5,30,0.7319571258435886,0.9494859978730946,,0.001,"AttentionedYoonKimModel(
  (embedding): Linear(in_features=74, out_features=74, bias=True)
  (chars_cnn): Sequential(
    (0): Conv1d(74, 256, kernel_size=(5,), stride=(1,), padding=(2,))
    (1): ReLU()
    (2): MaxPool1d(kernel_size=8, stride=8, padding=0, dilation=1, ceil_mode=False)
  )
  (words_rnn): GRU(256, 128, dropout=0.5)
  (attention): MultiHeadAttention(
    (query_layer): Linear(in_features=128, out_features=128, bias=False)
    (key_layer): Linear(in_features=128, out_features=128, bias=False)
    (value_layer): Linear(in_features=128, out_features=128, bias=False)
    (bn): BatchNorm1d(128, eps=1e-05, momentum=0.1, affine=True)
  )
  (projector): Linear(in_features=128, out_features=2, bias=True)
)",AttentionedYoonKim,0.2,0.075,IMDB binary classification,298416
50,0.81064,0.9383111111111111,"MAX_WORD_LEN = 8, MAX_TEXT_LEN = 256",0.5,30,0.8145565653400189,0.9393356643356643,,0.001,"AttentionedYoonKimModel(
  (embedding): Linear(in_features=74, out_features=74, bias=True)
  (chars_cnn): Sequential(
    (0): Conv1d(74, 256, kernel_size=(5,), stride=(1,), padding=(2,))
    (1): ReLU()
    (2): MaxPool1d(kernel_size=8, stride=8, padding=0, dilation=1, ceil_mode=False)
  )
  (words_rnn): GRU(256, 128, dropout=0.5)
  (attention): MultiHeadAttention(
    (query_layer): Linear(in_features=128, out_features=128, bias=False)
    (key_layer): Linear(in_features=128, out_features=128, bias=False)
    (value_layer): Linear(in_features=128, out_features=128, bias=False)
    (bn): BatchNorm1d(128, eps=1e-05, momentum=0.1, affine=True)
  )
  (projector): Linear(in_features=128, out_features=2, bias=True)
)",AttentionedYoonKim,0.0,0.1,IMDB binary classification,298416
51,0.80696,0.9383111111111111,"MAX_WORD_LEN = 8, MAX_TEXT_LEN = 256",0.5,30,0.8112484355444304,0.9393356643356643,,0.001,"AttentionedYoonKimModel(
  (embedding): Linear(in_features=74, out_features=74, bias=True)
  (chars_cnn): Sequential(
    (0): Conv1d(74, 256, kernel_size=(5,), stride=(1,), padding=(2,))
    (1): ReLU()
    (2): MaxPool1d(kernel_size=8, stride=8, padding=0, dilation=1, ceil_mode=False)
  )
  (words_rnn): GRU(256, 128, dropout=0.5)
  (attention): MultiHeadAttention(
    (query_layer): Linear(in_features=128, out_features=128, bias=False)
    (key_layer): Linear(in_features=128, out_features=128, bias=False)
    (value_layer): Linear(in_features=128, out_features=128, bias=False)
    (bn): BatchNorm1d(128, eps=1e-05, momentum=0.1, affine=True)
  )
  (projector): Linear(in_features=128, out_features=2, bias=True)
)",AttentionedYoonKim,0.01,0.1,IMDB binary classification,298416
52,0.80372,0.9383111111111111,"MAX_WORD_LEN = 8, MAX_TEXT_LEN = 256",0.5,30,0.8081179368865602,0.9393356643356643,,0.001,"AttentionedYoonKimModel(
  (embedding): Linear(in_features=74, out_features=74, bias=True)
  (chars_cnn): Sequential(
    (0): Conv1d(74, 256, kernel_size=(5,), stride=(1,), padding=(2,))
    (1): ReLU()
    (2): MaxPool1d(kernel_size=8, stride=8, padding=0, dilation=1, ceil_mode=False)
  )
  (words_rnn): GRU(256, 128, dropout=0.5)
  (attention): MultiHeadAttention(
    (query_layer): Linear(in_features=128, out_features=128, bias=False)
    (key_layer): Linear(in_features=128, out_features=128, bias=False)
    (value_layer): Linear(in_features=128, out_features=128, bias=False)
    (bn): BatchNorm1d(128, eps=1e-05, momentum=0.1, affine=True)
  )
  (projector): Linear(in_features=128, out_features=2, bias=True)
)",AttentionedYoonKim,0.025,0.1,IMDB binary classification,298416
53,0.79436,0.9383111111111111,"MAX_WORD_LEN = 8, MAX_TEXT_LEN = 256",0.5,30,0.7999999999999999,0.9393356643356643,,0.001,"AttentionedYoonKimModel(
  (embedding): Linear(in_features=74, out_features=74, bias=True)
  (chars_cnn): Sequential(
    (0): Conv1d(74, 256, kernel_size=(5,), stride=(1,), padding=(2,))
    (1): ReLU()
    (2): MaxPool1d(kernel_size=8, stride=8, padding=0, dilation=1, ceil_mode=False)
  )
  (words_rnn): GRU(256, 128, dropout=0.5)
  (attention): MultiHeadAttention(
    (query_layer): Linear(in_features=128, out_features=128, bias=False)
    (key_layer): Linear(in_features=128, out_features=128, bias=False)
    (value_layer): Linear(in_features=128, out_features=128, bias=False)
    (bn): BatchNorm1d(128, eps=1e-05, momentum=0.1, affine=True)
  )
  (projector): Linear(in_features=128, out_features=2, bias=True)
)",AttentionedYoonKim,0.05,0.1,IMDB binary classification,298416
54,0.78936,0.9383111111111111,"MAX_WORD_LEN = 8, MAX_TEXT_LEN = 256",0.5,30,0.7953997979640999,0.9393356643356643,,0.001,"AttentionedYoonKimModel(
  (embedding): Linear(in_features=74, out_features=74, bias=True)
  (chars_cnn): Sequential(
    (0): Conv1d(74, 256, kernel_size=(5,), stride=(1,), padding=(2,))
    (1): ReLU()
    (2): MaxPool1d(kernel_size=8, stride=8, padding=0, dilation=1, ceil_mode=False)
  )
  (words_rnn): GRU(256, 128, dropout=0.5)
  (attention): MultiHeadAttention(
    (query_layer): Linear(in_features=128, out_features=128, bias=False)
    (key_layer): Linear(in_features=128, out_features=128, bias=False)
    (value_layer): Linear(in_features=128, out_features=128, bias=False)
    (bn): BatchNorm1d(128, eps=1e-05, momentum=0.1, affine=True)
  )
  (projector): Linear(in_features=128, out_features=2, bias=True)
)",AttentionedYoonKim,0.075,0.1,IMDB binary classification,298416
55,0.77968,0.9383111111111111,"MAX_WORD_LEN = 8, MAX_TEXT_LEN = 256",0.5,30,0.7865447217485662,0.9393356643356643,,0.001,"AttentionedYoonKimModel(
  (embedding): Linear(in_features=74, out_features=74, bias=True)
  (chars_cnn): Sequential(
    (0): Conv1d(74, 256, kernel_size=(5,), stride=(1,), padding=(2,))
    (1): ReLU()
    (2): MaxPool1d(kernel_size=8, stride=8, padding=0, dilation=1, ceil_mode=False)
  )
  (words_rnn): GRU(256, 128, dropout=0.5)
  (attention): MultiHeadAttention(
    (query_layer): Linear(in_features=128, out_features=128, bias=False)
    (key_layer): Linear(in_features=128, out_features=128, bias=False)
    (value_layer): Linear(in_features=128, out_features=128, bias=False)
    (bn): BatchNorm1d(128, eps=1e-05, momentum=0.1, affine=True)
  )
  (projector): Linear(in_features=128, out_features=2, bias=True)
)",AttentionedYoonKim,0.1,0.1,IMDB binary classification,298416
56,0.77112,0.9383111111111111,"MAX_WORD_LEN = 8, MAX_TEXT_LEN = 256",0.5,30,0.7777346177750156,0.9393356643356643,,0.001,"AttentionedYoonKimModel(
  (embedding): Linear(in_features=74, out_features=74, bias=True)
  (chars_cnn): Sequential(
    (0): Conv1d(74, 256, kernel_size=(5,), stride=(1,), padding=(2,))
    (1): ReLU()
    (2): MaxPool1d(kernel_size=8, stride=8, padding=0, dilation=1, ceil_mode=False)
  )
  (words_rnn): GRU(256, 128, dropout=0.5)
  (attention): MultiHeadAttention(
    (query_layer): Linear(in_features=128, out_features=128, bias=False)
    (key_layer): Linear(in_features=128, out_features=128, bias=False)
    (value_layer): Linear(in_features=128, out_features=128, bias=False)
    (bn): BatchNorm1d(128, eps=1e-05, momentum=0.1, affine=True)
  )
  (projector): Linear(in_features=128, out_features=2, bias=True)
)",AttentionedYoonKim,0.125,0.1,IMDB binary classification,298416
57,0.76056,0.9383111111111111,"MAX_WORD_LEN = 8, MAX_TEXT_LEN = 256",0.5,30,0.768755311751526,0.9393356643356643,,0.001,"AttentionedYoonKimModel(
  (embedding): Linear(in_features=74, out_features=74, bias=True)
  (chars_cnn): Sequential(
    (0): Conv1d(74, 256, kernel_size=(5,), stride=(1,), padding=(2,))
    (1): ReLU()
    (2): MaxPool1d(kernel_size=8, stride=8, padding=0, dilation=1, ceil_mode=False)
  )
  (words_rnn): GRU(256, 128, dropout=0.5)
  (attention): MultiHeadAttention(
    (query_layer): Linear(in_features=128, out_features=128, bias=False)
    (key_layer): Linear(in_features=128, out_features=128, bias=False)
    (value_layer): Linear(in_features=128, out_features=128, bias=False)
    (bn): BatchNorm1d(128, eps=1e-05, momentum=0.1, affine=True)
  )
  (projector): Linear(in_features=128, out_features=2, bias=True)
)",AttentionedYoonKim,0.15,0.1,IMDB binary classification,298416
58,0.74796,0.9383111111111111,"MAX_WORD_LEN = 8, MAX_TEXT_LEN = 256",0.5,30,0.7577004422226494,0.9393356643356643,,0.001,"AttentionedYoonKimModel(
  (embedding): Linear(in_features=74, out_features=74, bias=True)
  (chars_cnn): Sequential(
    (0): Conv1d(74, 256, kernel_size=(5,), stride=(1,), padding=(2,))
    (1): ReLU()
    (2): MaxPool1d(kernel_size=8, stride=8, padding=0, dilation=1, ceil_mode=False)
  )
  (words_rnn): GRU(256, 128, dropout=0.5)
  (attention): MultiHeadAttention(
    (query_layer): Linear(in_features=128, out_features=128, bias=False)
    (key_layer): Linear(in_features=128, out_features=128, bias=False)
    (value_layer): Linear(in_features=128, out_features=128, bias=False)
    (bn): BatchNorm1d(128, eps=1e-05, momentum=0.1, affine=True)
  )
  (projector): Linear(in_features=128, out_features=2, bias=True)
)",AttentionedYoonKim,0.175,0.1,IMDB binary classification,298416
59,0.73684,0.9383111111111111,"MAX_WORD_LEN = 8, MAX_TEXT_LEN = 256",0.5,30,0.7456801577177317,0.9393356643356643,,0.001,"AttentionedYoonKimModel(
  (embedding): Linear(in_features=74, out_features=74, bias=True)
  (chars_cnn): Sequential(
    (0): Conv1d(74, 256, kernel_size=(5,), stride=(1,), padding=(2,))
    (1): ReLU()
    (2): MaxPool1d(kernel_size=8, stride=8, padding=0, dilation=1, ceil_mode=False)
  )
  (words_rnn): GRU(256, 128, dropout=0.5)
  (attention): MultiHeadAttention(
    (query_layer): Linear(in_features=128, out_features=128, bias=False)
    (key_layer): Linear(in_features=128, out_features=128, bias=False)
    (value_layer): Linear(in_features=128, out_features=128, bias=False)
    (bn): BatchNorm1d(128, eps=1e-05, momentum=0.1, affine=True)
  )
  (projector): Linear(in_features=128, out_features=2, bias=True)
)",AttentionedYoonKim,0.2,0.1,IMDB binary classification,298416
60,0.79968,0.9115555555555556,"MAX_WORD_LEN = 8, MAX_TEXT_LEN = 256",0.5,30,0.8068348376147497,0.915304732720463,,0.001,"AttentionedYoonKimModel(
  (embedding): Linear(in_features=74, out_features=74, bias=True)
  (chars_cnn): Sequential(
    (0): Conv1d(74, 256, kernel_size=(5,), stride=(1,), padding=(2,))
    (1): ReLU()
    (2): MaxPool1d(kernel_size=8, stride=8, padding=0, dilation=1, ceil_mode=False)
  )
  (words_rnn): GRU(256, 128, dropout=0.5)
  (attention): MultiHeadAttention(
    (query_layer): Linear(in_features=128, out_features=128, bias=False)
    (key_layer): Linear(in_features=128, out_features=128, bias=False)
    (value_layer): Linear(in_features=128, out_features=128, bias=False)
    (bn): BatchNorm1d(128, eps=1e-05, momentum=0.1, affine=True)
  )
  (projector): Linear(in_features=128, out_features=2, bias=True)
)",AttentionedYoonKim,0.0,0.125,IMDB binary classification,298416
61,0.79824,0.9115555555555556,"MAX_WORD_LEN = 8, MAX_TEXT_LEN = 256",0.5,30,0.8056711357682232,0.915304732720463,,0.001,"AttentionedYoonKimModel(
  (embedding): Linear(in_features=74, out_features=74, bias=True)
  (chars_cnn): Sequential(
    (0): Conv1d(74, 256, kernel_size=(5,), stride=(1,), padding=(2,))
    (1): ReLU()
    (2): MaxPool1d(kernel_size=8, stride=8, padding=0, dilation=1, ceil_mode=False)
  )
  (words_rnn): GRU(256, 128, dropout=0.5)
  (attention): MultiHeadAttention(
    (query_layer): Linear(in_features=128, out_features=128, bias=False)
    (key_layer): Linear(in_features=128, out_features=128, bias=False)
    (value_layer): Linear(in_features=128, out_features=128, bias=False)
    (bn): BatchNorm1d(128, eps=1e-05, momentum=0.1, affine=True)
  )
  (projector): Linear(in_features=128, out_features=2, bias=True)
)",AttentionedYoonKim,0.01,0.125,IMDB binary classification,298416
62,0.79252,0.9115555555555556,"MAX_WORD_LEN = 8, MAX_TEXT_LEN = 256",0.5,30,0.8012567531323039,0.915304732720463,,0.001,"AttentionedYoonKimModel(
  (embedding): Linear(in_features=74, out_features=74, bias=True)
  (chars_cnn): Sequential(
    (0): Conv1d(74, 256, kernel_size=(5,), stride=(1,), padding=(2,))
    (1): ReLU()
    (2): MaxPool1d(kernel_size=8, stride=8, padding=0, dilation=1, ceil_mode=False)
  )
  (words_rnn): GRU(256, 128, dropout=0.5)
  (attention): MultiHeadAttention(
    (query_layer): Linear(in_features=128, out_features=128, bias=False)
    (key_layer): Linear(in_features=128, out_features=128, bias=False)
    (value_layer): Linear(in_features=128, out_features=128, bias=False)
    (bn): BatchNorm1d(128, eps=1e-05, momentum=0.1, affine=True)
  )
  (projector): Linear(in_features=128, out_features=2, bias=True)
)",AttentionedYoonKim,0.025,0.125,IMDB binary classification,298416
63,0.78796,0.9115555555555556,"MAX_WORD_LEN = 8, MAX_TEXT_LEN = 256",0.5,30,0.7978337973380116,0.915304732720463,,0.001,"AttentionedYoonKimModel(
  (embedding): Linear(in_features=74, out_features=74, bias=True)
  (chars_cnn): Sequential(
    (0): Conv1d(74, 256, kernel_size=(5,), stride=(1,), padding=(2,))
    (1): ReLU()
    (2): MaxPool1d(kernel_size=8, stride=8, padding=0, dilation=1, ceil_mode=False)
  )
  (words_rnn): GRU(256, 128, dropout=0.5)
  (attention): MultiHeadAttention(
    (query_layer): Linear(in_features=128, out_features=128, bias=False)
    (key_layer): Linear(in_features=128, out_features=128, bias=False)
    (value_layer): Linear(in_features=128, out_features=128, bias=False)
    (bn): BatchNorm1d(128, eps=1e-05, momentum=0.1, affine=True)
  )
  (projector): Linear(in_features=128, out_features=2, bias=True)
)",AttentionedYoonKim,0.05,0.125,IMDB binary classification,298416
64,0.77888,0.9115555555555556,"MAX_WORD_LEN = 8, MAX_TEXT_LEN = 256",0.5,30,0.7914906457453229,0.915304732720463,,0.001,"AttentionedYoonKimModel(
  (embedding): Linear(in_features=74, out_features=74, bias=True)
  (chars_cnn): Sequential(
    (0): Conv1d(74, 256, kernel_size=(5,), stride=(1,), padding=(2,))
    (1): ReLU()
    (2): MaxPool1d(kernel_size=8, stride=8, padding=0, dilation=1, ceil_mode=False)
  )
  (words_rnn): GRU(256, 128, dropout=0.5)
  (attention): MultiHeadAttention(
    (query_layer): Linear(in_features=128, out_features=128, bias=False)
    (key_layer): Linear(in_features=128, out_features=128, bias=False)
    (value_layer): Linear(in_features=128, out_features=128, bias=False)
    (bn): BatchNorm1d(128, eps=1e-05, momentum=0.1, affine=True)
  )
  (projector): Linear(in_features=128, out_features=2, bias=True)
)",AttentionedYoonKim,0.075,0.125,IMDB binary classification,298416
65,0.7662,0.9115555555555556,"MAX_WORD_LEN = 8, MAX_TEXT_LEN = 256",0.5,30,0.7808974022566255,0.915304732720463,,0.001,"AttentionedYoonKimModel(
  (embedding): Linear(in_features=74, out_features=74, bias=True)
  (chars_cnn): Sequential(
    (0): Conv1d(74, 256, kernel_size=(5,), stride=(1,), padding=(2,))
    (1): ReLU()
    (2): MaxPool1d(kernel_size=8, stride=8, padding=0, dilation=1, ceil_mode=False)
  )
  (words_rnn): GRU(256, 128, dropout=0.5)
  (attention): MultiHeadAttention(
    (query_layer): Linear(in_features=128, out_features=128, bias=False)
    (key_layer): Linear(in_features=128, out_features=128, bias=False)
    (value_layer): Linear(in_features=128, out_features=128, bias=False)
    (bn): BatchNorm1d(128, eps=1e-05, momentum=0.1, affine=True)
  )
  (projector): Linear(in_features=128, out_features=2, bias=True)
)",AttentionedYoonKim,0.1,0.125,IMDB binary classification,298416
66,0.76352,0.9115555555555556,"MAX_WORD_LEN = 8, MAX_TEXT_LEN = 256",0.5,30,0.779353586623871,0.915304732720463,,0.001,"AttentionedYoonKimModel(
  (embedding): Linear(in_features=74, out_features=74, bias=True)
  (chars_cnn): Sequential(
    (0): Conv1d(74, 256, kernel_size=(5,), stride=(1,), padding=(2,))
    (1): ReLU()
    (2): MaxPool1d(kernel_size=8, stride=8, padding=0, dilation=1, ceil_mode=False)
  )
  (words_rnn): GRU(256, 128, dropout=0.5)
  (attention): MultiHeadAttention(
    (query_layer): Linear(in_features=128, out_features=128, bias=False)
    (key_layer): Linear(in_features=128, out_features=128, bias=False)
    (value_layer): Linear(in_features=128, out_features=128, bias=False)
    (bn): BatchNorm1d(128, eps=1e-05, momentum=0.1, affine=True)
  )
  (projector): Linear(in_features=128, out_features=2, bias=True)
)",AttentionedYoonKim,0.125,0.125,IMDB binary classification,298416
67,0.75068,0.9115555555555556,"MAX_WORD_LEN = 8, MAX_TEXT_LEN = 256",0.5,30,0.7693104852141086,0.915304732720463,,0.001,"AttentionedYoonKimModel(
  (embedding): Linear(in_features=74, out_features=74, bias=True)
  (chars_cnn): Sequential(
    (0): Conv1d(74, 256, kernel_size=(5,), stride=(1,), padding=(2,))
    (1): ReLU()
    (2): MaxPool1d(kernel_size=8, stride=8, padding=0, dilation=1, ceil_mode=False)
  )
  (words_rnn): GRU(256, 128, dropout=0.5)
  (attention): MultiHeadAttention(
    (query_layer): Linear(in_features=128, out_features=128, bias=False)
    (key_layer): Linear(in_features=128, out_features=128, bias=False)
    (value_layer): Linear(in_features=128, out_features=128, bias=False)
    (bn): BatchNorm1d(128, eps=1e-05, momentum=0.1, affine=True)
  )
  (projector): Linear(in_features=128, out_features=2, bias=True)
)",AttentionedYoonKim,0.15,0.125,IMDB binary classification,298416
68,0.747,0.9115555555555556,"MAX_WORD_LEN = 8, MAX_TEXT_LEN = 256",0.5,30,0.7673349273496414,0.915304732720463,,0.001,"AttentionedYoonKimModel(
  (embedding): Linear(in_features=74, out_features=74, bias=True)
  (chars_cnn): Sequential(
    (0): Conv1d(74, 256, kernel_size=(5,), stride=(1,), padding=(2,))
    (1): ReLU()
    (2): MaxPool1d(kernel_size=8, stride=8, padding=0, dilation=1, ceil_mode=False)
  )
  (words_rnn): GRU(256, 128, dropout=0.5)
  (attention): MultiHeadAttention(
    (query_layer): Linear(in_features=128, out_features=128, bias=False)
    (key_layer): Linear(in_features=128, out_features=128, bias=False)
    (value_layer): Linear(in_features=128, out_features=128, bias=False)
    (bn): BatchNorm1d(128, eps=1e-05, momentum=0.1, affine=True)
  )
  (projector): Linear(in_features=128, out_features=2, bias=True)
)",AttentionedYoonKim,0.175,0.125,IMDB binary classification,298416
69,0.73212,0.9115555555555556,"MAX_WORD_LEN = 8, MAX_TEXT_LEN = 256",0.5,30,0.7560913428269658,0.915304732720463,,0.001,"AttentionedYoonKimModel(
  (embedding): Linear(in_features=74, out_features=74, bias=True)
  (chars_cnn): Sequential(
    (0): Conv1d(74, 256, kernel_size=(5,), stride=(1,), padding=(2,))
    (1): ReLU()
    (2): MaxPool1d(kernel_size=8, stride=8, padding=0, dilation=1, ceil_mode=False)
  )
  (words_rnn): GRU(256, 128, dropout=0.5)
  (attention): MultiHeadAttention(
    (query_layer): Linear(in_features=128, out_features=128, bias=False)
    (key_layer): Linear(in_features=128, out_features=128, bias=False)
    (value_layer): Linear(in_features=128, out_features=128, bias=False)
    (bn): BatchNorm1d(128, eps=1e-05, momentum=0.1, affine=True)
  )
  (projector): Linear(in_features=128, out_features=2, bias=True)
)",AttentionedYoonKim,0.2,0.125,IMDB binary classification,298416
70,0.77556,0.8955111111111111,"MAX_WORD_LEN = 8, MAX_TEXT_LEN = 256",0.5,30,0.7803140049332447,0.8988077303835063,,0.001,"AttentionedYoonKimModel(
  (embedding): Linear(in_features=74, out_features=74, bias=True)
  (chars_cnn): Sequential(
    (0): Conv1d(74, 256, kernel_size=(5,), stride=(1,), padding=(2,))
    (1): ReLU()
    (2): MaxPool1d(kernel_size=8, stride=8, padding=0, dilation=1, ceil_mode=False)
  )
  (words_rnn): GRU(256, 128, dropout=0.5)
  (attention): MultiHeadAttention(
    (query_layer): Linear(in_features=128, out_features=128, bias=False)
    (key_layer): Linear(in_features=128, out_features=128, bias=False)
    (value_layer): Linear(in_features=128, out_features=128, bias=False)
    (bn): BatchNorm1d(128, eps=1e-05, momentum=0.1, affine=True)
  )
  (projector): Linear(in_features=128, out_features=2, bias=True)
)",AttentionedYoonKim,0.0,0.15,IMDB binary classification,298416
71,0.77096,0.8955111111111111,"MAX_WORD_LEN = 8, MAX_TEXT_LEN = 256",0.5,30,0.7762756896147534,0.8988077303835063,,0.001,"AttentionedYoonKimModel(
  (embedding): Linear(in_features=74, out_features=74, bias=True)
  (chars_cnn): Sequential(
    (0): Conv1d(74, 256, kernel_size=(5,), stride=(1,), padding=(2,))
    (1): ReLU()
    (2): MaxPool1d(kernel_size=8, stride=8, padding=0, dilation=1, ceil_mode=False)
  )
  (words_rnn): GRU(256, 128, dropout=0.5)
  (attention): MultiHeadAttention(
    (query_layer): Linear(in_features=128, out_features=128, bias=False)
    (key_layer): Linear(in_features=128, out_features=128, bias=False)
    (value_layer): Linear(in_features=128, out_features=128, bias=False)
    (bn): BatchNorm1d(128, eps=1e-05, momentum=0.1, affine=True)
  )
  (projector): Linear(in_features=128, out_features=2, bias=True)
)",AttentionedYoonKim,0.01,0.15,IMDB binary classification,298416
72,0.76672,0.8955111111111111,"MAX_WORD_LEN = 8, MAX_TEXT_LEN = 256",0.5,30,0.7726493060969905,0.8988077303835063,,0.001,"AttentionedYoonKimModel(
  (embedding): Linear(in_features=74, out_features=74, bias=True)
  (chars_cnn): Sequential(
    (0): Conv1d(74, 256, kernel_size=(5,), stride=(1,), padding=(2,))
    (1): ReLU()
    (2): MaxPool1d(kernel_size=8, stride=8, padding=0, dilation=1, ceil_mode=False)
  )
  (words_rnn): GRU(256, 128, dropout=0.5)
  (attention): MultiHeadAttention(
    (query_layer): Linear(in_features=128, out_features=128, bias=False)
    (key_layer): Linear(in_features=128, out_features=128, bias=False)
    (value_layer): Linear(in_features=128, out_features=128, bias=False)
    (bn): BatchNorm1d(128, eps=1e-05, momentum=0.1, affine=True)
  )
  (projector): Linear(in_features=128, out_features=2, bias=True)
)",AttentionedYoonKim,0.025,0.15,IMDB binary classification,298416
73,0.75836,0.8955111111111111,"MAX_WORD_LEN = 8, MAX_TEXT_LEN = 256",0.5,30,0.765297797117215,0.8988077303835063,,0.001,"AttentionedYoonKimModel(
  (embedding): Linear(in_features=74, out_features=74, bias=True)
  (chars_cnn): Sequential(
    (0): Conv1d(74, 256, kernel_size=(5,), stride=(1,), padding=(2,))
    (1): ReLU()
    (2): MaxPool1d(kernel_size=8, stride=8, padding=0, dilation=1, ceil_mode=False)
  )
  (words_rnn): GRU(256, 128, dropout=0.5)
  (attention): MultiHeadAttention(
    (query_layer): Linear(in_features=128, out_features=128, bias=False)
    (key_layer): Linear(in_features=128, out_features=128, bias=False)
    (value_layer): Linear(in_features=128, out_features=128, bias=False)
    (bn): BatchNorm1d(128, eps=1e-05, momentum=0.1, affine=True)
  )
  (projector): Linear(in_features=128, out_features=2, bias=True)
)",AttentionedYoonKim,0.05,0.15,IMDB binary classification,298416
74,0.75024,0.8955111111111111,"MAX_WORD_LEN = 8, MAX_TEXT_LEN = 256",0.5,30,0.7587885343428881,0.8988077303835063,,0.001,"AttentionedYoonKimModel(
  (embedding): Linear(in_features=74, out_features=74, bias=True)
  (chars_cnn): Sequential(
    (0): Conv1d(74, 256, kernel_size=(5,), stride=(1,), padding=(2,))
    (1): ReLU()
    (2): MaxPool1d(kernel_size=8, stride=8, padding=0, dilation=1, ceil_mode=False)
  )
  (words_rnn): GRU(256, 128, dropout=0.5)
  (attention): MultiHeadAttention(
    (query_layer): Linear(in_features=128, out_features=128, bias=False)
    (key_layer): Linear(in_features=128, out_features=128, bias=False)
    (value_layer): Linear(in_features=128, out_features=128, bias=False)
    (bn): BatchNorm1d(128, eps=1e-05, momentum=0.1, affine=True)
  )
  (projector): Linear(in_features=128, out_features=2, bias=True)
)",AttentionedYoonKim,0.075,0.15,IMDB binary classification,298416
75,0.7414,0.8955111111111111,"MAX_WORD_LEN = 8, MAX_TEXT_LEN = 256",0.5,30,0.7506845088889745,0.8988077303835063,,0.001,"AttentionedYoonKimModel(
  (embedding): Linear(in_features=74, out_features=74, bias=True)
  (chars_cnn): Sequential(
    (0): Conv1d(74, 256, kernel_size=(5,), stride=(1,), padding=(2,))
    (1): ReLU()
    (2): MaxPool1d(kernel_size=8, stride=8, padding=0, dilation=1, ceil_mode=False)
  )
  (words_rnn): GRU(256, 128, dropout=0.5)
  (attention): MultiHeadAttention(
    (query_layer): Linear(in_features=128, out_features=128, bias=False)
    (key_layer): Linear(in_features=128, out_features=128, bias=False)
    (value_layer): Linear(in_features=128, out_features=128, bias=False)
    (bn): BatchNorm1d(128, eps=1e-05, momentum=0.1, affine=True)
  )
  (projector): Linear(in_features=128, out_features=2, bias=True)
)",AttentionedYoonKim,0.1,0.15,IMDB binary classification,298416
76,0.73292,0.8955111111111111,"MAX_WORD_LEN = 8, MAX_TEXT_LEN = 256",0.5,30,0.7437147353471769,0.8988077303835063,,0.001,"AttentionedYoonKimModel(
  (embedding): Linear(in_features=74, out_features=74, bias=True)
  (chars_cnn): Sequential(
    (0): Conv1d(74, 256, kernel_size=(5,), stride=(1,), padding=(2,))
    (1): ReLU()
    (2): MaxPool1d(kernel_size=8, stride=8, padding=0, dilation=1, ceil_mode=False)
  )
  (words_rnn): GRU(256, 128, dropout=0.5)
  (attention): MultiHeadAttention(
    (query_layer): Linear(in_features=128, out_features=128, bias=False)
    (key_layer): Linear(in_features=128, out_features=128, bias=False)
    (value_layer): Linear(in_features=128, out_features=128, bias=False)
    (bn): BatchNorm1d(128, eps=1e-05, momentum=0.1, affine=True)
  )
  (projector): Linear(in_features=128, out_features=2, bias=True)
)",AttentionedYoonKim,0.125,0.15,IMDB binary classification,298416
77,0.72096,0.8955111111111111,"MAX_WORD_LEN = 8, MAX_TEXT_LEN = 256",0.5,30,0.7325563563870572,0.8988077303835063,,0.001,"AttentionedYoonKimModel(
  (embedding): Linear(in_features=74, out_features=74, bias=True)
  (chars_cnn): Sequential(
    (0): Conv1d(74, 256, kernel_size=(5,), stride=(1,), padding=(2,))
    (1): ReLU()
    (2): MaxPool1d(kernel_size=8, stride=8, padding=0, dilation=1, ceil_mode=False)
  )
  (words_rnn): GRU(256, 128, dropout=0.5)
  (attention): MultiHeadAttention(
    (query_layer): Linear(in_features=128, out_features=128, bias=False)
    (key_layer): Linear(in_features=128, out_features=128, bias=False)
    (value_layer): Linear(in_features=128, out_features=128, bias=False)
    (bn): BatchNorm1d(128, eps=1e-05, momentum=0.1, affine=True)
  )
  (projector): Linear(in_features=128, out_features=2, bias=True)
)",AttentionedYoonKim,0.15,0.15,IMDB binary classification,298416
78,0.70848,0.8955111111111111,"MAX_WORD_LEN = 8, MAX_TEXT_LEN = 256",0.5,30,0.7217045975255842,0.8988077303835063,,0.001,"AttentionedYoonKimModel(
  (embedding): Linear(in_features=74, out_features=74, bias=True)
  (chars_cnn): Sequential(
    (0): Conv1d(74, 256, kernel_size=(5,), stride=(1,), padding=(2,))
    (1): ReLU()
    (2): MaxPool1d(kernel_size=8, stride=8, padding=0, dilation=1, ceil_mode=False)
  )
  (words_rnn): GRU(256, 128, dropout=0.5)
  (attention): MultiHeadAttention(
    (query_layer): Linear(in_features=128, out_features=128, bias=False)
    (key_layer): Linear(in_features=128, out_features=128, bias=False)
    (value_layer): Linear(in_features=128, out_features=128, bias=False)
    (bn): BatchNorm1d(128, eps=1e-05, momentum=0.1, affine=True)
  )
  (projector): Linear(in_features=128, out_features=2, bias=True)
)",AttentionedYoonKim,0.175,0.15,IMDB binary classification,298416
79,0.69564,0.8955111111111111,"MAX_WORD_LEN = 8, MAX_TEXT_LEN = 256",0.5,30,0.7103870894073765,0.8988077303835063,,0.001,"AttentionedYoonKimModel(
  (embedding): Linear(in_features=74, out_features=74, bias=True)
  (chars_cnn): Sequential(
    (0): Conv1d(74, 256, kernel_size=(5,), stride=(1,), padding=(2,))
    (1): ReLU()
    (2): MaxPool1d(kernel_size=8, stride=8, padding=0, dilation=1, ceil_mode=False)
  )
  (words_rnn): GRU(256, 128, dropout=0.5)
  (attention): MultiHeadAttention(
    (query_layer): Linear(in_features=128, out_features=128, bias=False)
    (key_layer): Linear(in_features=128, out_features=128, bias=False)
    (value_layer): Linear(in_features=128, out_features=128, bias=False)
    (bn): BatchNorm1d(128, eps=1e-05, momentum=0.1, affine=True)
  )
  (projector): Linear(in_features=128, out_features=2, bias=True)
)",AttentionedYoonKim,0.2,0.15,IMDB binary classification,298416
80,0.80028,0.8824888888888889,"MAX_WORD_LEN = 8, MAX_TEXT_LEN = 256",0.5,30,0.8047702834799608,0.8859558316080055,,0.001,"AttentionedYoonKimModel(
  (embedding): Linear(in_features=74, out_features=74, bias=True)
  (chars_cnn): Sequential(
    (0): Conv1d(74, 256, kernel_size=(5,), stride=(1,), padding=(2,))
    (1): ReLU()
    (2): MaxPool1d(kernel_size=8, stride=8, padding=0, dilation=1, ceil_mode=False)
  )
  (words_rnn): GRU(256, 128, dropout=0.5)
  (attention): MultiHeadAttention(
    (query_layer): Linear(in_features=128, out_features=128, bias=False)
    (key_layer): Linear(in_features=128, out_features=128, bias=False)
    (value_layer): Linear(in_features=128, out_features=128, bias=False)
    (bn): BatchNorm1d(128, eps=1e-05, momentum=0.1, affine=True)
  )
  (projector): Linear(in_features=128, out_features=2, bias=True)
)",AttentionedYoonKim,0.0,0.175,IMDB binary classification,298416
81,0.79528,0.8824888888888889,"MAX_WORD_LEN = 8, MAX_TEXT_LEN = 256",0.5,30,0.7997339176709971,0.8859558316080055,,0.001,"AttentionedYoonKimModel(
  (embedding): Linear(in_features=74, out_features=74, bias=True)
  (chars_cnn): Sequential(
    (0): Conv1d(74, 256, kernel_size=(5,), stride=(1,), padding=(2,))
    (1): ReLU()
    (2): MaxPool1d(kernel_size=8, stride=8, padding=0, dilation=1, ceil_mode=False)
  )
  (words_rnn): GRU(256, 128, dropout=0.5)
  (attention): MultiHeadAttention(
    (query_layer): Linear(in_features=128, out_features=128, bias=False)
    (key_layer): Linear(in_features=128, out_features=128, bias=False)
    (value_layer): Linear(in_features=128, out_features=128, bias=False)
    (bn): BatchNorm1d(128, eps=1e-05, momentum=0.1, affine=True)
  )
  (projector): Linear(in_features=128, out_features=2, bias=True)
)",AttentionedYoonKim,0.01,0.175,IMDB binary classification,298416
82,0.79076,0.8824888888888889,"MAX_WORD_LEN = 8, MAX_TEXT_LEN = 256",0.5,30,0.7958634146341463,0.8859558316080055,,0.001,"AttentionedYoonKimModel(
  (embedding): Linear(in_features=74, out_features=74, bias=True)
  (chars_cnn): Sequential(
    (0): Conv1d(74, 256, kernel_size=(5,), stride=(1,), padding=(2,))
    (1): ReLU()
    (2): MaxPool1d(kernel_size=8, stride=8, padding=0, dilation=1, ceil_mode=False)
  )
  (words_rnn): GRU(256, 128, dropout=0.5)
  (attention): MultiHeadAttention(
    (query_layer): Linear(in_features=128, out_features=128, bias=False)
    (key_layer): Linear(in_features=128, out_features=128, bias=False)
    (value_layer): Linear(in_features=128, out_features=128, bias=False)
    (bn): BatchNorm1d(128, eps=1e-05, momentum=0.1, affine=True)
  )
  (projector): Linear(in_features=128, out_features=2, bias=True)
)",AttentionedYoonKim,0.025,0.175,IMDB binary classification,298416
83,0.78156,0.8824888888888889,"MAX_WORD_LEN = 8, MAX_TEXT_LEN = 256",0.5,30,0.7873856336383103,0.8859558316080055,,0.001,"AttentionedYoonKimModel(
  (embedding): Linear(in_features=74, out_features=74, bias=True)
  (chars_cnn): Sequential(
    (0): Conv1d(74, 256, kernel_size=(5,), stride=(1,), padding=(2,))
    (1): ReLU()
    (2): MaxPool1d(kernel_size=8, stride=8, padding=0, dilation=1, ceil_mode=False)
  )
  (words_rnn): GRU(256, 128, dropout=0.5)
  (attention): MultiHeadAttention(
    (query_layer): Linear(in_features=128, out_features=128, bias=False)
    (key_layer): Linear(in_features=128, out_features=128, bias=False)
    (value_layer): Linear(in_features=128, out_features=128, bias=False)
    (bn): BatchNorm1d(128, eps=1e-05, momentum=0.1, affine=True)
  )
  (projector): Linear(in_features=128, out_features=2, bias=True)
)",AttentionedYoonKim,0.05,0.175,IMDB binary classification,298416
84,0.774,0.8824888888888889,"MAX_WORD_LEN = 8, MAX_TEXT_LEN = 256",0.5,30,0.7805825242718446,0.8859558316080055,,0.001,"AttentionedYoonKimModel(
  (embedding): Linear(in_features=74, out_features=74, bias=True)
  (chars_cnn): Sequential(
    (0): Conv1d(74, 256, kernel_size=(5,), stride=(1,), padding=(2,))
    (1): ReLU()
    (2): MaxPool1d(kernel_size=8, stride=8, padding=0, dilation=1, ceil_mode=False)
  )
  (words_rnn): GRU(256, 128, dropout=0.5)
  (attention): MultiHeadAttention(
    (query_layer): Linear(in_features=128, out_features=128, bias=False)
    (key_layer): Linear(in_features=128, out_features=128, bias=False)
    (value_layer): Linear(in_features=128, out_features=128, bias=False)
    (bn): BatchNorm1d(128, eps=1e-05, momentum=0.1, affine=True)
  )
  (projector): Linear(in_features=128, out_features=2, bias=True)
)",AttentionedYoonKim,0.075,0.175,IMDB binary classification,298416
85,0.76876,0.8824888888888889,"MAX_WORD_LEN = 8, MAX_TEXT_LEN = 256",0.5,30,0.7770106075216971,0.8859558316080055,,0.001,"AttentionedYoonKimModel(
  (embedding): Linear(in_features=74, out_features=74, bias=True)
  (chars_cnn): Sequential(
    (0): Conv1d(74, 256, kernel_size=(5,), stride=(1,), padding=(2,))
    (1): ReLU()
    (2): MaxPool1d(kernel_size=8, stride=8, padding=0, dilation=1, ceil_mode=False)
  )
  (words_rnn): GRU(256, 128, dropout=0.5)
  (attention): MultiHeadAttention(
    (query_layer): Linear(in_features=128, out_features=128, bias=False)
    (key_layer): Linear(in_features=128, out_features=128, bias=False)
    (value_layer): Linear(in_features=128, out_features=128, bias=False)
    (bn): BatchNorm1d(128, eps=1e-05, momentum=0.1, affine=True)
  )
  (projector): Linear(in_features=128, out_features=2, bias=True)
)",AttentionedYoonKim,0.1,0.175,IMDB binary classification,298416
86,0.7558,0.8824888888888889,"MAX_WORD_LEN = 8, MAX_TEXT_LEN = 256",0.5,30,0.764839567042872,0.8859558316080055,,0.001,"AttentionedYoonKimModel(
  (embedding): Linear(in_features=74, out_features=74, bias=True)
  (chars_cnn): Sequential(
    (0): Conv1d(74, 256, kernel_size=(5,), stride=(1,), padding=(2,))
    (1): ReLU()
    (2): MaxPool1d(kernel_size=8, stride=8, padding=0, dilation=1, ceil_mode=False)
  )
  (words_rnn): GRU(256, 128, dropout=0.5)
  (attention): MultiHeadAttention(
    (query_layer): Linear(in_features=128, out_features=128, bias=False)
    (key_layer): Linear(in_features=128, out_features=128, bias=False)
    (value_layer): Linear(in_features=128, out_features=128, bias=False)
    (bn): BatchNorm1d(128, eps=1e-05, momentum=0.1, affine=True)
  )
  (projector): Linear(in_features=128, out_features=2, bias=True)
)",AttentionedYoonKim,0.125,0.175,IMDB binary classification,298416
87,0.75148,0.8824888888888889,"MAX_WORD_LEN = 8, MAX_TEXT_LEN = 256",0.5,30,0.7618171362852213,0.8859558316080055,,0.001,"AttentionedYoonKimModel(
  (embedding): Linear(in_features=74, out_features=74, bias=True)
  (chars_cnn): Sequential(
    (0): Conv1d(74, 256, kernel_size=(5,), stride=(1,), padding=(2,))
    (1): ReLU()
    (2): MaxPool1d(kernel_size=8, stride=8, padding=0, dilation=1, ceil_mode=False)
  )
  (words_rnn): GRU(256, 128, dropout=0.5)
  (attention): MultiHeadAttention(
    (query_layer): Linear(in_features=128, out_features=128, bias=False)
    (key_layer): Linear(in_features=128, out_features=128, bias=False)
    (value_layer): Linear(in_features=128, out_features=128, bias=False)
    (bn): BatchNorm1d(128, eps=1e-05, momentum=0.1, affine=True)
  )
  (projector): Linear(in_features=128, out_features=2, bias=True)
)",AttentionedYoonKim,0.15,0.175,IMDB binary classification,298416
88,0.73616,0.8824888888888889,"MAX_WORD_LEN = 8, MAX_TEXT_LEN = 256",0.5,30,0.7483403281190386,0.8859558316080055,,0.001,"AttentionedYoonKimModel(
  (embedding): Linear(in_features=74, out_features=74, bias=True)
  (chars_cnn): Sequential(
    (0): Conv1d(74, 256, kernel_size=(5,), stride=(1,), padding=(2,))
    (1): ReLU()
    (2): MaxPool1d(kernel_size=8, stride=8, padding=0, dilation=1, ceil_mode=False)
  )
  (words_rnn): GRU(256, 128, dropout=0.5)
  (attention): MultiHeadAttention(
    (query_layer): Linear(in_features=128, out_features=128, bias=False)
    (key_layer): Linear(in_features=128, out_features=128, bias=False)
    (value_layer): Linear(in_features=128, out_features=128, bias=False)
    (bn): BatchNorm1d(128, eps=1e-05, momentum=0.1, affine=True)
  )
  (projector): Linear(in_features=128, out_features=2, bias=True)
)",AttentionedYoonKim,0.175,0.175,IMDB binary classification,298416
89,0.72604,0.8824888888888889,"MAX_WORD_LEN = 8, MAX_TEXT_LEN = 256",0.5,30,0.7404403683632091,0.8859558316080055,,0.001,"AttentionedYoonKimModel(
  (embedding): Linear(in_features=74, out_features=74, bias=True)
  (chars_cnn): Sequential(
    (0): Conv1d(74, 256, kernel_size=(5,), stride=(1,), padding=(2,))
    (1): ReLU()
    (2): MaxPool1d(kernel_size=8, stride=8, padding=0, dilation=1, ceil_mode=False)
  )
  (words_rnn): GRU(256, 128, dropout=0.5)
  (attention): MultiHeadAttention(
    (query_layer): Linear(in_features=128, out_features=128, bias=False)
    (key_layer): Linear(in_features=128, out_features=128, bias=False)
    (value_layer): Linear(in_features=128, out_features=128, bias=False)
    (bn): BatchNorm1d(128, eps=1e-05, momentum=0.1, affine=True)
  )
  (projector): Linear(in_features=128, out_features=2, bias=True)
)",AttentionedYoonKim,0.2,0.175,IMDB binary classification,298416
90,0.74896,0.8614222222222222,"MAX_WORD_LEN = 8, MAX_TEXT_LEN = 256",0.5,30,0.745168101348059,0.8621208101176262,,0.001,"AttentionedYoonKimModel(
  (embedding): Linear(in_features=74, out_features=74, bias=True)
  (chars_cnn): Sequential(
    (0): Conv1d(74, 256, kernel_size=(5,), stride=(1,), padding=(2,))
    (1): ReLU()
    (2): MaxPool1d(kernel_size=8, stride=8, padding=0, dilation=1, ceil_mode=False)
  )
  (words_rnn): GRU(256, 128, dropout=0.5)
  (attention): MultiHeadAttention(
    (query_layer): Linear(in_features=128, out_features=128, bias=False)
    (key_layer): Linear(in_features=128, out_features=128, bias=False)
    (value_layer): Linear(in_features=128, out_features=128, bias=False)
    (bn): BatchNorm1d(128, eps=1e-05, momentum=0.1, affine=True)
  )
  (projector): Linear(in_features=128, out_features=2, bias=True)
)",AttentionedYoonKim,0.0,0.2,IMDB binary classification,298416
91,0.74404,0.8614222222222222,"MAX_WORD_LEN = 8, MAX_TEXT_LEN = 256",0.5,30,0.7400365630712981,0.8621208101176262,,0.001,"AttentionedYoonKimModel(
  (embedding): Linear(in_features=74, out_features=74, bias=True)
  (chars_cnn): Sequential(
    (0): Conv1d(74, 256, kernel_size=(5,), stride=(1,), padding=(2,))
    (1): ReLU()
    (2): MaxPool1d(kernel_size=8, stride=8, padding=0, dilation=1, ceil_mode=False)
  )
  (words_rnn): GRU(256, 128, dropout=0.5)
  (attention): MultiHeadAttention(
    (query_layer): Linear(in_features=128, out_features=128, bias=False)
    (key_layer): Linear(in_features=128, out_features=128, bias=False)
    (value_layer): Linear(in_features=128, out_features=128, bias=False)
    (bn): BatchNorm1d(128, eps=1e-05, momentum=0.1, affine=True)
  )
  (projector): Linear(in_features=128, out_features=2, bias=True)
)",AttentionedYoonKim,0.01,0.2,IMDB binary classification,298416
92,0.7406,0.8614222222222222,"MAX_WORD_LEN = 8, MAX_TEXT_LEN = 256",0.5,30,0.7368207459112861,0.8621208101176262,,0.001,"AttentionedYoonKimModel(
  (embedding): Linear(in_features=74, out_features=74, bias=True)
  (chars_cnn): Sequential(
    (0): Conv1d(74, 256, kernel_size=(5,), stride=(1,), padding=(2,))
    (1): ReLU()
    (2): MaxPool1d(kernel_size=8, stride=8, padding=0, dilation=1, ceil_mode=False)
  )
  (words_rnn): GRU(256, 128, dropout=0.5)
  (attention): MultiHeadAttention(
    (query_layer): Linear(in_features=128, out_features=128, bias=False)
    (key_layer): Linear(in_features=128, out_features=128, bias=False)
    (value_layer): Linear(in_features=128, out_features=128, bias=False)
    (bn): BatchNorm1d(128, eps=1e-05, momentum=0.1, affine=True)
  )
  (projector): Linear(in_features=128, out_features=2, bias=True)
)",AttentionedYoonKim,0.025,0.2,IMDB binary classification,298416
93,0.73244,0.8614222222222222,"MAX_WORD_LEN = 8, MAX_TEXT_LEN = 256",0.5,30,0.7288719549268373,0.8621208101176262,,0.001,"AttentionedYoonKimModel(
  (embedding): Linear(in_features=74, out_features=74, bias=True)
  (chars_cnn): Sequential(
    (0): Conv1d(74, 256, kernel_size=(5,), stride=(1,), padding=(2,))
    (1): ReLU()
    (2): MaxPool1d(kernel_size=8, stride=8, padding=0, dilation=1, ceil_mode=False)
  )
  (words_rnn): GRU(256, 128, dropout=0.5)
  (attention): MultiHeadAttention(
    (query_layer): Linear(in_features=128, out_features=128, bias=False)
    (key_layer): Linear(in_features=128, out_features=128, bias=False)
    (value_layer): Linear(in_features=128, out_features=128, bias=False)
    (bn): BatchNorm1d(128, eps=1e-05, momentum=0.1, affine=True)
  )
  (projector): Linear(in_features=128, out_features=2, bias=True)
)",AttentionedYoonKim,0.05,0.2,IMDB binary classification,298416
94,0.72388,0.8614222222222222,"MAX_WORD_LEN = 8, MAX_TEXT_LEN = 256",0.5,30,0.7204017983717445,0.8621208101176262,,0.001,"AttentionedYoonKimModel(
  (embedding): Linear(in_features=74, out_features=74, bias=True)
  (chars_cnn): Sequential(
    (0): Conv1d(74, 256, kernel_size=(5,), stride=(1,), padding=(2,))
    (1): ReLU()
    (2): MaxPool1d(kernel_size=8, stride=8, padding=0, dilation=1, ceil_mode=False)
  )
  (words_rnn): GRU(256, 128, dropout=0.5)
  (attention): MultiHeadAttention(
    (query_layer): Linear(in_features=128, out_features=128, bias=False)
    (key_layer): Linear(in_features=128, out_features=128, bias=False)
    (value_layer): Linear(in_features=128, out_features=128, bias=False)
    (bn): BatchNorm1d(128, eps=1e-05, momentum=0.1, affine=True)
  )
  (projector): Linear(in_features=128, out_features=2, bias=True)
)",AttentionedYoonKim,0.075,0.2,IMDB binary classification,298416
95,0.71676,0.8614222222222222,"MAX_WORD_LEN = 8, MAX_TEXT_LEN = 256",0.5,30,0.7143721511838973,0.8621208101176262,,0.001,"AttentionedYoonKimModel(
  (embedding): Linear(in_features=74, out_features=74, bias=True)
  (chars_cnn): Sequential(
    (0): Conv1d(74, 256, kernel_size=(5,), stride=(1,), padding=(2,))
    (1): ReLU()
    (2): MaxPool1d(kernel_size=8, stride=8, padding=0, dilation=1, ceil_mode=False)
  )
  (words_rnn): GRU(256, 128, dropout=0.5)
  (attention): MultiHeadAttention(
    (query_layer): Linear(in_features=128, out_features=128, bias=False)
    (key_layer): Linear(in_features=128, out_features=128, bias=False)
    (value_layer): Linear(in_features=128, out_features=128, bias=False)
    (bn): BatchNorm1d(128, eps=1e-05, momentum=0.1, affine=True)
  )
  (projector): Linear(in_features=128, out_features=2, bias=True)
)",AttentionedYoonKim,0.1,0.2,IMDB binary classification,298416
96,0.70904,0.8614222222222222,"MAX_WORD_LEN = 8, MAX_TEXT_LEN = 256",0.5,30,0.7070951115406298,0.8621208101176262,,0.001,"AttentionedYoonKimModel(
  (embedding): Linear(in_features=74, out_features=74, bias=True)
  (chars_cnn): Sequential(
    (0): Conv1d(74, 256, kernel_size=(5,), stride=(1,), padding=(2,))
    (1): ReLU()
    (2): MaxPool1d(kernel_size=8, stride=8, padding=0, dilation=1, ceil_mode=False)
  )
  (words_rnn): GRU(256, 128, dropout=0.5)
  (attention): MultiHeadAttention(
    (query_layer): Linear(in_features=128, out_features=128, bias=False)
    (key_layer): Linear(in_features=128, out_features=128, bias=False)
    (value_layer): Linear(in_features=128, out_features=128, bias=False)
    (bn): BatchNorm1d(128, eps=1e-05, momentum=0.1, affine=True)
  )
  (projector): Linear(in_features=128, out_features=2, bias=True)
)",AttentionedYoonKim,0.125,0.2,IMDB binary classification,298416
97,0.70084,0.8614222222222222,"MAX_WORD_LEN = 8, MAX_TEXT_LEN = 256",0.5,30,0.6998916576381364,0.8621208101176262,,0.001,"AttentionedYoonKimModel(
  (embedding): Linear(in_features=74, out_features=74, bias=True)
  (chars_cnn): Sequential(
    (0): Conv1d(74, 256, kernel_size=(5,), stride=(1,), padding=(2,))
    (1): ReLU()
    (2): MaxPool1d(kernel_size=8, stride=8, padding=0, dilation=1, ceil_mode=False)
  )
  (words_rnn): GRU(256, 128, dropout=0.5)
  (attention): MultiHeadAttention(
    (query_layer): Linear(in_features=128, out_features=128, bias=False)
    (key_layer): Linear(in_features=128, out_features=128, bias=False)
    (value_layer): Linear(in_features=128, out_features=128, bias=False)
    (bn): BatchNorm1d(128, eps=1e-05, momentum=0.1, affine=True)
  )
  (projector): Linear(in_features=128, out_features=2, bias=True)
)",AttentionedYoonKim,0.15,0.2,IMDB binary classification,298416
98,0.69236,0.8614222222222222,"MAX_WORD_LEN = 8, MAX_TEXT_LEN = 256",0.5,30,0.6914838140318506,0.8621208101176262,,0.001,"AttentionedYoonKimModel(
  (embedding): Linear(in_features=74, out_features=74, bias=True)
  (chars_cnn): Sequential(
    (0): Conv1d(74, 256, kernel_size=(5,), stride=(1,), padding=(2,))
    (1): ReLU()
    (2): MaxPool1d(kernel_size=8, stride=8, padding=0, dilation=1, ceil_mode=False)
  )
  (words_rnn): GRU(256, 128, dropout=0.5)
  (attention): MultiHeadAttention(
    (query_layer): Linear(in_features=128, out_features=128, bias=False)
    (key_layer): Linear(in_features=128, out_features=128, bias=False)
    (value_layer): Linear(in_features=128, out_features=128, bias=False)
    (bn): BatchNorm1d(128, eps=1e-05, momentum=0.1, affine=True)
  )
  (projector): Linear(in_features=128, out_features=2, bias=True)
)",AttentionedYoonKim,0.175,0.2,IMDB binary classification,298416
99,0.68088,0.8614222222222222,"MAX_WORD_LEN = 8, MAX_TEXT_LEN = 256",0.5,30,0.6805989270558092,0.8621208101176262,,0.001,"AttentionedYoonKimModel(
  (embedding): Linear(in_features=74, out_features=74, bias=True)
  (chars_cnn): Sequential(
    (0): Conv1d(74, 256, kernel_size=(5,), stride=(1,), padding=(2,))
    (1): ReLU()
    (2): MaxPool1d(kernel_size=8, stride=8, padding=0, dilation=1, ceil_mode=False)
  )
  (words_rnn): GRU(256, 128, dropout=0.5)
  (attention): MultiHeadAttention(
    (query_layer): Linear(in_features=128, out_features=128, bias=False)
    (key_layer): Linear(in_features=128, out_features=128, bias=False)
    (value_layer): Linear(in_features=128, out_features=128, bias=False)
    (bn): BatchNorm1d(128, eps=1e-05, momentum=0.1, affine=True)
  )
  (projector): Linear(in_features=128, out_features=2, bias=True)
)",AttentionedYoonKim,0.2,0.2,IMDB binary classification,298416
100,0.79164,0.9933777777777778,"MAX_WORD_LEN = 8, MAX_TEXT_LEN = 256",0.5,30,0.7936784568463578,0.9934079546962793,,0.001,"AttentionedYoonKimModel(
  (embedding): Linear(in_features=74, out_features=74, bias=True)
  (chars_cnn): Sequential(
    (0): Conv1d(74, 256, kernel_size=(5,), stride=(1,), padding=(2,))
    (1): ReLU()
    (2): MaxPool1d(kernel_size=8, stride=8, padding=0, dilation=1, ceil_mode=False)
  )
  (words_rnn): GRU(256, 128, dropout=0.5)
  (attention): MultiHeadAttention(
    (query_layer): Linear(in_features=128, out_features=128, bias=False)
    (key_layer): Linear(in_features=128, out_features=128, bias=False)
    (value_layer): Linear(in_features=128, out_features=128, bias=False)
    (bn): BatchNorm1d(128, eps=1e-05, momentum=0.1, affine=True)
  )
  (projector): Linear(in_features=128, out_features=2, bias=True)
)",AttentionedYoonKim,0.0,0.0,IMDB binary classification,298416
101,0.77896,0.9933777777777778,"MAX_WORD_LEN = 8, MAX_TEXT_LEN = 256",0.5,30,0.7814255201329009,0.9934079546962793,,0.001,"AttentionedYoonKimModel(
  (embedding): Linear(in_features=74, out_features=74, bias=True)
  (chars_cnn): Sequential(
    (0): Conv1d(74, 256, kernel_size=(5,), stride=(1,), padding=(2,))
    (1): ReLU()
    (2): MaxPool1d(kernel_size=8, stride=8, padding=0, dilation=1, ceil_mode=False)
  )
  (words_rnn): GRU(256, 128, dropout=0.5)
  (attention): MultiHeadAttention(
    (query_layer): Linear(in_features=128, out_features=128, bias=False)
    (key_layer): Linear(in_features=128, out_features=128, bias=False)
    (value_layer): Linear(in_features=128, out_features=128, bias=False)
    (bn): BatchNorm1d(128, eps=1e-05, momentum=0.1, affine=True)
  )
  (projector): Linear(in_features=128, out_features=2, bias=True)
)",AttentionedYoonKim,0.01,0.0,IMDB binary classification,298416
102,0.76564,0.9933777777777778,"MAX_WORD_LEN = 8, MAX_TEXT_LEN = 256",0.5,30,0.7678592654225603,0.9934079546962793,,0.001,"AttentionedYoonKimModel(
  (embedding): Linear(in_features=74, out_features=74, bias=True)
  (chars_cnn): Sequential(
    (0): Conv1d(74, 256, kernel_size=(5,), stride=(1,), padding=(2,))
    (1): ReLU()
    (2): MaxPool1d(kernel_size=8, stride=8, padding=0, dilation=1, ceil_mode=False)
  )
  (words_rnn): GRU(256, 128, dropout=0.5)
  (attention): MultiHeadAttention(
    (query_layer): Linear(in_features=128, out_features=128, bias=False)
    (key_layer): Linear(in_features=128, out_features=128, bias=False)
    (value_layer): Linear(in_features=128, out_features=128, bias=False)
    (bn): BatchNorm1d(128, eps=1e-05, momentum=0.1, affine=True)
  )
  (projector): Linear(in_features=128, out_features=2, bias=True)
)",AttentionedYoonKim,0.025,0.0,IMDB binary classification,298416
103,0.73512,0.9933777777777778,"MAX_WORD_LEN = 8, MAX_TEXT_LEN = 256",0.5,30,0.7362803663878933,0.9934079546962793,,0.001,"AttentionedYoonKimModel(
  (embedding): Linear(in_features=74, out_features=74, bias=True)
  (chars_cnn): Sequential(
    (0): Conv1d(74, 256, kernel_size=(5,), stride=(1,), padding=(2,))
    (1): ReLU()
    (2): MaxPool1d(kernel_size=8, stride=8, padding=0, dilation=1, ceil_mode=False)
  )
  (words_rnn): GRU(256, 128, dropout=0.5)
  (attention): MultiHeadAttention(
    (query_layer): Linear(in_features=128, out_features=128, bias=False)
    (key_layer): Linear(in_features=128, out_features=128, bias=False)
    (value_layer): Linear(in_features=128, out_features=128, bias=False)
    (bn): BatchNorm1d(128, eps=1e-05, momentum=0.1, affine=True)
  )
  (projector): Linear(in_features=128, out_features=2, bias=True)
)",AttentionedYoonKim,0.05,0.0,IMDB binary classification,298416
104,0.70984,0.9933777777777778,"MAX_WORD_LEN = 8, MAX_TEXT_LEN = 256",0.5,30,0.7106501794974073,0.9934079546962793,,0.001,"AttentionedYoonKimModel(
  (embedding): Linear(in_features=74, out_features=74, bias=True)
  (chars_cnn): Sequential(
    (0): Conv1d(74, 256, kernel_size=(5,), stride=(1,), padding=(2,))
    (1): ReLU()
    (2): MaxPool1d(kernel_size=8, stride=8, padding=0, dilation=1, ceil_mode=False)
  )
  (words_rnn): GRU(256, 128, dropout=0.5)
  (attention): MultiHeadAttention(
    (query_layer): Linear(in_features=128, out_features=128, bias=False)
    (key_layer): Linear(in_features=128, out_features=128, bias=False)
    (value_layer): Linear(in_features=128, out_features=128, bias=False)
    (bn): BatchNorm1d(128, eps=1e-05, momentum=0.1, affine=True)
  )
  (projector): Linear(in_features=128, out_features=2, bias=True)
)",AttentionedYoonKim,0.075,0.0,IMDB binary classification,298416
105,0.68508,0.9933777777777778,"MAX_WORD_LEN = 8, MAX_TEXT_LEN = 256",0.5,30,0.6844615446274699,0.9934079546962793,,0.001,"AttentionedYoonKimModel(
  (embedding): Linear(in_features=74, out_features=74, bias=True)
  (chars_cnn): Sequential(
    (0): Conv1d(74, 256, kernel_size=(5,), stride=(1,), padding=(2,))
    (1): ReLU()
    (2): MaxPool1d(kernel_size=8, stride=8, padding=0, dilation=1, ceil_mode=False)
  )
  (words_rnn): GRU(256, 128, dropout=0.5)
  (attention): MultiHeadAttention(
    (query_layer): Linear(in_features=128, out_features=128, bias=False)
    (key_layer): Linear(in_features=128, out_features=128, bias=False)
    (value_layer): Linear(in_features=128, out_features=128, bias=False)
    (bn): BatchNorm1d(128, eps=1e-05, momentum=0.1, affine=True)
  )
  (projector): Linear(in_features=128, out_features=2, bias=True)
)",AttentionedYoonKim,0.1,0.0,IMDB binary classification,298416
106,0.65912,0.9933777777777778,"MAX_WORD_LEN = 8, MAX_TEXT_LEN = 256",0.5,30,0.6558714262639316,0.9934079546962793,,0.001,"AttentionedYoonKimModel(
  (embedding): Linear(in_features=74, out_features=74, bias=True)
  (chars_cnn): Sequential(
    (0): Conv1d(74, 256, kernel_size=(5,), stride=(1,), padding=(2,))
    (1): ReLU()
    (2): MaxPool1d(kernel_size=8, stride=8, padding=0, dilation=1, ceil_mode=False)
  )
  (words_rnn): GRU(256, 128, dropout=0.5)
  (attention): MultiHeadAttention(
    (query_layer): Linear(in_features=128, out_features=128, bias=False)
    (key_layer): Linear(in_features=128, out_features=128, bias=False)
    (value_layer): Linear(in_features=128, out_features=128, bias=False)
    (bn): BatchNorm1d(128, eps=1e-05, momentum=0.1, affine=True)
  )
  (projector): Linear(in_features=128, out_features=2, bias=True)
)",AttentionedYoonKim,0.125,0.0,IMDB binary classification,298416
107,0.64184,0.9933777777777778,"MAX_WORD_LEN = 8, MAX_TEXT_LEN = 256",0.5,30,0.6375779162956366,0.9934079546962793,,0.001,"AttentionedYoonKimModel(
  (embedding): Linear(in_features=74, out_features=74, bias=True)
  (chars_cnn): Sequential(
    (0): Conv1d(74, 256, kernel_size=(5,), stride=(1,), padding=(2,))
    (1): ReLU()
    (2): MaxPool1d(kernel_size=8, stride=8, padding=0, dilation=1, ceil_mode=False)
  )
  (words_rnn): GRU(256, 128, dropout=0.5)
  (attention): MultiHeadAttention(
    (query_layer): Linear(in_features=128, out_features=128, bias=False)
    (key_layer): Linear(in_features=128, out_features=128, bias=False)
    (value_layer): Linear(in_features=128, out_features=128, bias=False)
    (bn): BatchNorm1d(128, eps=1e-05, momentum=0.1, affine=True)
  )
  (projector): Linear(in_features=128, out_features=2, bias=True)
)",AttentionedYoonKim,0.15,0.0,IMDB binary classification,298416
108,0.61592,0.9933777777777778,"MAX_WORD_LEN = 8, MAX_TEXT_LEN = 256",0.5,30,0.6088479713214925,0.9934079546962793,,0.001,"AttentionedYoonKimModel(
  (embedding): Linear(in_features=74, out_features=74, bias=True)
  (chars_cnn): Sequential(
    (0): Conv1d(74, 256, kernel_size=(5,), stride=(1,), padding=(2,))
    (1): ReLU()
    (2): MaxPool1d(kernel_size=8, stride=8, padding=0, dilation=1, ceil_mode=False)
  )
  (words_rnn): GRU(256, 128, dropout=0.5)
  (attention): MultiHeadAttention(
    (query_layer): Linear(in_features=128, out_features=128, bias=False)
    (key_layer): Linear(in_features=128, out_features=128, bias=False)
    (value_layer): Linear(in_features=128, out_features=128, bias=False)
    (bn): BatchNorm1d(128, eps=1e-05, momentum=0.1, affine=True)
  )
  (projector): Linear(in_features=128, out_features=2, bias=True)
)",AttentionedYoonKim,0.175,0.0,IMDB binary classification,298416
109,0.60228,0.9933777777777778,"MAX_WORD_LEN = 8, MAX_TEXT_LEN = 256",0.5,30,0.5932168719060672,0.9934079546962793,,0.001,"AttentionedYoonKimModel(
  (embedding): Linear(in_features=74, out_features=74, bias=True)
  (chars_cnn): Sequential(
    (0): Conv1d(74, 256, kernel_size=(5,), stride=(1,), padding=(2,))
    (1): ReLU()
    (2): MaxPool1d(kernel_size=8, stride=8, padding=0, dilation=1, ceil_mode=False)
  )
  (words_rnn): GRU(256, 128, dropout=0.5)
  (attention): MultiHeadAttention(
    (query_layer): Linear(in_features=128, out_features=128, bias=False)
    (key_layer): Linear(in_features=128, out_features=128, bias=False)
    (value_layer): Linear(in_features=128, out_features=128, bias=False)
    (bn): BatchNorm1d(128, eps=1e-05, momentum=0.1, affine=True)
  )
  (projector): Linear(in_features=128, out_features=2, bias=True)
)",AttentionedYoonKim,0.2,0.0,IMDB binary classification,298416
110,0.71632,0.9877777777777778,"MAX_WORD_LEN = 8, MAX_TEXT_LEN = 256",0.5,30,0.7161837682087403,0.9878216199459723,,0.001,"AttentionedYoonKimModel(
  (embedding): Linear(in_features=74, out_features=74, bias=True)
  (chars_cnn): Sequential(
    (0): Conv1d(74, 256, kernel_size=(5,), stride=(1,), padding=(2,))
    (1): ReLU()
    (2): MaxPool1d(kernel_size=8, stride=8, padding=0, dilation=1, ceil_mode=False)
  )
  (words_rnn): GRU(256, 128, dropout=0.5)
  (attention): MultiHeadAttention(
    (query_layer): Linear(in_features=128, out_features=128, bias=False)
    (key_layer): Linear(in_features=128, out_features=128, bias=False)
    (value_layer): Linear(in_features=128, out_features=128, bias=False)
    (bn): BatchNorm1d(128, eps=1e-05, momentum=0.1, affine=True)
  )
  (projector): Linear(in_features=128, out_features=2, bias=True)
)",AttentionedYoonKim,0.0,0.01,IMDB binary classification,298416
111,0.704,0.9877777777777778,"MAX_WORD_LEN = 8, MAX_TEXT_LEN = 256",0.5,30,0.7037392905757066,0.9878216199459723,,0.001,"AttentionedYoonKimModel(
  (embedding): Linear(in_features=74, out_features=74, bias=True)
  (chars_cnn): Sequential(
    (0): Conv1d(74, 256, kernel_size=(5,), stride=(1,), padding=(2,))
    (1): ReLU()
    (2): MaxPool1d(kernel_size=8, stride=8, padding=0, dilation=1, ceil_mode=False)
  )
  (words_rnn): GRU(256, 128, dropout=0.5)
  (attention): MultiHeadAttention(
    (query_layer): Linear(in_features=128, out_features=128, bias=False)
    (key_layer): Linear(in_features=128, out_features=128, bias=False)
    (value_layer): Linear(in_features=128, out_features=128, bias=False)
    (bn): BatchNorm1d(128, eps=1e-05, momentum=0.1, affine=True)
  )
  (projector): Linear(in_features=128, out_features=2, bias=True)
)",AttentionedYoonKim,0.01,0.01,IMDB binary classification,298416
112,0.69572,0.9877777777777778,"MAX_WORD_LEN = 8, MAX_TEXT_LEN = 256",0.5,30,0.6958051745511257,0.9878216199459723,,0.001,"AttentionedYoonKimModel(
  (embedding): Linear(in_features=74, out_features=74, bias=True)
  (chars_cnn): Sequential(
    (0): Conv1d(74, 256, kernel_size=(5,), stride=(1,), padding=(2,))
    (1): ReLU()
    (2): MaxPool1d(kernel_size=8, stride=8, padding=0, dilation=1, ceil_mode=False)
  )
  (words_rnn): GRU(256, 128, dropout=0.5)
  (attention): MultiHeadAttention(
    (query_layer): Linear(in_features=128, out_features=128, bias=False)
    (key_layer): Linear(in_features=128, out_features=128, bias=False)
    (value_layer): Linear(in_features=128, out_features=128, bias=False)
    (bn): BatchNorm1d(128, eps=1e-05, momentum=0.1, affine=True)
  )
  (projector): Linear(in_features=128, out_features=2, bias=True)
)",AttentionedYoonKim,0.025,0.01,IMDB binary classification,298416
113,0.67316,0.9877777777777778,"MAX_WORD_LEN = 8, MAX_TEXT_LEN = 256",0.5,30,0.6732514895829168,0.9878216199459723,,0.001,"AttentionedYoonKimModel(
  (embedding): Linear(in_features=74, out_features=74, bias=True)
  (chars_cnn): Sequential(
    (0): Conv1d(74, 256, kernel_size=(5,), stride=(1,), padding=(2,))
    (1): ReLU()
    (2): MaxPool1d(kernel_size=8, stride=8, padding=0, dilation=1, ceil_mode=False)
  )
  (words_rnn): GRU(256, 128, dropout=0.5)
  (attention): MultiHeadAttention(
    (query_layer): Linear(in_features=128, out_features=128, bias=False)
    (key_layer): Linear(in_features=128, out_features=128, bias=False)
    (value_layer): Linear(in_features=128, out_features=128, bias=False)
    (bn): BatchNorm1d(128, eps=1e-05, momentum=0.1, affine=True)
  )
  (projector): Linear(in_features=128, out_features=2, bias=True)
)",AttentionedYoonKim,0.05,0.01,IMDB binary classification,298416
114,0.6546,0.9877777777777778,"MAX_WORD_LEN = 8, MAX_TEXT_LEN = 256",0.5,30,0.6540603341212291,0.9878216199459723,,0.001,"AttentionedYoonKimModel(
  (embedding): Linear(in_features=74, out_features=74, bias=True)
  (chars_cnn): Sequential(
    (0): Conv1d(74, 256, kernel_size=(5,), stride=(1,), padding=(2,))
    (1): ReLU()
    (2): MaxPool1d(kernel_size=8, stride=8, padding=0, dilation=1, ceil_mode=False)
  )
  (words_rnn): GRU(256, 128, dropout=0.5)
  (attention): MultiHeadAttention(
    (query_layer): Linear(in_features=128, out_features=128, bias=False)
    (key_layer): Linear(in_features=128, out_features=128, bias=False)
    (value_layer): Linear(in_features=128, out_features=128, bias=False)
    (bn): BatchNorm1d(128, eps=1e-05, momentum=0.1, affine=True)
  )
  (projector): Linear(in_features=128, out_features=2, bias=True)
)",AttentionedYoonKim,0.075,0.01,IMDB binary classification,298416
115,0.6378,0.9877777777777778,"MAX_WORD_LEN = 8, MAX_TEXT_LEN = 256",0.5,30,0.6387392778775185,0.9878216199459723,,0.001,"AttentionedYoonKimModel(
  (embedding): Linear(in_features=74, out_features=74, bias=True)
  (chars_cnn): Sequential(
    (0): Conv1d(74, 256, kernel_size=(5,), stride=(1,), padding=(2,))
    (1): ReLU()
    (2): MaxPool1d(kernel_size=8, stride=8, padding=0, dilation=1, ceil_mode=False)
  )
  (words_rnn): GRU(256, 128, dropout=0.5)
  (attention): MultiHeadAttention(
    (query_layer): Linear(in_features=128, out_features=128, bias=False)
    (key_layer): Linear(in_features=128, out_features=128, bias=False)
    (value_layer): Linear(in_features=128, out_features=128, bias=False)
    (bn): BatchNorm1d(128, eps=1e-05, momentum=0.1, affine=True)
  )
  (projector): Linear(in_features=128, out_features=2, bias=True)
)",AttentionedYoonKim,0.1,0.01,IMDB binary classification,298416
116,0.61544,0.9877777777777778,"MAX_WORD_LEN = 8, MAX_TEXT_LEN = 256",0.5,30,0.6168194499800717,0.9878216199459723,,0.001,"AttentionedYoonKimModel(
  (embedding): Linear(in_features=74, out_features=74, bias=True)
  (chars_cnn): Sequential(
    (0): Conv1d(74, 256, kernel_size=(5,), stride=(1,), padding=(2,))
    (1): ReLU()
    (2): MaxPool1d(kernel_size=8, stride=8, padding=0, dilation=1, ceil_mode=False)
  )
  (words_rnn): GRU(256, 128, dropout=0.5)
  (attention): MultiHeadAttention(
    (query_layer): Linear(in_features=128, out_features=128, bias=False)
    (key_layer): Linear(in_features=128, out_features=128, bias=False)
    (value_layer): Linear(in_features=128, out_features=128, bias=False)
    (bn): BatchNorm1d(128, eps=1e-05, momentum=0.1, affine=True)
  )
  (projector): Linear(in_features=128, out_features=2, bias=True)
)",AttentionedYoonKim,0.125,0.01,IMDB binary classification,298416
117,0.603,0.9877777777777778,"MAX_WORD_LEN = 8, MAX_TEXT_LEN = 256",0.5,30,0.6030158793648254,0.9878216199459723,,0.001,"AttentionedYoonKimModel(
  (embedding): Linear(in_features=74, out_features=74, bias=True)
  (chars_cnn): Sequential(
    (0): Conv1d(74, 256, kernel_size=(5,), stride=(1,), padding=(2,))
    (1): ReLU()
    (2): MaxPool1d(kernel_size=8, stride=8, padding=0, dilation=1, ceil_mode=False)
  )
  (words_rnn): GRU(256, 128, dropout=0.5)
  (attention): MultiHeadAttention(
    (query_layer): Linear(in_features=128, out_features=128, bias=False)
    (key_layer): Linear(in_features=128, out_features=128, bias=False)
    (value_layer): Linear(in_features=128, out_features=128, bias=False)
    (bn): BatchNorm1d(128, eps=1e-05, momentum=0.1, affine=True)
  )
  (projector): Linear(in_features=128, out_features=2, bias=True)
)",AttentionedYoonKim,0.15,0.01,IMDB binary classification,298416
118,0.58792,0.9877777777777778,"MAX_WORD_LEN = 8, MAX_TEXT_LEN = 256",0.5,30,0.5900843546076714,0.9878216199459723,,0.001,"AttentionedYoonKimModel(
  (embedding): Linear(in_features=74, out_features=74, bias=True)
  (chars_cnn): Sequential(
    (0): Conv1d(74, 256, kernel_size=(5,), stride=(1,), padding=(2,))
    (1): ReLU()
    (2): MaxPool1d(kernel_size=8, stride=8, padding=0, dilation=1, ceil_mode=False)
  )
  (words_rnn): GRU(256, 128, dropout=0.5)
  (attention): MultiHeadAttention(
    (query_layer): Linear(in_features=128, out_features=128, bias=False)
    (key_layer): Linear(in_features=128, out_features=128, bias=False)
    (value_layer): Linear(in_features=128, out_features=128, bias=False)
    (bn): BatchNorm1d(128, eps=1e-05, momentum=0.1, affine=True)
  )
  (projector): Linear(in_features=128, out_features=2, bias=True)
)",AttentionedYoonKim,0.175,0.01,IMDB binary classification,298416
119,0.57824,0.9877777777777778,"MAX_WORD_LEN = 8, MAX_TEXT_LEN = 256",0.5,30,0.5816205063090231,0.9878216199459723,,0.001,"AttentionedYoonKimModel(
  (embedding): Linear(in_features=74, out_features=74, bias=True)
  (chars_cnn): Sequential(
    (0): Conv1d(74, 256, kernel_size=(5,), stride=(1,), padding=(2,))
    (1): ReLU()
    (2): MaxPool1d(kernel_size=8, stride=8, padding=0, dilation=1, ceil_mode=False)
  )
  (words_rnn): GRU(256, 128, dropout=0.5)
  (attention): MultiHeadAttention(
    (query_layer): Linear(in_features=128, out_features=128, bias=False)
    (key_layer): Linear(in_features=128, out_features=128, bias=False)
    (value_layer): Linear(in_features=128, out_features=128, bias=False)
    (bn): BatchNorm1d(128, eps=1e-05, momentum=0.1, affine=True)
  )
  (projector): Linear(in_features=128, out_features=2, bias=True)
)",AttentionedYoonKim,0.2,0.01,IMDB binary classification,298416
