,acc_test,acc_train,data_desc,dropout,epochs,f1_test,f1_train,init_function,lr,model_desc,model_type,noise_level_test,noise_level_train,run_name,task,trainable_params
0,0.64656,0.9831058823529412,"MaxWordLen 8, MaxTexLen 32",0.5,30,0.6534358330718544,0.9832046783625731,,0.001,"AttentionedYoonKimModel(
  (embedding): Linear(in_features=74, out_features=74, bias=True)
  (chars_cnn): Sequential(
    (0): Conv1d(74, 256, kernel_size=(5,), stride=(1,), padding=(2,))
    (1): ReLU()
    (2): MaxPool1d(kernel_size=8, stride=8, padding=0, dilation=1, ceil_mode=False)
  )
  (words_rnn): GRU(256, 128, dropout=0.5)
  (attention): MultiHeadAttention(
    (query_layer): Linear(in_features=128, out_features=128, bias=False)
    (key_layer): Linear(in_features=128, out_features=128, bias=False)
    (value_layer): Linear(in_features=128, out_features=128, bias=False)
    (bn): BatchNorm1d(128, eps=1e-05, momentum=0.1, affine=True)
  )
  (projector): Linear(in_features=128, out_features=2, bias=True)
)",charCNN,0.0,0.0,runs/May15_13-55-28_phobos-aijun_AttentionedYoonKim_lr3_dropout0.5_noise_level0_spacy_wordlen8_heads1_IMDB,IMDB binary classification,298416
1,0.642,0.9831058823529412,"MaxWordLen 8, MaxTexLen 32",0.5,30,0.6488819144762653,0.9832046783625731,,0.001,"AttentionedYoonKimModel(
  (embedding): Linear(in_features=74, out_features=74, bias=True)
  (chars_cnn): Sequential(
    (0): Conv1d(74, 256, kernel_size=(5,), stride=(1,), padding=(2,))
    (1): ReLU()
    (2): MaxPool1d(kernel_size=8, stride=8, padding=0, dilation=1, ceil_mode=False)
  )
  (words_rnn): GRU(256, 128, dropout=0.5)
  (attention): MultiHeadAttention(
    (query_layer): Linear(in_features=128, out_features=128, bias=False)
    (key_layer): Linear(in_features=128, out_features=128, bias=False)
    (value_layer): Linear(in_features=128, out_features=128, bias=False)
    (bn): BatchNorm1d(128, eps=1e-05, momentum=0.1, affine=True)
  )
  (projector): Linear(in_features=128, out_features=2, bias=True)
)",charCNN,0.005,0.0,runs/May15_13-55-28_phobos-aijun_AttentionedYoonKim_lr3_dropout0.5_noise_level0_spacy_wordlen8_heads1_IMDB,IMDB binary classification,298416
2,0.63876,0.9831058823529412,"MaxWordLen 8, MaxTexLen 32",0.5,30,0.6423507979881985,0.9832046783625731,,0.001,"AttentionedYoonKimModel(
  (embedding): Linear(in_features=74, out_features=74, bias=True)
  (chars_cnn): Sequential(
    (0): Conv1d(74, 256, kernel_size=(5,), stride=(1,), padding=(2,))
    (1): ReLU()
    (2): MaxPool1d(kernel_size=8, stride=8, padding=0, dilation=1, ceil_mode=False)
  )
  (words_rnn): GRU(256, 128, dropout=0.5)
  (attention): MultiHeadAttention(
    (query_layer): Linear(in_features=128, out_features=128, bias=False)
    (key_layer): Linear(in_features=128, out_features=128, bias=False)
    (value_layer): Linear(in_features=128, out_features=128, bias=False)
    (bn): BatchNorm1d(128, eps=1e-05, momentum=0.1, affine=True)
  )
  (projector): Linear(in_features=128, out_features=2, bias=True)
)",charCNN,0.01,0.0,runs/May15_13-55-28_phobos-aijun_AttentionedYoonKim_lr3_dropout0.5_noise_level0_spacy_wordlen8_heads1_IMDB,IMDB binary classification,298416
3,0.61824,0.9831058823529412,"MaxWordLen 8, MaxTexLen 32",0.5,30,0.6196397258090228,0.9832046783625731,,0.001,"AttentionedYoonKimModel(
  (embedding): Linear(in_features=74, out_features=74, bias=True)
  (chars_cnn): Sequential(
    (0): Conv1d(74, 256, kernel_size=(5,), stride=(1,), padding=(2,))
    (1): ReLU()
    (2): MaxPool1d(kernel_size=8, stride=8, padding=0, dilation=1, ceil_mode=False)
  )
  (words_rnn): GRU(256, 128, dropout=0.5)
  (attention): MultiHeadAttention(
    (query_layer): Linear(in_features=128, out_features=128, bias=False)
    (key_layer): Linear(in_features=128, out_features=128, bias=False)
    (value_layer): Linear(in_features=128, out_features=128, bias=False)
    (bn): BatchNorm1d(128, eps=1e-05, momentum=0.1, affine=True)
  )
  (projector): Linear(in_features=128, out_features=2, bias=True)
)",charCNN,0.025,0.0,runs/May15_13-55-28_phobos-aijun_AttentionedYoonKim_lr3_dropout0.5_noise_level0_spacy_wordlen8_heads1_IMDB,IMDB binary classification,298416
4,0.59732,0.9831058823529412,"MaxWordLen 8, MaxTexLen 32",0.5,30,0.5915195780077095,0.9832046783625731,,0.001,"AttentionedYoonKimModel(
  (embedding): Linear(in_features=74, out_features=74, bias=True)
  (chars_cnn): Sequential(
    (0): Conv1d(74, 256, kernel_size=(5,), stride=(1,), padding=(2,))
    (1): ReLU()
    (2): MaxPool1d(kernel_size=8, stride=8, padding=0, dilation=1, ceil_mode=False)
  )
  (words_rnn): GRU(256, 128, dropout=0.5)
  (attention): MultiHeadAttention(
    (query_layer): Linear(in_features=128, out_features=128, bias=False)
    (key_layer): Linear(in_features=128, out_features=128, bias=False)
    (value_layer): Linear(in_features=128, out_features=128, bias=False)
    (bn): BatchNorm1d(128, eps=1e-05, momentum=0.1, affine=True)
  )
  (projector): Linear(in_features=128, out_features=2, bias=True)
)",charCNN,0.05,0.0,runs/May15_13-55-28_phobos-aijun_AttentionedYoonKim_lr3_dropout0.5_noise_level0_spacy_wordlen8_heads1_IMDB,IMDB binary classification,298416
5,0.57692,0.9831058823529412,"MaxWordLen 8, MaxTexLen 32",0.5,30,0.5642483417789314,0.9832046783625731,,0.001,"AttentionedYoonKimModel(
  (embedding): Linear(in_features=74, out_features=74, bias=True)
  (chars_cnn): Sequential(
    (0): Conv1d(74, 256, kernel_size=(5,), stride=(1,), padding=(2,))
    (1): ReLU()
    (2): MaxPool1d(kernel_size=8, stride=8, padding=0, dilation=1, ceil_mode=False)
  )
  (words_rnn): GRU(256, 128, dropout=0.5)
  (attention): MultiHeadAttention(
    (query_layer): Linear(in_features=128, out_features=128, bias=False)
    (key_layer): Linear(in_features=128, out_features=128, bias=False)
    (value_layer): Linear(in_features=128, out_features=128, bias=False)
    (bn): BatchNorm1d(128, eps=1e-05, momentum=0.1, affine=True)
  )
  (projector): Linear(in_features=128, out_features=2, bias=True)
)",charCNN,0.075,0.0,runs/May15_13-55-28_phobos-aijun_AttentionedYoonKim_lr3_dropout0.5_noise_level0_spacy_wordlen8_heads1_IMDB,IMDB binary classification,298416
6,0.5646,0.9831058823529412,"MaxWordLen 8, MaxTexLen 32",0.5,30,0.5450746019141555,0.9832046783625731,,0.001,"AttentionedYoonKimModel(
  (embedding): Linear(in_features=74, out_features=74, bias=True)
  (chars_cnn): Sequential(
    (0): Conv1d(74, 256, kernel_size=(5,), stride=(1,), padding=(2,))
    (1): ReLU()
    (2): MaxPool1d(kernel_size=8, stride=8, padding=0, dilation=1, ceil_mode=False)
  )
  (words_rnn): GRU(256, 128, dropout=0.5)
  (attention): MultiHeadAttention(
    (query_layer): Linear(in_features=128, out_features=128, bias=False)
    (key_layer): Linear(in_features=128, out_features=128, bias=False)
    (value_layer): Linear(in_features=128, out_features=128, bias=False)
    (bn): BatchNorm1d(128, eps=1e-05, momentum=0.1, affine=True)
  )
  (projector): Linear(in_features=128, out_features=2, bias=True)
)",charCNN,0.1,0.0,runs/May15_13-55-28_phobos-aijun_AttentionedYoonKim_lr3_dropout0.5_noise_level0_spacy_wordlen8_heads1_IMDB,IMDB binary classification,298416
7,0.55316,0.9831058823529412,"MaxWordLen 8, MaxTexLen 32",0.5,30,0.5285901168924336,0.9832046783625731,,0.001,"AttentionedYoonKimModel(
  (embedding): Linear(in_features=74, out_features=74, bias=True)
  (chars_cnn): Sequential(
    (0): Conv1d(74, 256, kernel_size=(5,), stride=(1,), padding=(2,))
    (1): ReLU()
    (2): MaxPool1d(kernel_size=8, stride=8, padding=0, dilation=1, ceil_mode=False)
  )
  (words_rnn): GRU(256, 128, dropout=0.5)
  (attention): MultiHeadAttention(
    (query_layer): Linear(in_features=128, out_features=128, bias=False)
    (key_layer): Linear(in_features=128, out_features=128, bias=False)
    (value_layer): Linear(in_features=128, out_features=128, bias=False)
    (bn): BatchNorm1d(128, eps=1e-05, momentum=0.1, affine=True)
  )
  (projector): Linear(in_features=128, out_features=2, bias=True)
)",charCNN,0.125,0.0,runs/May15_13-55-28_phobos-aijun_AttentionedYoonKim_lr3_dropout0.5_noise_level0_spacy_wordlen8_heads1_IMDB,IMDB binary classification,298416
8,0.54244,0.9831058823529412,"MaxWordLen 8, MaxTexLen 32",0.5,30,0.5101280459080981,0.9832046783625731,,0.001,"AttentionedYoonKimModel(
  (embedding): Linear(in_features=74, out_features=74, bias=True)
  (chars_cnn): Sequential(
    (0): Conv1d(74, 256, kernel_size=(5,), stride=(1,), padding=(2,))
    (1): ReLU()
    (2): MaxPool1d(kernel_size=8, stride=8, padding=0, dilation=1, ceil_mode=False)
  )
  (words_rnn): GRU(256, 128, dropout=0.5)
  (attention): MultiHeadAttention(
    (query_layer): Linear(in_features=128, out_features=128, bias=False)
    (key_layer): Linear(in_features=128, out_features=128, bias=False)
    (value_layer): Linear(in_features=128, out_features=128, bias=False)
    (bn): BatchNorm1d(128, eps=1e-05, momentum=0.1, affine=True)
  )
  (projector): Linear(in_features=128, out_features=2, bias=True)
)",charCNN,0.15,0.0,runs/May15_13-55-28_phobos-aijun_AttentionedYoonKim_lr3_dropout0.5_noise_level0_spacy_wordlen8_heads1_IMDB,IMDB binary classification,298416
9,0.5342,0.9831058823529412,"MaxWordLen 8, MaxTexLen 32",0.5,30,0.49903204990320504,0.9832046783625731,,0.001,"AttentionedYoonKimModel(
  (embedding): Linear(in_features=74, out_features=74, bias=True)
  (chars_cnn): Sequential(
    (0): Conv1d(74, 256, kernel_size=(5,), stride=(1,), padding=(2,))
    (1): ReLU()
    (2): MaxPool1d(kernel_size=8, stride=8, padding=0, dilation=1, ceil_mode=False)
  )
  (words_rnn): GRU(256, 128, dropout=0.5)
  (attention): MultiHeadAttention(
    (query_layer): Linear(in_features=128, out_features=128, bias=False)
    (key_layer): Linear(in_features=128, out_features=128, bias=False)
    (value_layer): Linear(in_features=128, out_features=128, bias=False)
    (bn): BatchNorm1d(128, eps=1e-05, momentum=0.1, affine=True)
  )
  (projector): Linear(in_features=128, out_features=2, bias=True)
)",charCNN,0.175,0.0,runs/May15_13-55-28_phobos-aijun_AttentionedYoonKim_lr3_dropout0.5_noise_level0_spacy_wordlen8_heads1_IMDB,IMDB binary classification,298416
10,0.53216,0.9831058823529412,"MaxWordLen 8, MaxTexLen 32",0.5,30,0.4933287125281581,0.9832046783625731,,0.001,"AttentionedYoonKimModel(
  (embedding): Linear(in_features=74, out_features=74, bias=True)
  (chars_cnn): Sequential(
    (0): Conv1d(74, 256, kernel_size=(5,), stride=(1,), padding=(2,))
    (1): ReLU()
    (2): MaxPool1d(kernel_size=8, stride=8, padding=0, dilation=1, ceil_mode=False)
  )
  (words_rnn): GRU(256, 128, dropout=0.5)
  (attention): MultiHeadAttention(
    (query_layer): Linear(in_features=128, out_features=128, bias=False)
    (key_layer): Linear(in_features=128, out_features=128, bias=False)
    (value_layer): Linear(in_features=128, out_features=128, bias=False)
    (bn): BatchNorm1d(128, eps=1e-05, momentum=0.1, affine=True)
  )
  (projector): Linear(in_features=128, out_features=2, bias=True)
)",charCNN,0.2,0.0,runs/May15_13-55-28_phobos-aijun_AttentionedYoonKim_lr3_dropout0.5_noise_level0_spacy_wordlen8_heads1_IMDB,IMDB binary classification,298416
11,0.64684,0.9831058823529412,"MaxWordLen 8, MaxTexLen 32",0.5,30,0.6548610296704586,0.9832046783625731,,0.001,"AttentionedYoonKimModel(
  (embedding): Linear(in_features=74, out_features=74, bias=True)
  (chars_cnn): Sequential(
    (0): Conv1d(74, 256, kernel_size=(5,), stride=(1,), padding=(2,))
    (1): ReLU()
    (2): MaxPool1d(kernel_size=8, stride=8, padding=0, dilation=1, ceil_mode=False)
  )
  (words_rnn): GRU(256, 128, dropout=0.5)
  (attention): MultiHeadAttention(
    (query_layer): Linear(in_features=128, out_features=128, bias=False)
    (key_layer): Linear(in_features=128, out_features=128, bias=False)
    (value_layer): Linear(in_features=128, out_features=128, bias=False)
    (bn): BatchNorm1d(128, eps=1e-05, momentum=0.1, affine=True)
  )
  (projector): Linear(in_features=128, out_features=2, bias=True)
)",charCNN,-1.0,0.0,runs/May15_13-55-28_phobos-aijun_AttentionedYoonKim_lr3_dropout0.5_noise_level0_spacy_wordlen8_heads1_IMDB,IMDB binary classification,298416
12,0.65944,0.96,"MaxWordLen 8, MaxTexLen 32",0.5,30,0.6825503355704698,0.9609446792868956,,0.001,"AttentionedYoonKimModel(
  (embedding): Linear(in_features=74, out_features=74, bias=True)
  (chars_cnn): Sequential(
    (0): Conv1d(74, 256, kernel_size=(5,), stride=(1,), padding=(2,))
    (1): ReLU()
    (2): MaxPool1d(kernel_size=8, stride=8, padding=0, dilation=1, ceil_mode=False)
  )
  (words_rnn): GRU(256, 128, dropout=0.5)
  (attention): MultiHeadAttention(
    (query_layer): Linear(in_features=128, out_features=128, bias=False)
    (key_layer): Linear(in_features=128, out_features=128, bias=False)
    (value_layer): Linear(in_features=128, out_features=128, bias=False)
    (bn): BatchNorm1d(128, eps=1e-05, momentum=0.1, affine=True)
  )
  (projector): Linear(in_features=128, out_features=2, bias=True)
)",charCNN,0.0,0.005,runs/May15_14-24-15_phobos-aijun_AttentionedYoonKim_lr3_dropout0.5_noise_level0.005_spacy_wordlen8_heads1_IMDB,IMDB binary classification,298416
13,0.65784,0.96,"MaxWordLen 8, MaxTexLen 32",0.5,30,0.6813203189032114,0.9609446792868956,,0.001,"AttentionedYoonKimModel(
  (embedding): Linear(in_features=74, out_features=74, bias=True)
  (chars_cnn): Sequential(
    (0): Conv1d(74, 256, kernel_size=(5,), stride=(1,), padding=(2,))
    (1): ReLU()
    (2): MaxPool1d(kernel_size=8, stride=8, padding=0, dilation=1, ceil_mode=False)
  )
  (words_rnn): GRU(256, 128, dropout=0.5)
  (attention): MultiHeadAttention(
    (query_layer): Linear(in_features=128, out_features=128, bias=False)
    (key_layer): Linear(in_features=128, out_features=128, bias=False)
    (value_layer): Linear(in_features=128, out_features=128, bias=False)
    (bn): BatchNorm1d(128, eps=1e-05, momentum=0.1, affine=True)
  )
  (projector): Linear(in_features=128, out_features=2, bias=True)
)",charCNN,0.005,0.005,runs/May15_14-24-15_phobos-aijun_AttentionedYoonKim_lr3_dropout0.5_noise_level0.005_spacy_wordlen8_heads1_IMDB,IMDB binary classification,298416
14,0.6526,0.96,"MaxWordLen 8, MaxTexLen 32",0.5,30,0.6758239707364414,0.9609446792868956,,0.001,"AttentionedYoonKimModel(
  (embedding): Linear(in_features=74, out_features=74, bias=True)
  (chars_cnn): Sequential(
    (0): Conv1d(74, 256, kernel_size=(5,), stride=(1,), padding=(2,))
    (1): ReLU()
    (2): MaxPool1d(kernel_size=8, stride=8, padding=0, dilation=1, ceil_mode=False)
  )
  (words_rnn): GRU(256, 128, dropout=0.5)
  (attention): MultiHeadAttention(
    (query_layer): Linear(in_features=128, out_features=128, bias=False)
    (key_layer): Linear(in_features=128, out_features=128, bias=False)
    (value_layer): Linear(in_features=128, out_features=128, bias=False)
    (bn): BatchNorm1d(128, eps=1e-05, momentum=0.1, affine=True)
  )
  (projector): Linear(in_features=128, out_features=2, bias=True)
)",charCNN,0.01,0.005,runs/May15_14-24-15_phobos-aijun_AttentionedYoonKim_lr3_dropout0.5_noise_level0.005_spacy_wordlen8_heads1_IMDB,IMDB binary classification,298416
15,0.63484,0.96,"MaxWordLen 8, MaxTexLen 32",0.5,30,0.6592258016349994,0.9609446792868956,,0.001,"AttentionedYoonKimModel(
  (embedding): Linear(in_features=74, out_features=74, bias=True)
  (chars_cnn): Sequential(
    (0): Conv1d(74, 256, kernel_size=(5,), stride=(1,), padding=(2,))
    (1): ReLU()
    (2): MaxPool1d(kernel_size=8, stride=8, padding=0, dilation=1, ceil_mode=False)
  )
  (words_rnn): GRU(256, 128, dropout=0.5)
  (attention): MultiHeadAttention(
    (query_layer): Linear(in_features=128, out_features=128, bias=False)
    (key_layer): Linear(in_features=128, out_features=128, bias=False)
    (value_layer): Linear(in_features=128, out_features=128, bias=False)
    (bn): BatchNorm1d(128, eps=1e-05, momentum=0.1, affine=True)
  )
  (projector): Linear(in_features=128, out_features=2, bias=True)
)",charCNN,0.025,0.005,runs/May15_14-24-15_phobos-aijun_AttentionedYoonKim_lr3_dropout0.5_noise_level0.005_spacy_wordlen8_heads1_IMDB,IMDB binary classification,298416
16,0.61688,0.96,"MaxWordLen 8, MaxTexLen 32",0.5,30,0.6426119402985075,0.9609446792868956,,0.001,"AttentionedYoonKimModel(
  (embedding): Linear(in_features=74, out_features=74, bias=True)
  (chars_cnn): Sequential(
    (0): Conv1d(74, 256, kernel_size=(5,), stride=(1,), padding=(2,))
    (1): ReLU()
    (2): MaxPool1d(kernel_size=8, stride=8, padding=0, dilation=1, ceil_mode=False)
  )
  (words_rnn): GRU(256, 128, dropout=0.5)
  (attention): MultiHeadAttention(
    (query_layer): Linear(in_features=128, out_features=128, bias=False)
    (key_layer): Linear(in_features=128, out_features=128, bias=False)
    (value_layer): Linear(in_features=128, out_features=128, bias=False)
    (bn): BatchNorm1d(128, eps=1e-05, momentum=0.1, affine=True)
  )
  (projector): Linear(in_features=128, out_features=2, bias=True)
)",charCNN,0.05,0.005,runs/May15_14-24-15_phobos-aijun_AttentionedYoonKim_lr3_dropout0.5_noise_level0.005_spacy_wordlen8_heads1_IMDB,IMDB binary classification,298416
17,0.59872,0.96,"MaxWordLen 8, MaxTexLen 32",0.5,30,0.6243540777353404,0.9609446792868956,,0.001,"AttentionedYoonKimModel(
  (embedding): Linear(in_features=74, out_features=74, bias=True)
  (chars_cnn): Sequential(
    (0): Conv1d(74, 256, kernel_size=(5,), stride=(1,), padding=(2,))
    (1): ReLU()
    (2): MaxPool1d(kernel_size=8, stride=8, padding=0, dilation=1, ceil_mode=False)
  )
  (words_rnn): GRU(256, 128, dropout=0.5)
  (attention): MultiHeadAttention(
    (query_layer): Linear(in_features=128, out_features=128, bias=False)
    (key_layer): Linear(in_features=128, out_features=128, bias=False)
    (value_layer): Linear(in_features=128, out_features=128, bias=False)
    (bn): BatchNorm1d(128, eps=1e-05, momentum=0.1, affine=True)
  )
  (projector): Linear(in_features=128, out_features=2, bias=True)
)",charCNN,0.075,0.005,runs/May15_14-24-15_phobos-aijun_AttentionedYoonKim_lr3_dropout0.5_noise_level0.005_spacy_wordlen8_heads1_IMDB,IMDB binary classification,298416
18,0.58208,0.96,"MaxWordLen 8, MaxTexLen 32",0.5,30,0.6086305064429128,0.9609446792868956,,0.001,"AttentionedYoonKimModel(
  (embedding): Linear(in_features=74, out_features=74, bias=True)
  (chars_cnn): Sequential(
    (0): Conv1d(74, 256, kernel_size=(5,), stride=(1,), padding=(2,))
    (1): ReLU()
    (2): MaxPool1d(kernel_size=8, stride=8, padding=0, dilation=1, ceil_mode=False)
  )
  (words_rnn): GRU(256, 128, dropout=0.5)
  (attention): MultiHeadAttention(
    (query_layer): Linear(in_features=128, out_features=128, bias=False)
    (key_layer): Linear(in_features=128, out_features=128, bias=False)
    (value_layer): Linear(in_features=128, out_features=128, bias=False)
    (bn): BatchNorm1d(128, eps=1e-05, momentum=0.1, affine=True)
  )
  (projector): Linear(in_features=128, out_features=2, bias=True)
)",charCNN,0.1,0.005,runs/May15_14-24-15_phobos-aijun_AttentionedYoonKim_lr3_dropout0.5_noise_level0.005_spacy_wordlen8_heads1_IMDB,IMDB binary classification,298416
19,0.57276,0.96,"MaxWordLen 8, MaxTexLen 32",0.5,30,0.5989862962267692,0.9609446792868956,,0.001,"AttentionedYoonKimModel(
  (embedding): Linear(in_features=74, out_features=74, bias=True)
  (chars_cnn): Sequential(
    (0): Conv1d(74, 256, kernel_size=(5,), stride=(1,), padding=(2,))
    (1): ReLU()
    (2): MaxPool1d(kernel_size=8, stride=8, padding=0, dilation=1, ceil_mode=False)
  )
  (words_rnn): GRU(256, 128, dropout=0.5)
  (attention): MultiHeadAttention(
    (query_layer): Linear(in_features=128, out_features=128, bias=False)
    (key_layer): Linear(in_features=128, out_features=128, bias=False)
    (value_layer): Linear(in_features=128, out_features=128, bias=False)
    (bn): BatchNorm1d(128, eps=1e-05, momentum=0.1, affine=True)
  )
  (projector): Linear(in_features=128, out_features=2, bias=True)
)",charCNN,0.125,0.005,runs/May15_14-24-15_phobos-aijun_AttentionedYoonKim_lr3_dropout0.5_noise_level0.005_spacy_wordlen8_heads1_IMDB,IMDB binary classification,298416
20,0.55824,0.96,"MaxWordLen 8, MaxTexLen 32",0.5,30,0.581856731788581,0.9609446792868956,,0.001,"AttentionedYoonKimModel(
  (embedding): Linear(in_features=74, out_features=74, bias=True)
  (chars_cnn): Sequential(
    (0): Conv1d(74, 256, kernel_size=(5,), stride=(1,), padding=(2,))
    (1): ReLU()
    (2): MaxPool1d(kernel_size=8, stride=8, padding=0, dilation=1, ceil_mode=False)
  )
  (words_rnn): GRU(256, 128, dropout=0.5)
  (attention): MultiHeadAttention(
    (query_layer): Linear(in_features=128, out_features=128, bias=False)
    (key_layer): Linear(in_features=128, out_features=128, bias=False)
    (value_layer): Linear(in_features=128, out_features=128, bias=False)
    (bn): BatchNorm1d(128, eps=1e-05, momentum=0.1, affine=True)
  )
  (projector): Linear(in_features=128, out_features=2, bias=True)
)",charCNN,0.15,0.005,runs/May15_14-24-15_phobos-aijun_AttentionedYoonKim_lr3_dropout0.5_noise_level0.005_spacy_wordlen8_heads1_IMDB,IMDB binary classification,298416
21,0.55352,0.96,"MaxWordLen 8, MaxTexLen 32",0.5,30,0.5774530587522713,0.9609446792868956,,0.001,"AttentionedYoonKimModel(
  (embedding): Linear(in_features=74, out_features=74, bias=True)
  (chars_cnn): Sequential(
    (0): Conv1d(74, 256, kernel_size=(5,), stride=(1,), padding=(2,))
    (1): ReLU()
    (2): MaxPool1d(kernel_size=8, stride=8, padding=0, dilation=1, ceil_mode=False)
  )
  (words_rnn): GRU(256, 128, dropout=0.5)
  (attention): MultiHeadAttention(
    (query_layer): Linear(in_features=128, out_features=128, bias=False)
    (key_layer): Linear(in_features=128, out_features=128, bias=False)
    (value_layer): Linear(in_features=128, out_features=128, bias=False)
    (bn): BatchNorm1d(128, eps=1e-05, momentum=0.1, affine=True)
  )
  (projector): Linear(in_features=128, out_features=2, bias=True)
)",charCNN,0.175,0.005,runs/May15_14-24-15_phobos-aijun_AttentionedYoonKim_lr3_dropout0.5_noise_level0.005_spacy_wordlen8_heads1_IMDB,IMDB binary classification,298416
22,0.5388,0.96,"MaxWordLen 8, MaxTexLen 32",0.5,30,0.5624620522161505,0.9609446792868956,,0.001,"AttentionedYoonKimModel(
  (embedding): Linear(in_features=74, out_features=74, bias=True)
  (chars_cnn): Sequential(
    (0): Conv1d(74, 256, kernel_size=(5,), stride=(1,), padding=(2,))
    (1): ReLU()
    (2): MaxPool1d(kernel_size=8, stride=8, padding=0, dilation=1, ceil_mode=False)
  )
  (words_rnn): GRU(256, 128, dropout=0.5)
  (attention): MultiHeadAttention(
    (query_layer): Linear(in_features=128, out_features=128, bias=False)
    (key_layer): Linear(in_features=128, out_features=128, bias=False)
    (value_layer): Linear(in_features=128, out_features=128, bias=False)
    (bn): BatchNorm1d(128, eps=1e-05, momentum=0.1, affine=True)
  )
  (projector): Linear(in_features=128, out_features=2, bias=True)
)",charCNN,0.2,0.005,runs/May15_14-24-15_phobos-aijun_AttentionedYoonKim_lr3_dropout0.5_noise_level0.005_spacy_wordlen8_heads1_IMDB,IMDB binary classification,298416
23,0.65412,0.96,"MaxWordLen 8, MaxTexLen 32",0.5,30,0.6776754761993514,0.9609446792868956,,0.001,"AttentionedYoonKimModel(
  (embedding): Linear(in_features=74, out_features=74, bias=True)
  (chars_cnn): Sequential(
    (0): Conv1d(74, 256, kernel_size=(5,), stride=(1,), padding=(2,))
    (1): ReLU()
    (2): MaxPool1d(kernel_size=8, stride=8, padding=0, dilation=1, ceil_mode=False)
  )
  (words_rnn): GRU(256, 128, dropout=0.5)
  (attention): MultiHeadAttention(
    (query_layer): Linear(in_features=128, out_features=128, bias=False)
    (key_layer): Linear(in_features=128, out_features=128, bias=False)
    (value_layer): Linear(in_features=128, out_features=128, bias=False)
    (bn): BatchNorm1d(128, eps=1e-05, momentum=0.1, affine=True)
  )
  (projector): Linear(in_features=128, out_features=2, bias=True)
)",charCNN,-1.0,0.005,runs/May15_14-24-15_phobos-aijun_AttentionedYoonKim_lr3_dropout0.5_noise_level0.005_spacy_wordlen8_heads1_IMDB,IMDB binary classification,298416
24,0.69296,0.9552470588235294,"MaxWordLen 8, MaxTexLen 32",0.5,30,0.694183266932271,0.9554504145781608,,0.001,"AttentionedYoonKimModel(
  (embedding): Linear(in_features=74, out_features=74, bias=True)
  (chars_cnn): Sequential(
    (0): Conv1d(74, 256, kernel_size=(5,), stride=(1,), padding=(2,))
    (1): ReLU()
    (2): MaxPool1d(kernel_size=8, stride=8, padding=0, dilation=1, ceil_mode=False)
  )
  (words_rnn): GRU(256, 128, dropout=0.5)
  (attention): MultiHeadAttention(
    (query_layer): Linear(in_features=128, out_features=128, bias=False)
    (key_layer): Linear(in_features=128, out_features=128, bias=False)
    (value_layer): Linear(in_features=128, out_features=128, bias=False)
    (bn): BatchNorm1d(128, eps=1e-05, momentum=0.1, affine=True)
  )
  (projector): Linear(in_features=128, out_features=2, bias=True)
)",charCNN,0.0,0.01,runs/May15_14-59-57_phobos-aijun_AttentionedYoonKim_lr3_dropout0.5_noise_level0.01_spacy_wordlen8_heads1_IMDB,IMDB binary classification,298416
25,0.68644,0.9552470588235294,"MaxWordLen 8, MaxTexLen 32",0.5,30,0.6879503204490267,0.9554504145781608,,0.001,"AttentionedYoonKimModel(
  (embedding): Linear(in_features=74, out_features=74, bias=True)
  (chars_cnn): Sequential(
    (0): Conv1d(74, 256, kernel_size=(5,), stride=(1,), padding=(2,))
    (1): ReLU()
    (2): MaxPool1d(kernel_size=8, stride=8, padding=0, dilation=1, ceil_mode=False)
  )
  (words_rnn): GRU(256, 128, dropout=0.5)
  (attention): MultiHeadAttention(
    (query_layer): Linear(in_features=128, out_features=128, bias=False)
    (key_layer): Linear(in_features=128, out_features=128, bias=False)
    (value_layer): Linear(in_features=128, out_features=128, bias=False)
    (bn): BatchNorm1d(128, eps=1e-05, momentum=0.1, affine=True)
  )
  (projector): Linear(in_features=128, out_features=2, bias=True)
)",charCNN,0.005,0.01,runs/May15_14-59-57_phobos-aijun_AttentionedYoonKim_lr3_dropout0.5_noise_level0.01_spacy_wordlen8_heads1_IMDB,IMDB binary classification,298416
26,0.68156,0.9552470588235294,"MaxWordLen 8, MaxTexLen 32",0.5,30,0.6819035441722939,0.9554504145781608,,0.001,"AttentionedYoonKimModel(
  (embedding): Linear(in_features=74, out_features=74, bias=True)
  (chars_cnn): Sequential(
    (0): Conv1d(74, 256, kernel_size=(5,), stride=(1,), padding=(2,))
    (1): ReLU()
    (2): MaxPool1d(kernel_size=8, stride=8, padding=0, dilation=1, ceil_mode=False)
  )
  (words_rnn): GRU(256, 128, dropout=0.5)
  (attention): MultiHeadAttention(
    (query_layer): Linear(in_features=128, out_features=128, bias=False)
    (key_layer): Linear(in_features=128, out_features=128, bias=False)
    (value_layer): Linear(in_features=128, out_features=128, bias=False)
    (bn): BatchNorm1d(128, eps=1e-05, momentum=0.1, affine=True)
  )
  (projector): Linear(in_features=128, out_features=2, bias=True)
)",charCNN,0.01,0.01,runs/May15_14-59-57_phobos-aijun_AttentionedYoonKim_lr3_dropout0.5_noise_level0.01_spacy_wordlen8_heads1_IMDB,IMDB binary classification,298416
27,0.66712,0.9552470588235294,"MaxWordLen 8, MaxTexLen 32",0.5,30,0.666158536585366,0.9554504145781608,,0.001,"AttentionedYoonKimModel(
  (embedding): Linear(in_features=74, out_features=74, bias=True)
  (chars_cnn): Sequential(
    (0): Conv1d(74, 256, kernel_size=(5,), stride=(1,), padding=(2,))
    (1): ReLU()
    (2): MaxPool1d(kernel_size=8, stride=8, padding=0, dilation=1, ceil_mode=False)
  )
  (words_rnn): GRU(256, 128, dropout=0.5)
  (attention): MultiHeadAttention(
    (query_layer): Linear(in_features=128, out_features=128, bias=False)
    (key_layer): Linear(in_features=128, out_features=128, bias=False)
    (value_layer): Linear(in_features=128, out_features=128, bias=False)
    (bn): BatchNorm1d(128, eps=1e-05, momentum=0.1, affine=True)
  )
  (projector): Linear(in_features=128, out_features=2, bias=True)
)",charCNN,0.025,0.01,runs/May15_14-59-57_phobos-aijun_AttentionedYoonKim_lr3_dropout0.5_noise_level0.01_spacy_wordlen8_heads1_IMDB,IMDB binary classification,298416
28,0.6444,0.9552470588235294,"MaxWordLen 8, MaxTexLen 32",0.5,30,0.641590066118368,0.9554504145781608,,0.001,"AttentionedYoonKimModel(
  (embedding): Linear(in_features=74, out_features=74, bias=True)
  (chars_cnn): Sequential(
    (0): Conv1d(74, 256, kernel_size=(5,), stride=(1,), padding=(2,))
    (1): ReLU()
    (2): MaxPool1d(kernel_size=8, stride=8, padding=0, dilation=1, ceil_mode=False)
  )
  (words_rnn): GRU(256, 128, dropout=0.5)
  (attention): MultiHeadAttention(
    (query_layer): Linear(in_features=128, out_features=128, bias=False)
    (key_layer): Linear(in_features=128, out_features=128, bias=False)
    (value_layer): Linear(in_features=128, out_features=128, bias=False)
    (bn): BatchNorm1d(128, eps=1e-05, momentum=0.1, affine=True)
  )
  (projector): Linear(in_features=128, out_features=2, bias=True)
)",charCNN,0.05,0.01,runs/May15_14-59-57_phobos-aijun_AttentionedYoonKim_lr3_dropout0.5_noise_level0.01_spacy_wordlen8_heads1_IMDB,IMDB binary classification,298416
29,0.62804,0.9552470588235294,"MaxWordLen 8, MaxTexLen 32",0.5,30,0.623110282495035,0.9554504145781608,,0.001,"AttentionedYoonKimModel(
  (embedding): Linear(in_features=74, out_features=74, bias=True)
  (chars_cnn): Sequential(
    (0): Conv1d(74, 256, kernel_size=(5,), stride=(1,), padding=(2,))
    (1): ReLU()
    (2): MaxPool1d(kernel_size=8, stride=8, padding=0, dilation=1, ceil_mode=False)
  )
  (words_rnn): GRU(256, 128, dropout=0.5)
  (attention): MultiHeadAttention(
    (query_layer): Linear(in_features=128, out_features=128, bias=False)
    (key_layer): Linear(in_features=128, out_features=128, bias=False)
    (value_layer): Linear(in_features=128, out_features=128, bias=False)
    (bn): BatchNorm1d(128, eps=1e-05, momentum=0.1, affine=True)
  )
  (projector): Linear(in_features=128, out_features=2, bias=True)
)",charCNN,0.075,0.01,runs/May15_14-59-57_phobos-aijun_AttentionedYoonKim_lr3_dropout0.5_noise_level0.01_spacy_wordlen8_heads1_IMDB,IMDB binary classification,298416
30,0.60908,0.9552470588235294,"MaxWordLen 8, MaxTexLen 32",0.5,30,0.6017360120624313,0.9554504145781608,,0.001,"AttentionedYoonKimModel(
  (embedding): Linear(in_features=74, out_features=74, bias=True)
  (chars_cnn): Sequential(
    (0): Conv1d(74, 256, kernel_size=(5,), stride=(1,), padding=(2,))
    (1): ReLU()
    (2): MaxPool1d(kernel_size=8, stride=8, padding=0, dilation=1, ceil_mode=False)
  )
  (words_rnn): GRU(256, 128, dropout=0.5)
  (attention): MultiHeadAttention(
    (query_layer): Linear(in_features=128, out_features=128, bias=False)
    (key_layer): Linear(in_features=128, out_features=128, bias=False)
    (value_layer): Linear(in_features=128, out_features=128, bias=False)
    (bn): BatchNorm1d(128, eps=1e-05, momentum=0.1, affine=True)
  )
  (projector): Linear(in_features=128, out_features=2, bias=True)
)",charCNN,0.1,0.01,runs/May15_14-59-57_phobos-aijun_AttentionedYoonKim_lr3_dropout0.5_noise_level0.01_spacy_wordlen8_heads1_IMDB,IMDB binary classification,298416
31,0.59572,0.9552470588235294,"MaxWordLen 8, MaxTexLen 32",0.5,30,0.5856937897110065,0.9554504145781608,,0.001,"AttentionedYoonKimModel(
  (embedding): Linear(in_features=74, out_features=74, bias=True)
  (chars_cnn): Sequential(
    (0): Conv1d(74, 256, kernel_size=(5,), stride=(1,), padding=(2,))
    (1): ReLU()
    (2): MaxPool1d(kernel_size=8, stride=8, padding=0, dilation=1, ceil_mode=False)
  )
  (words_rnn): GRU(256, 128, dropout=0.5)
  (attention): MultiHeadAttention(
    (query_layer): Linear(in_features=128, out_features=128, bias=False)
    (key_layer): Linear(in_features=128, out_features=128, bias=False)
    (value_layer): Linear(in_features=128, out_features=128, bias=False)
    (bn): BatchNorm1d(128, eps=1e-05, momentum=0.1, affine=True)
  )
  (projector): Linear(in_features=128, out_features=2, bias=True)
)",charCNN,0.125,0.01,runs/May15_14-59-57_phobos-aijun_AttentionedYoonKim_lr3_dropout0.5_noise_level0.01_spacy_wordlen8_heads1_IMDB,IMDB binary classification,298416
32,0.5804,0.9552470588235294,"MaxWordLen 8, MaxTexLen 32",0.5,30,0.5673870009897725,0.9554504145781608,,0.001,"AttentionedYoonKimModel(
  (embedding): Linear(in_features=74, out_features=74, bias=True)
  (chars_cnn): Sequential(
    (0): Conv1d(74, 256, kernel_size=(5,), stride=(1,), padding=(2,))
    (1): ReLU()
    (2): MaxPool1d(kernel_size=8, stride=8, padding=0, dilation=1, ceil_mode=False)
  )
  (words_rnn): GRU(256, 128, dropout=0.5)
  (attention): MultiHeadAttention(
    (query_layer): Linear(in_features=128, out_features=128, bias=False)
    (key_layer): Linear(in_features=128, out_features=128, bias=False)
    (value_layer): Linear(in_features=128, out_features=128, bias=False)
    (bn): BatchNorm1d(128, eps=1e-05, momentum=0.1, affine=True)
  )
  (projector): Linear(in_features=128, out_features=2, bias=True)
)",charCNN,0.15,0.01,runs/May15_14-59-57_phobos-aijun_AttentionedYoonKim_lr3_dropout0.5_noise_level0.01_spacy_wordlen8_heads1_IMDB,IMDB binary classification,298416
33,0.5726,0.9552470588235294,"MaxWordLen 8, MaxTexLen 32",0.5,30,0.5571718678768287,0.9554504145781608,,0.001,"AttentionedYoonKimModel(
  (embedding): Linear(in_features=74, out_features=74, bias=True)
  (chars_cnn): Sequential(
    (0): Conv1d(74, 256, kernel_size=(5,), stride=(1,), padding=(2,))
    (1): ReLU()
    (2): MaxPool1d(kernel_size=8, stride=8, padding=0, dilation=1, ceil_mode=False)
  )
  (words_rnn): GRU(256, 128, dropout=0.5)
  (attention): MultiHeadAttention(
    (query_layer): Linear(in_features=128, out_features=128, bias=False)
    (key_layer): Linear(in_features=128, out_features=128, bias=False)
    (value_layer): Linear(in_features=128, out_features=128, bias=False)
    (bn): BatchNorm1d(128, eps=1e-05, momentum=0.1, affine=True)
  )
  (projector): Linear(in_features=128, out_features=2, bias=True)
)",charCNN,0.175,0.01,runs/May15_14-59-57_phobos-aijun_AttentionedYoonKim_lr3_dropout0.5_noise_level0.01_spacy_wordlen8_heads1_IMDB,IMDB binary classification,298416
34,0.55516,0.9552470588235294,"MaxWordLen 8, MaxTexLen 32",0.5,30,0.5372227539428239,0.9554504145781608,,0.001,"AttentionedYoonKimModel(
  (embedding): Linear(in_features=74, out_features=74, bias=True)
  (chars_cnn): Sequential(
    (0): Conv1d(74, 256, kernel_size=(5,), stride=(1,), padding=(2,))
    (1): ReLU()
    (2): MaxPool1d(kernel_size=8, stride=8, padding=0, dilation=1, ceil_mode=False)
  )
  (words_rnn): GRU(256, 128, dropout=0.5)
  (attention): MultiHeadAttention(
    (query_layer): Linear(in_features=128, out_features=128, bias=False)
    (key_layer): Linear(in_features=128, out_features=128, bias=False)
    (value_layer): Linear(in_features=128, out_features=128, bias=False)
    (bn): BatchNorm1d(128, eps=1e-05, momentum=0.1, affine=True)
  )
  (projector): Linear(in_features=128, out_features=2, bias=True)
)",charCNN,0.2,0.01,runs/May15_14-59-57_phobos-aijun_AttentionedYoonKim_lr3_dropout0.5_noise_level0.01_spacy_wordlen8_heads1_IMDB,IMDB binary classification,298416
35,0.68308,0.9552470588235294,"MaxWordLen 8, MaxTexLen 32",0.5,30,0.684857404240086,0.9554504145781608,,0.001,"AttentionedYoonKimModel(
  (embedding): Linear(in_features=74, out_features=74, bias=True)
  (chars_cnn): Sequential(
    (0): Conv1d(74, 256, kernel_size=(5,), stride=(1,), padding=(2,))
    (1): ReLU()
    (2): MaxPool1d(kernel_size=8, stride=8, padding=0, dilation=1, ceil_mode=False)
  )
  (words_rnn): GRU(256, 128, dropout=0.5)
  (attention): MultiHeadAttention(
    (query_layer): Linear(in_features=128, out_features=128, bias=False)
    (key_layer): Linear(in_features=128, out_features=128, bias=False)
    (value_layer): Linear(in_features=128, out_features=128, bias=False)
    (bn): BatchNorm1d(128, eps=1e-05, momentum=0.1, affine=True)
  )
  (projector): Linear(in_features=128, out_features=2, bias=True)
)",charCNN,-1.0,0.01,runs/May15_14-59-57_phobos-aijun_AttentionedYoonKim_lr3_dropout0.5_noise_level0.01_spacy_wordlen8_heads1_IMDB,IMDB binary classification,298416
36,0.65584,0.9053176470588236,"MaxWordLen 8, MaxTexLen 32",0.5,30,0.6531204644412191,0.9052998211428033,,0.001,"AttentionedYoonKimModel(
  (embedding): Linear(in_features=74, out_features=74, bias=True)
  (chars_cnn): Sequential(
    (0): Conv1d(74, 256, kernel_size=(5,), stride=(1,), padding=(2,))
    (1): ReLU()
    (2): MaxPool1d(kernel_size=8, stride=8, padding=0, dilation=1, ceil_mode=False)
  )
  (words_rnn): GRU(256, 128, dropout=0.5)
  (attention): MultiHeadAttention(
    (query_layer): Linear(in_features=128, out_features=128, bias=False)
    (key_layer): Linear(in_features=128, out_features=128, bias=False)
    (value_layer): Linear(in_features=128, out_features=128, bias=False)
    (bn): BatchNorm1d(128, eps=1e-05, momentum=0.1, affine=True)
  )
  (projector): Linear(in_features=128, out_features=2, bias=True)
)",charCNN,0.0,0.025,runs/May15_15-32-41_phobos-aijun_AttentionedYoonKim_lr3_dropout0.5_noise_level0.025_spacy_wordlen8_heads1_IMDB,IMDB binary classification,298416
37,0.65124,0.9053176470588236,"MaxWordLen 8, MaxTexLen 32",0.5,30,0.6490924457681008,0.9052998211428033,,0.001,"AttentionedYoonKimModel(
  (embedding): Linear(in_features=74, out_features=74, bias=True)
  (chars_cnn): Sequential(
    (0): Conv1d(74, 256, kernel_size=(5,), stride=(1,), padding=(2,))
    (1): ReLU()
    (2): MaxPool1d(kernel_size=8, stride=8, padding=0, dilation=1, ceil_mode=False)
  )
  (words_rnn): GRU(256, 128, dropout=0.5)
  (attention): MultiHeadAttention(
    (query_layer): Linear(in_features=128, out_features=128, bias=False)
    (key_layer): Linear(in_features=128, out_features=128, bias=False)
    (value_layer): Linear(in_features=128, out_features=128, bias=False)
    (bn): BatchNorm1d(128, eps=1e-05, momentum=0.1, affine=True)
  )
  (projector): Linear(in_features=128, out_features=2, bias=True)
)",charCNN,0.005,0.025,runs/May15_15-32-41_phobos-aijun_AttentionedYoonKim_lr3_dropout0.5_noise_level0.025_spacy_wordlen8_heads1_IMDB,IMDB binary classification,298416
38,0.65,0.9053176470588236,"MaxWordLen 8, MaxTexLen 32",0.5,30,0.6466930469191634,0.9052998211428033,,0.001,"AttentionedYoonKimModel(
  (embedding): Linear(in_features=74, out_features=74, bias=True)
  (chars_cnn): Sequential(
    (0): Conv1d(74, 256, kernel_size=(5,), stride=(1,), padding=(2,))
    (1): ReLU()
    (2): MaxPool1d(kernel_size=8, stride=8, padding=0, dilation=1, ceil_mode=False)
  )
  (words_rnn): GRU(256, 128, dropout=0.5)
  (attention): MultiHeadAttention(
    (query_layer): Linear(in_features=128, out_features=128, bias=False)
    (key_layer): Linear(in_features=128, out_features=128, bias=False)
    (value_layer): Linear(in_features=128, out_features=128, bias=False)
    (bn): BatchNorm1d(128, eps=1e-05, momentum=0.1, affine=True)
  )
  (projector): Linear(in_features=128, out_features=2, bias=True)
)",charCNN,0.01,0.025,runs/May15_15-32-41_phobos-aijun_AttentionedYoonKim_lr3_dropout0.5_noise_level0.025_spacy_wordlen8_heads1_IMDB,IMDB binary classification,298416
39,0.63772,0.9053176470588236,"MaxWordLen 8, MaxTexLen 32",0.5,30,0.6365132239033592,0.9052998211428033,,0.001,"AttentionedYoonKimModel(
  (embedding): Linear(in_features=74, out_features=74, bias=True)
  (chars_cnn): Sequential(
    (0): Conv1d(74, 256, kernel_size=(5,), stride=(1,), padding=(2,))
    (1): ReLU()
    (2): MaxPool1d(kernel_size=8, stride=8, padding=0, dilation=1, ceil_mode=False)
  )
  (words_rnn): GRU(256, 128, dropout=0.5)
  (attention): MultiHeadAttention(
    (query_layer): Linear(in_features=128, out_features=128, bias=False)
    (key_layer): Linear(in_features=128, out_features=128, bias=False)
    (value_layer): Linear(in_features=128, out_features=128, bias=False)
    (bn): BatchNorm1d(128, eps=1e-05, momentum=0.1, affine=True)
  )
  (projector): Linear(in_features=128, out_features=2, bias=True)
)",charCNN,0.025,0.025,runs/May15_15-32-41_phobos-aijun_AttentionedYoonKim_lr3_dropout0.5_noise_level0.025_spacy_wordlen8_heads1_IMDB,IMDB binary classification,298416
40,0.62024,0.9053176470588236,"MaxWordLen 8, MaxTexLen 32",0.5,30,0.6195094581596665,0.9052998211428033,,0.001,"AttentionedYoonKimModel(
  (embedding): Linear(in_features=74, out_features=74, bias=True)
  (chars_cnn): Sequential(
    (0): Conv1d(74, 256, kernel_size=(5,), stride=(1,), padding=(2,))
    (1): ReLU()
    (2): MaxPool1d(kernel_size=8, stride=8, padding=0, dilation=1, ceil_mode=False)
  )
  (words_rnn): GRU(256, 128, dropout=0.5)
  (attention): MultiHeadAttention(
    (query_layer): Linear(in_features=128, out_features=128, bias=False)
    (key_layer): Linear(in_features=128, out_features=128, bias=False)
    (value_layer): Linear(in_features=128, out_features=128, bias=False)
    (bn): BatchNorm1d(128, eps=1e-05, momentum=0.1, affine=True)
  )
  (projector): Linear(in_features=128, out_features=2, bias=True)
)",charCNN,0.05,0.025,runs/May15_15-32-41_phobos-aijun_AttentionedYoonKim_lr3_dropout0.5_noise_level0.025_spacy_wordlen8_heads1_IMDB,IMDB binary classification,298416
41,0.60072,0.9053176470588236,"MaxWordLen 8, MaxTexLen 32",0.5,30,0.6002082665812238,0.9052998211428033,,0.001,"AttentionedYoonKimModel(
  (embedding): Linear(in_features=74, out_features=74, bias=True)
  (chars_cnn): Sequential(
    (0): Conv1d(74, 256, kernel_size=(5,), stride=(1,), padding=(2,))
    (1): ReLU()
    (2): MaxPool1d(kernel_size=8, stride=8, padding=0, dilation=1, ceil_mode=False)
  )
  (words_rnn): GRU(256, 128, dropout=0.5)
  (attention): MultiHeadAttention(
    (query_layer): Linear(in_features=128, out_features=128, bias=False)
    (key_layer): Linear(in_features=128, out_features=128, bias=False)
    (value_layer): Linear(in_features=128, out_features=128, bias=False)
    (bn): BatchNorm1d(128, eps=1e-05, momentum=0.1, affine=True)
  )
  (projector): Linear(in_features=128, out_features=2, bias=True)
)",charCNN,0.075,0.025,runs/May15_15-32-41_phobos-aijun_AttentionedYoonKim_lr3_dropout0.5_noise_level0.025_spacy_wordlen8_heads1_IMDB,IMDB binary classification,298416
42,0.5884,0.9053176470588236,"MaxWordLen 8, MaxTexLen 32",0.5,30,0.5893527017319817,0.9052998211428033,,0.001,"AttentionedYoonKimModel(
  (embedding): Linear(in_features=74, out_features=74, bias=True)
  (chars_cnn): Sequential(
    (0): Conv1d(74, 256, kernel_size=(5,), stride=(1,), padding=(2,))
    (1): ReLU()
    (2): MaxPool1d(kernel_size=8, stride=8, padding=0, dilation=1, ceil_mode=False)
  )
  (words_rnn): GRU(256, 128, dropout=0.5)
  (attention): MultiHeadAttention(
    (query_layer): Linear(in_features=128, out_features=128, bias=False)
    (key_layer): Linear(in_features=128, out_features=128, bias=False)
    (value_layer): Linear(in_features=128, out_features=128, bias=False)
    (bn): BatchNorm1d(128, eps=1e-05, momentum=0.1, affine=True)
  )
  (projector): Linear(in_features=128, out_features=2, bias=True)
)",charCNN,0.1,0.025,runs/May15_15-32-41_phobos-aijun_AttentionedYoonKim_lr3_dropout0.5_noise_level0.025_spacy_wordlen8_heads1_IMDB,IMDB binary classification,298416
43,0.5774,0.9053176470588236,"MaxWordLen 8, MaxTexLen 32",0.5,30,0.5773492819138297,0.9052998211428033,,0.001,"AttentionedYoonKimModel(
  (embedding): Linear(in_features=74, out_features=74, bias=True)
  (chars_cnn): Sequential(
    (0): Conv1d(74, 256, kernel_size=(5,), stride=(1,), padding=(2,))
    (1): ReLU()
    (2): MaxPool1d(kernel_size=8, stride=8, padding=0, dilation=1, ceil_mode=False)
  )
  (words_rnn): GRU(256, 128, dropout=0.5)
  (attention): MultiHeadAttention(
    (query_layer): Linear(in_features=128, out_features=128, bias=False)
    (key_layer): Linear(in_features=128, out_features=128, bias=False)
    (value_layer): Linear(in_features=128, out_features=128, bias=False)
    (bn): BatchNorm1d(128, eps=1e-05, momentum=0.1, affine=True)
  )
  (projector): Linear(in_features=128, out_features=2, bias=True)
)",charCNN,0.125,0.025,runs/May15_15-32-41_phobos-aijun_AttentionedYoonKim_lr3_dropout0.5_noise_level0.025_spacy_wordlen8_heads1_IMDB,IMDB binary classification,298416
44,0.56272,0.9053176470588236,"MaxWordLen 8, MaxTexLen 32",0.5,30,0.5633836568416007,0.9052998211428033,,0.001,"AttentionedYoonKimModel(
  (embedding): Linear(in_features=74, out_features=74, bias=True)
  (chars_cnn): Sequential(
    (0): Conv1d(74, 256, kernel_size=(5,), stride=(1,), padding=(2,))
    (1): ReLU()
    (2): MaxPool1d(kernel_size=8, stride=8, padding=0, dilation=1, ceil_mode=False)
  )
  (words_rnn): GRU(256, 128, dropout=0.5)
  (attention): MultiHeadAttention(
    (query_layer): Linear(in_features=128, out_features=128, bias=False)
    (key_layer): Linear(in_features=128, out_features=128, bias=False)
    (value_layer): Linear(in_features=128, out_features=128, bias=False)
    (bn): BatchNorm1d(128, eps=1e-05, momentum=0.1, affine=True)
  )
  (projector): Linear(in_features=128, out_features=2, bias=True)
)",charCNN,0.15,0.025,runs/May15_15-32-41_phobos-aijun_AttentionedYoonKim_lr3_dropout0.5_noise_level0.025_spacy_wordlen8_heads1_IMDB,IMDB binary classification,298416
45,0.555,0.9053176470588236,"MaxWordLen 8, MaxTexLen 32",0.5,30,0.5560831570966841,0.9052998211428033,,0.001,"AttentionedYoonKimModel(
  (embedding): Linear(in_features=74, out_features=74, bias=True)
  (chars_cnn): Sequential(
    (0): Conv1d(74, 256, kernel_size=(5,), stride=(1,), padding=(2,))
    (1): ReLU()
    (2): MaxPool1d(kernel_size=8, stride=8, padding=0, dilation=1, ceil_mode=False)
  )
  (words_rnn): GRU(256, 128, dropout=0.5)
  (attention): MultiHeadAttention(
    (query_layer): Linear(in_features=128, out_features=128, bias=False)
    (key_layer): Linear(in_features=128, out_features=128, bias=False)
    (value_layer): Linear(in_features=128, out_features=128, bias=False)
    (bn): BatchNorm1d(128, eps=1e-05, momentum=0.1, affine=True)
  )
  (projector): Linear(in_features=128, out_features=2, bias=True)
)",charCNN,0.175,0.025,runs/May15_15-32-41_phobos-aijun_AttentionedYoonKim_lr3_dropout0.5_noise_level0.025_spacy_wordlen8_heads1_IMDB,IMDB binary classification,298416
46,0.54436,0.9053176470588236,"MaxWordLen 8, MaxTexLen 32",0.5,30,0.5448879300011986,0.9052998211428033,,0.001,"AttentionedYoonKimModel(
  (embedding): Linear(in_features=74, out_features=74, bias=True)
  (chars_cnn): Sequential(
    (0): Conv1d(74, 256, kernel_size=(5,), stride=(1,), padding=(2,))
    (1): ReLU()
    (2): MaxPool1d(kernel_size=8, stride=8, padding=0, dilation=1, ceil_mode=False)
  )
  (words_rnn): GRU(256, 128, dropout=0.5)
  (attention): MultiHeadAttention(
    (query_layer): Linear(in_features=128, out_features=128, bias=False)
    (key_layer): Linear(in_features=128, out_features=128, bias=False)
    (value_layer): Linear(in_features=128, out_features=128, bias=False)
    (bn): BatchNorm1d(128, eps=1e-05, momentum=0.1, affine=True)
  )
  (projector): Linear(in_features=128, out_features=2, bias=True)
)",charCNN,0.2,0.025,runs/May15_15-32-41_phobos-aijun_AttentionedYoonKim_lr3_dropout0.5_noise_level0.025_spacy_wordlen8_heads1_IMDB,IMDB binary classification,298416
47,0.63896,0.9053176470588236,"MaxWordLen 8, MaxTexLen 32",0.5,30,0.6375973660965228,0.9052998211428033,,0.001,"AttentionedYoonKimModel(
  (embedding): Linear(in_features=74, out_features=74, bias=True)
  (chars_cnn): Sequential(
    (0): Conv1d(74, 256, kernel_size=(5,), stride=(1,), padding=(2,))
    (1): ReLU()
    (2): MaxPool1d(kernel_size=8, stride=8, padding=0, dilation=1, ceil_mode=False)
  )
  (words_rnn): GRU(256, 128, dropout=0.5)
  (attention): MultiHeadAttention(
    (query_layer): Linear(in_features=128, out_features=128, bias=False)
    (key_layer): Linear(in_features=128, out_features=128, bias=False)
    (value_layer): Linear(in_features=128, out_features=128, bias=False)
    (bn): BatchNorm1d(128, eps=1e-05, momentum=0.1, affine=True)
  )
  (projector): Linear(in_features=128, out_features=2, bias=True)
)",charCNN,-1.0,0.025,runs/May15_15-32-41_phobos-aijun_AttentionedYoonKim_lr3_dropout0.5_noise_level0.025_spacy_wordlen8_heads1_IMDB,IMDB binary classification,298416
48,0.64648,0.8169411764705883,"MaxWordLen 8, MaxTexLen 32",0.5,30,0.6200017198383352,0.8028383172833249,,0.001,"AttentionedYoonKimModel(
  (embedding): Linear(in_features=74, out_features=74, bias=True)
  (chars_cnn): Sequential(
    (0): Conv1d(74, 256, kernel_size=(5,), stride=(1,), padding=(2,))
    (1): ReLU()
    (2): MaxPool1d(kernel_size=8, stride=8, padding=0, dilation=1, ceil_mode=False)
  )
  (words_rnn): GRU(256, 128, dropout=0.5)
  (attention): MultiHeadAttention(
    (query_layer): Linear(in_features=128, out_features=128, bias=False)
    (key_layer): Linear(in_features=128, out_features=128, bias=False)
    (value_layer): Linear(in_features=128, out_features=128, bias=False)
    (bn): BatchNorm1d(128, eps=1e-05, momentum=0.1, affine=True)
  )
  (projector): Linear(in_features=128, out_features=2, bias=True)
)",charCNN,0.0,0.05,runs/May15_16-06-50_phobos-aijun_AttentionedYoonKim_lr3_dropout0.5_noise_level0.05_spacy_wordlen8_heads1_IMDB,IMDB binary classification,298416
49,0.6426,0.8169411764705883,"MaxWordLen 8, MaxTexLen 32",0.5,30,0.6160787178275254,0.8028383172833249,,0.001,"AttentionedYoonKimModel(
  (embedding): Linear(in_features=74, out_features=74, bias=True)
  (chars_cnn): Sequential(
    (0): Conv1d(74, 256, kernel_size=(5,), stride=(1,), padding=(2,))
    (1): ReLU()
    (2): MaxPool1d(kernel_size=8, stride=8, padding=0, dilation=1, ceil_mode=False)
  )
  (words_rnn): GRU(256, 128, dropout=0.5)
  (attention): MultiHeadAttention(
    (query_layer): Linear(in_features=128, out_features=128, bias=False)
    (key_layer): Linear(in_features=128, out_features=128, bias=False)
    (value_layer): Linear(in_features=128, out_features=128, bias=False)
    (bn): BatchNorm1d(128, eps=1e-05, momentum=0.1, affine=True)
  )
  (projector): Linear(in_features=128, out_features=2, bias=True)
)",charCNN,0.005,0.05,runs/May15_16-06-50_phobos-aijun_AttentionedYoonKim_lr3_dropout0.5_noise_level0.05_spacy_wordlen8_heads1_IMDB,IMDB binary classification,298416
50,0.64108,0.8169411764705883,"MaxWordLen 8, MaxTexLen 32",0.5,30,0.6139815013981502,0.8028383172833249,,0.001,"AttentionedYoonKimModel(
  (embedding): Linear(in_features=74, out_features=74, bias=True)
  (chars_cnn): Sequential(
    (0): Conv1d(74, 256, kernel_size=(5,), stride=(1,), padding=(2,))
    (1): ReLU()
    (2): MaxPool1d(kernel_size=8, stride=8, padding=0, dilation=1, ceil_mode=False)
  )
  (words_rnn): GRU(256, 128, dropout=0.5)
  (attention): MultiHeadAttention(
    (query_layer): Linear(in_features=128, out_features=128, bias=False)
    (key_layer): Linear(in_features=128, out_features=128, bias=False)
    (value_layer): Linear(in_features=128, out_features=128, bias=False)
    (bn): BatchNorm1d(128, eps=1e-05, momentum=0.1, affine=True)
  )
  (projector): Linear(in_features=128, out_features=2, bias=True)
)",charCNN,0.01,0.05,runs/May15_16-06-50_phobos-aijun_AttentionedYoonKim_lr3_dropout0.5_noise_level0.05_spacy_wordlen8_heads1_IMDB,IMDB binary classification,298416
51,0.63364,0.8169411764705883,"MaxWordLen 8, MaxTexLen 32",0.5,30,0.6040721047853715,0.8028383172833249,,0.001,"AttentionedYoonKimModel(
  (embedding): Linear(in_features=74, out_features=74, bias=True)
  (chars_cnn): Sequential(
    (0): Conv1d(74, 256, kernel_size=(5,), stride=(1,), padding=(2,))
    (1): ReLU()
    (2): MaxPool1d(kernel_size=8, stride=8, padding=0, dilation=1, ceil_mode=False)
  )
  (words_rnn): GRU(256, 128, dropout=0.5)
  (attention): MultiHeadAttention(
    (query_layer): Linear(in_features=128, out_features=128, bias=False)
    (key_layer): Linear(in_features=128, out_features=128, bias=False)
    (value_layer): Linear(in_features=128, out_features=128, bias=False)
    (bn): BatchNorm1d(128, eps=1e-05, momentum=0.1, affine=True)
  )
  (projector): Linear(in_features=128, out_features=2, bias=True)
)",charCNN,0.025,0.05,runs/May15_16-06-50_phobos-aijun_AttentionedYoonKim_lr3_dropout0.5_noise_level0.05_spacy_wordlen8_heads1_IMDB,IMDB binary classification,298416
52,0.61508,0.8169411764705883,"MaxWordLen 8, MaxTexLen 32",0.5,30,0.5828239476308146,0.8028383172833249,,0.001,"AttentionedYoonKimModel(
  (embedding): Linear(in_features=74, out_features=74, bias=True)
  (chars_cnn): Sequential(
    (0): Conv1d(74, 256, kernel_size=(5,), stride=(1,), padding=(2,))
    (1): ReLU()
    (2): MaxPool1d(kernel_size=8, stride=8, padding=0, dilation=1, ceil_mode=False)
  )
  (words_rnn): GRU(256, 128, dropout=0.5)
  (attention): MultiHeadAttention(
    (query_layer): Linear(in_features=128, out_features=128, bias=False)
    (key_layer): Linear(in_features=128, out_features=128, bias=False)
    (value_layer): Linear(in_features=128, out_features=128, bias=False)
    (bn): BatchNorm1d(128, eps=1e-05, momentum=0.1, affine=True)
  )
  (projector): Linear(in_features=128, out_features=2, bias=True)
)",charCNN,0.05,0.05,runs/May15_16-06-50_phobos-aijun_AttentionedYoonKim_lr3_dropout0.5_noise_level0.05_spacy_wordlen8_heads1_IMDB,IMDB binary classification,298416
53,0.60596,0.8169411764705883,"MaxWordLen 8, MaxTexLen 32",0.5,30,0.569919231608819,0.8028383172833249,,0.001,"AttentionedYoonKimModel(
  (embedding): Linear(in_features=74, out_features=74, bias=True)
  (chars_cnn): Sequential(
    (0): Conv1d(74, 256, kernel_size=(5,), stride=(1,), padding=(2,))
    (1): ReLU()
    (2): MaxPool1d(kernel_size=8, stride=8, padding=0, dilation=1, ceil_mode=False)
  )
  (words_rnn): GRU(256, 128, dropout=0.5)
  (attention): MultiHeadAttention(
    (query_layer): Linear(in_features=128, out_features=128, bias=False)
    (key_layer): Linear(in_features=128, out_features=128, bias=False)
    (value_layer): Linear(in_features=128, out_features=128, bias=False)
    (bn): BatchNorm1d(128, eps=1e-05, momentum=0.1, affine=True)
  )
  (projector): Linear(in_features=128, out_features=2, bias=True)
)",charCNN,0.075,0.05,runs/May15_16-06-50_phobos-aijun_AttentionedYoonKim_lr3_dropout0.5_noise_level0.05_spacy_wordlen8_heads1_IMDB,IMDB binary classification,298416
54,0.59484,0.8169411764705883,"MaxWordLen 8, MaxTexLen 32",0.5,30,0.5540832049306625,0.8028383172833249,,0.001,"AttentionedYoonKimModel(
  (embedding): Linear(in_features=74, out_features=74, bias=True)
  (chars_cnn): Sequential(
    (0): Conv1d(74, 256, kernel_size=(5,), stride=(1,), padding=(2,))
    (1): ReLU()
    (2): MaxPool1d(kernel_size=8, stride=8, padding=0, dilation=1, ceil_mode=False)
  )
  (words_rnn): GRU(256, 128, dropout=0.5)
  (attention): MultiHeadAttention(
    (query_layer): Linear(in_features=128, out_features=128, bias=False)
    (key_layer): Linear(in_features=128, out_features=128, bias=False)
    (value_layer): Linear(in_features=128, out_features=128, bias=False)
    (bn): BatchNorm1d(128, eps=1e-05, momentum=0.1, affine=True)
  )
  (projector): Linear(in_features=128, out_features=2, bias=True)
)",charCNN,0.1,0.05,runs/May15_16-06-50_phobos-aijun_AttentionedYoonKim_lr3_dropout0.5_noise_level0.05_spacy_wordlen8_heads1_IMDB,IMDB binary classification,298416
55,0.58488,0.8169411764705883,"MaxWordLen 8, MaxTexLen 32",0.5,30,0.5423758708880854,0.8028383172833249,,0.001,"AttentionedYoonKimModel(
  (embedding): Linear(in_features=74, out_features=74, bias=True)
  (chars_cnn): Sequential(
    (0): Conv1d(74, 256, kernel_size=(5,), stride=(1,), padding=(2,))
    (1): ReLU()
    (2): MaxPool1d(kernel_size=8, stride=8, padding=0, dilation=1, ceil_mode=False)
  )
  (words_rnn): GRU(256, 128, dropout=0.5)
  (attention): MultiHeadAttention(
    (query_layer): Linear(in_features=128, out_features=128, bias=False)
    (key_layer): Linear(in_features=128, out_features=128, bias=False)
    (value_layer): Linear(in_features=128, out_features=128, bias=False)
    (bn): BatchNorm1d(128, eps=1e-05, momentum=0.1, affine=True)
  )
  (projector): Linear(in_features=128, out_features=2, bias=True)
)",charCNN,0.125,0.05,runs/May15_16-06-50_phobos-aijun_AttentionedYoonKim_lr3_dropout0.5_noise_level0.05_spacy_wordlen8_heads1_IMDB,IMDB binary classification,298416
56,0.57292,0.8169411764705883,"MaxWordLen 8, MaxTexLen 32",0.5,30,0.5245580442623682,0.8028383172833249,,0.001,"AttentionedYoonKimModel(
  (embedding): Linear(in_features=74, out_features=74, bias=True)
  (chars_cnn): Sequential(
    (0): Conv1d(74, 256, kernel_size=(5,), stride=(1,), padding=(2,))
    (1): ReLU()
    (2): MaxPool1d(kernel_size=8, stride=8, padding=0, dilation=1, ceil_mode=False)
  )
  (words_rnn): GRU(256, 128, dropout=0.5)
  (attention): MultiHeadAttention(
    (query_layer): Linear(in_features=128, out_features=128, bias=False)
    (key_layer): Linear(in_features=128, out_features=128, bias=False)
    (value_layer): Linear(in_features=128, out_features=128, bias=False)
    (bn): BatchNorm1d(128, eps=1e-05, momentum=0.1, affine=True)
  )
  (projector): Linear(in_features=128, out_features=2, bias=True)
)",charCNN,0.15,0.05,runs/May15_16-06-50_phobos-aijun_AttentionedYoonKim_lr3_dropout0.5_noise_level0.05_spacy_wordlen8_heads1_IMDB,IMDB binary classification,298416
57,0.5652,0.8169411764705883,"MaxWordLen 8, MaxTexLen 32",0.5,30,0.5153379703941502,0.8028383172833249,,0.001,"AttentionedYoonKimModel(
  (embedding): Linear(in_features=74, out_features=74, bias=True)
  (chars_cnn): Sequential(
    (0): Conv1d(74, 256, kernel_size=(5,), stride=(1,), padding=(2,))
    (1): ReLU()
    (2): MaxPool1d(kernel_size=8, stride=8, padding=0, dilation=1, ceil_mode=False)
  )
  (words_rnn): GRU(256, 128, dropout=0.5)
  (attention): MultiHeadAttention(
    (query_layer): Linear(in_features=128, out_features=128, bias=False)
    (key_layer): Linear(in_features=128, out_features=128, bias=False)
    (value_layer): Linear(in_features=128, out_features=128, bias=False)
    (bn): BatchNorm1d(128, eps=1e-05, momentum=0.1, affine=True)
  )
  (projector): Linear(in_features=128, out_features=2, bias=True)
)",charCNN,0.175,0.05,runs/May15_16-06-50_phobos-aijun_AttentionedYoonKim_lr3_dropout0.5_noise_level0.05_spacy_wordlen8_heads1_IMDB,IMDB binary classification,298416
58,0.55588,0.8169411764705883,"MaxWordLen 8, MaxTexLen 32",0.5,30,0.5005622779002294,0.8028383172833249,,0.001,"AttentionedYoonKimModel(
  (embedding): Linear(in_features=74, out_features=74, bias=True)
  (chars_cnn): Sequential(
    (0): Conv1d(74, 256, kernel_size=(5,), stride=(1,), padding=(2,))
    (1): ReLU()
    (2): MaxPool1d(kernel_size=8, stride=8, padding=0, dilation=1, ceil_mode=False)
  )
  (words_rnn): GRU(256, 128, dropout=0.5)
  (attention): MultiHeadAttention(
    (query_layer): Linear(in_features=128, out_features=128, bias=False)
    (key_layer): Linear(in_features=128, out_features=128, bias=False)
    (value_layer): Linear(in_features=128, out_features=128, bias=False)
    (bn): BatchNorm1d(128, eps=1e-05, momentum=0.1, affine=True)
  )
  (projector): Linear(in_features=128, out_features=2, bias=True)
)",charCNN,0.2,0.05,runs/May15_16-06-50_phobos-aijun_AttentionedYoonKim_lr3_dropout0.5_noise_level0.05_spacy_wordlen8_heads1_IMDB,IMDB binary classification,298416
59,0.6216,0.8169411764705883,"MaxWordLen 8, MaxTexLen 32",0.5,30,0.5889101338432123,0.8028383172833249,,0.001,"AttentionedYoonKimModel(
  (embedding): Linear(in_features=74, out_features=74, bias=True)
  (chars_cnn): Sequential(
    (0): Conv1d(74, 256, kernel_size=(5,), stride=(1,), padding=(2,))
    (1): ReLU()
    (2): MaxPool1d(kernel_size=8, stride=8, padding=0, dilation=1, ceil_mode=False)
  )
  (words_rnn): GRU(256, 128, dropout=0.5)
  (attention): MultiHeadAttention(
    (query_layer): Linear(in_features=128, out_features=128, bias=False)
    (key_layer): Linear(in_features=128, out_features=128, bias=False)
    (value_layer): Linear(in_features=128, out_features=128, bias=False)
    (bn): BatchNorm1d(128, eps=1e-05, momentum=0.1, affine=True)
  )
  (projector): Linear(in_features=128, out_features=2, bias=True)
)",charCNN,-1.0,0.05,runs/May15_16-06-50_phobos-aijun_AttentionedYoonKim_lr3_dropout0.5_noise_level0.05_spacy_wordlen8_heads1_IMDB,IMDB binary classification,298416
