,acc_test,acc_train,data_desc,dropout,epochs,f1_test,f1_train,init_function,lr,model_desc,model_type,noise_level_test,noise_level_train,task,trainable_params
0,0.73676,0.9999111111111111,Maxlen 512,0.5,30,0.7368547322963732,0.9999111348084955,<function xavier_normal at 0x7f1aa4d2d048>,0.0001,"CharCNN(
  (embedding): Linear(in_features=74, out_features=74, bias=True)
  (conv): Sequential(
    (0): Conv1d(74, 256, kernel_size=(15,), stride=(2,))
    (1): ReLU()
    (2): MaxPool1d(kernel_size=64, stride=32, padding=0, dilation=1, ceil_mode=False)
  )
  (fc): Linear(in_features=1536, out_features=2, bias=True)
)",charCNN,0.0,0.0,IMDB binary classification,293040
1,0.7262,0.9999111111111111,Maxlen 512,0.5,30,0.7240030643925649,0.9999111348084955,<function xavier_normal at 0x7f1aa4d2d048>,0.0001,"CharCNN(
  (embedding): Linear(in_features=74, out_features=74, bias=True)
  (conv): Sequential(
    (0): Conv1d(74, 256, kernel_size=(15,), stride=(2,))
    (1): ReLU()
    (2): MaxPool1d(kernel_size=64, stride=32, padding=0, dilation=1, ceil_mode=False)
  )
  (fc): Linear(in_features=1536, out_features=2, bias=True)
)",charCNN,0.01,0.0,IMDB binary classification,293040
2,0.70908,0.9999111111111111,Maxlen 512,0.5,30,0.7048175656479565,0.9999111348084955,<function xavier_normal at 0x7f1aa4d2d048>,0.0001,"CharCNN(
  (embedding): Linear(in_features=74, out_features=74, bias=True)
  (conv): Sequential(
    (0): Conv1d(74, 256, kernel_size=(15,), stride=(2,))
    (1): ReLU()
    (2): MaxPool1d(kernel_size=64, stride=32, padding=0, dilation=1, ceil_mode=False)
  )
  (fc): Linear(in_features=1536, out_features=2, bias=True)
)",charCNN,0.025,0.0,IMDB binary classification,293040
3,0.68784,0.9999111111111111,Maxlen 512,0.5,30,0.6789005924950626,0.9999111348084955,<function xavier_normal at 0x7f1aa4d2d048>,0.0001,"CharCNN(
  (embedding): Linear(in_features=74, out_features=74, bias=True)
  (conv): Sequential(
    (0): Conv1d(74, 256, kernel_size=(15,), stride=(2,))
    (1): ReLU()
    (2): MaxPool1d(kernel_size=64, stride=32, padding=0, dilation=1, ceil_mode=False)
  )
  (fc): Linear(in_features=1536, out_features=2, bias=True)
)",charCNN,0.05,0.0,IMDB binary classification,293040
4,0.66316,0.9999111111111111,Maxlen 512,0.5,30,0.6459533319318899,0.9999111348084955,<function xavier_normal at 0x7f1aa4d2d048>,0.0001,"CharCNN(
  (embedding): Linear(in_features=74, out_features=74, bias=True)
  (conv): Sequential(
    (0): Conv1d(74, 256, kernel_size=(15,), stride=(2,))
    (1): ReLU()
    (2): MaxPool1d(kernel_size=64, stride=32, padding=0, dilation=1, ceil_mode=False)
  )
  (fc): Linear(in_features=1536, out_features=2, bias=True)
)",charCNN,0.075,0.0,IMDB binary classification,293040
5,0.64944,0.9999111111111111,Maxlen 512,0.5,30,0.6244429208090503,0.9999111348084955,<function xavier_normal at 0x7f1aa4d2d048>,0.0001,"CharCNN(
  (embedding): Linear(in_features=74, out_features=74, bias=True)
  (conv): Sequential(
    (0): Conv1d(74, 256, kernel_size=(15,), stride=(2,))
    (1): ReLU()
    (2): MaxPool1d(kernel_size=64, stride=32, padding=0, dilation=1, ceil_mode=False)
  )
  (fc): Linear(in_features=1536, out_features=2, bias=True)
)",charCNN,0.1,0.0,IMDB binary classification,293040
6,0.632,0.9999111111111111,Maxlen 512,0.5,30,0.5942847062974069,0.9999111348084955,<function xavier_normal at 0x7f1aa4d2d048>,0.0001,"CharCNN(
  (embedding): Linear(in_features=74, out_features=74, bias=True)
  (conv): Sequential(
    (0): Conv1d(74, 256, kernel_size=(15,), stride=(2,))
    (1): ReLU()
    (2): MaxPool1d(kernel_size=64, stride=32, padding=0, dilation=1, ceil_mode=False)
  )
  (fc): Linear(in_features=1536, out_features=2, bias=True)
)",charCNN,0.125,0.0,IMDB binary classification,293040
7,0.61828,0.9999111111111111,Maxlen 512,0.5,30,0.5706573086786341,0.9999111348084955,<function xavier_normal at 0x7f1aa4d2d048>,0.0001,"CharCNN(
  (embedding): Linear(in_features=74, out_features=74, bias=True)
  (conv): Sequential(
    (0): Conv1d(74, 256, kernel_size=(15,), stride=(2,))
    (1): ReLU()
    (2): MaxPool1d(kernel_size=64, stride=32, padding=0, dilation=1, ceil_mode=False)
  )
  (fc): Linear(in_features=1536, out_features=2, bias=True)
)",charCNN,0.15,0.0,IMDB binary classification,293040
8,0.60816,0.9999111111111111,Maxlen 512,0.5,30,0.5462714219546086,0.9999111348084955,<function xavier_normal at 0x7f1aa4d2d048>,0.0001,"CharCNN(
  (embedding): Linear(in_features=74, out_features=74, bias=True)
  (conv): Sequential(
    (0): Conv1d(74, 256, kernel_size=(15,), stride=(2,))
    (1): ReLU()
    (2): MaxPool1d(kernel_size=64, stride=32, padding=0, dilation=1, ceil_mode=False)
  )
  (fc): Linear(in_features=1536, out_features=2, bias=True)
)",charCNN,0.175,0.0,IMDB binary classification,293040
9,0.59404,0.9999111111111111,Maxlen 512,0.5,30,0.5153063661110846,0.9999111348084955,<function xavier_normal at 0x7f1aa4d2d048>,0.0001,"CharCNN(
  (embedding): Linear(in_features=74, out_features=74, bias=True)
  (conv): Sequential(
    (0): Conv1d(74, 256, kernel_size=(15,), stride=(2,))
    (1): ReLU()
    (2): MaxPool1d(kernel_size=64, stride=32, padding=0, dilation=1, ceil_mode=False)
  )
  (fc): Linear(in_features=1536, out_features=2, bias=True)
)",charCNN,0.2,0.0,IMDB binary classification,293040
10,0.76268,0.8798222222222222,Maxlen 512,0.5,30,0.7865904104168916,0.8893617021276595,<function xavier_normal at 0x7f1aa4d2d048>,0.0001,"CharCNN(
  (embedding): Linear(in_features=74, out_features=74, bias=True)
  (conv): Sequential(
    (0): Conv1d(74, 256, kernel_size=(15,), stride=(2,))
    (1): ReLU()
    (2): MaxPool1d(kernel_size=64, stride=32, padding=0, dilation=1, ceil_mode=False)
  )
  (fc): Linear(in_features=1536, out_features=2, bias=True)
)",charCNN,0.0,0.01,IMDB binary classification,293040
11,0.7544,0.8798222222222222,Maxlen 512,0.5,30,0.7788343779266623,0.8893617021276595,<function xavier_normal at 0x7f1aa4d2d048>,0.0001,"CharCNN(
  (embedding): Linear(in_features=74, out_features=74, bias=True)
  (conv): Sequential(
    (0): Conv1d(74, 256, kernel_size=(15,), stride=(2,))
    (1): ReLU()
    (2): MaxPool1d(kernel_size=64, stride=32, padding=0, dilation=1, ceil_mode=False)
  )
  (fc): Linear(in_features=1536, out_features=2, bias=True)
)",charCNN,0.01,0.01,IMDB binary classification,293040
12,0.74272,0.8798222222222222,Maxlen 512,0.5,30,0.7681995098745856,0.8893617021276595,<function xavier_normal at 0x7f1aa4d2d048>,0.0001,"CharCNN(
  (embedding): Linear(in_features=74, out_features=74, bias=True)
  (conv): Sequential(
    (0): Conv1d(74, 256, kernel_size=(15,), stride=(2,))
    (1): ReLU()
    (2): MaxPool1d(kernel_size=64, stride=32, padding=0, dilation=1, ceil_mode=False)
  )
  (fc): Linear(in_features=1536, out_features=2, bias=True)
)",charCNN,0.025,0.01,IMDB binary classification,293040
13,0.72328,0.8798222222222222,Maxlen 512,0.5,30,0.7515264707995115,0.8893617021276595,<function xavier_normal at 0x7f1aa4d2d048>,0.0001,"CharCNN(
  (embedding): Linear(in_features=74, out_features=74, bias=True)
  (conv): Sequential(
    (0): Conv1d(74, 256, kernel_size=(15,), stride=(2,))
    (1): ReLU()
    (2): MaxPool1d(kernel_size=64, stride=32, padding=0, dilation=1, ceil_mode=False)
  )
  (fc): Linear(in_features=1536, out_features=2, bias=True)
)",charCNN,0.05,0.01,IMDB binary classification,293040
14,0.70664,0.8798222222222222,Maxlen 512,0.5,30,0.7361490861994532,0.8893617021276595,<function xavier_normal at 0x7f1aa4d2d048>,0.0001,"CharCNN(
  (embedding): Linear(in_features=74, out_features=74, bias=True)
  (conv): Sequential(
    (0): Conv1d(74, 256, kernel_size=(15,), stride=(2,))
    (1): ReLU()
    (2): MaxPool1d(kernel_size=64, stride=32, padding=0, dilation=1, ceil_mode=False)
  )
  (fc): Linear(in_features=1536, out_features=2, bias=True)
)",charCNN,0.075,0.01,IMDB binary classification,293040
15,0.69276,0.8798222222222222,Maxlen 512,0.5,30,0.7223768388332671,0.8893617021276595,<function xavier_normal at 0x7f1aa4d2d048>,0.0001,"CharCNN(
  (embedding): Linear(in_features=74, out_features=74, bias=True)
  (conv): Sequential(
    (0): Conv1d(74, 256, kernel_size=(15,), stride=(2,))
    (1): ReLU()
    (2): MaxPool1d(kernel_size=64, stride=32, padding=0, dilation=1, ceil_mode=False)
  )
  (fc): Linear(in_features=1536, out_features=2, bias=True)
)",charCNN,0.1,0.01,IMDB binary classification,293040
16,0.671,0.8798222222222222,Maxlen 512,0.5,30,0.7005715533874549,0.8893617021276595,<function xavier_normal at 0x7f1aa4d2d048>,0.0001,"CharCNN(
  (embedding): Linear(in_features=74, out_features=74, bias=True)
  (conv): Sequential(
    (0): Conv1d(74, 256, kernel_size=(15,), stride=(2,))
    (1): ReLU()
    (2): MaxPool1d(kernel_size=64, stride=32, padding=0, dilation=1, ceil_mode=False)
  )
  (fc): Linear(in_features=1536, out_features=2, bias=True)
)",charCNN,0.125,0.01,IMDB binary classification,293040
17,0.66024,0.8798222222222222,Maxlen 512,0.5,30,0.6895013890919724,0.8893617021276595,<function xavier_normal at 0x7f1aa4d2d048>,0.0001,"CharCNN(
  (embedding): Linear(in_features=74, out_features=74, bias=True)
  (conv): Sequential(
    (0): Conv1d(74, 256, kernel_size=(15,), stride=(2,))
    (1): ReLU()
    (2): MaxPool1d(kernel_size=64, stride=32, padding=0, dilation=1, ceil_mode=False)
  )
  (fc): Linear(in_features=1536, out_features=2, bias=True)
)",charCNN,0.15,0.01,IMDB binary classification,293040
18,0.6476,0.8798222222222222,Maxlen 512,0.5,30,0.6730983302411873,0.8893617021276595,<function xavier_normal at 0x7f1aa4d2d048>,0.0001,"CharCNN(
  (embedding): Linear(in_features=74, out_features=74, bias=True)
  (conv): Sequential(
    (0): Conv1d(74, 256, kernel_size=(15,), stride=(2,))
    (1): ReLU()
    (2): MaxPool1d(kernel_size=64, stride=32, padding=0, dilation=1, ceil_mode=False)
  )
  (fc): Linear(in_features=1536, out_features=2, bias=True)
)",charCNN,0.175,0.01,IMDB binary classification,293040
19,0.63068,0.8798222222222222,Maxlen 512,0.5,30,0.6536889088931397,0.8893617021276595,<function xavier_normal at 0x7f1aa4d2d048>,0.0001,"CharCNN(
  (embedding): Linear(in_features=74, out_features=74, bias=True)
  (conv): Sequential(
    (0): Conv1d(74, 256, kernel_size=(15,), stride=(2,))
    (1): ReLU()
    (2): MaxPool1d(kernel_size=64, stride=32, padding=0, dilation=1, ceil_mode=False)
  )
  (fc): Linear(in_features=1536, out_features=2, bias=True)
)",charCNN,0.2,0.01,IMDB binary classification,293040
20,0.7668,0.8442222222222222,Maxlen 512,0.5,30,0.7850612004129185,0.8558384403405586,<function xavier_normal at 0x7f1aa4d2d048>,0.0001,"CharCNN(
  (embedding): Linear(in_features=74, out_features=74, bias=True)
  (conv): Sequential(
    (0): Conv1d(74, 256, kernel_size=(15,), stride=(2,))
    (1): ReLU()
    (2): MaxPool1d(kernel_size=64, stride=32, padding=0, dilation=1, ceil_mode=False)
  )
  (fc): Linear(in_features=1536, out_features=2, bias=True)
)",charCNN,0.0,0.025,IMDB binary classification,293040
21,0.75852,0.8442222222222222,Maxlen 512,0.5,30,0.7784017912858349,0.8558384403405586,<function xavier_normal at 0x7f1aa4d2d048>,0.0001,"CharCNN(
  (embedding): Linear(in_features=74, out_features=74, bias=True)
  (conv): Sequential(
    (0): Conv1d(74, 256, kernel_size=(15,), stride=(2,))
    (1): ReLU()
    (2): MaxPool1d(kernel_size=64, stride=32, padding=0, dilation=1, ceil_mode=False)
  )
  (fc): Linear(in_features=1536, out_features=2, bias=True)
)",charCNN,0.01,0.025,IMDB binary classification,293040
22,0.75008,0.8442222222222222,Maxlen 512,0.5,30,0.7710013194546254,0.8558384403405586,<function xavier_normal at 0x7f1aa4d2d048>,0.0001,"CharCNN(
  (embedding): Linear(in_features=74, out_features=74, bias=True)
  (conv): Sequential(
    (0): Conv1d(74, 256, kernel_size=(15,), stride=(2,))
    (1): ReLU()
    (2): MaxPool1d(kernel_size=64, stride=32, padding=0, dilation=1, ceil_mode=False)
  )
  (fc): Linear(in_features=1536, out_features=2, bias=True)
)",charCNN,0.025,0.025,IMDB binary classification,293040
23,0.73488,0.8442222222222222,Maxlen 512,0.5,30,0.7567527891955372,0.8558384403405586,<function xavier_normal at 0x7f1aa4d2d048>,0.0001,"CharCNN(
  (embedding): Linear(in_features=74, out_features=74, bias=True)
  (conv): Sequential(
    (0): Conv1d(74, 256, kernel_size=(15,), stride=(2,))
    (1): ReLU()
    (2): MaxPool1d(kernel_size=64, stride=32, padding=0, dilation=1, ceil_mode=False)
  )
  (fc): Linear(in_features=1536, out_features=2, bias=True)
)",charCNN,0.05,0.025,IMDB binary classification,293040
24,0.7258,0.8442222222222222,Maxlen 512,0.5,30,0.7464585567925436,0.8558384403405586,<function xavier_normal at 0x7f1aa4d2d048>,0.0001,"CharCNN(
  (embedding): Linear(in_features=74, out_features=74, bias=True)
  (conv): Sequential(
    (0): Conv1d(74, 256, kernel_size=(15,), stride=(2,))
    (1): ReLU()
    (2): MaxPool1d(kernel_size=64, stride=32, padding=0, dilation=1, ceil_mode=False)
  )
  (fc): Linear(in_features=1536, out_features=2, bias=True)
)",charCNN,0.075,0.025,IMDB binary classification,293040
25,0.70704,0.8442222222222222,Maxlen 512,0.5,30,0.7276715996132966,0.8558384403405586,<function xavier_normal at 0x7f1aa4d2d048>,0.0001,"CharCNN(
  (embedding): Linear(in_features=74, out_features=74, bias=True)
  (conv): Sequential(
    (0): Conv1d(74, 256, kernel_size=(15,), stride=(2,))
    (1): ReLU()
    (2): MaxPool1d(kernel_size=64, stride=32, padding=0, dilation=1, ceil_mode=False)
  )
  (fc): Linear(in_features=1536, out_features=2, bias=True)
)",charCNN,0.1,0.025,IMDB binary classification,293040
26,0.6954,0.8442222222222222,Maxlen 512,0.5,30,0.71495414561108,0.8558384403405586,<function xavier_normal at 0x7f1aa4d2d048>,0.0001,"CharCNN(
  (embedding): Linear(in_features=74, out_features=74, bias=True)
  (conv): Sequential(
    (0): Conv1d(74, 256, kernel_size=(15,), stride=(2,))
    (1): ReLU()
    (2): MaxPool1d(kernel_size=64, stride=32, padding=0, dilation=1, ceil_mode=False)
  )
  (fc): Linear(in_features=1536, out_features=2, bias=True)
)",charCNN,0.125,0.025,IMDB binary classification,293040
27,0.6834,0.8442222222222222,Maxlen 512,0.5,30,0.700857931138743,0.8558384403405586,<function xavier_normal at 0x7f1aa4d2d048>,0.0001,"CharCNN(
  (embedding): Linear(in_features=74, out_features=74, bias=True)
  (conv): Sequential(
    (0): Conv1d(74, 256, kernel_size=(15,), stride=(2,))
    (1): ReLU()
    (2): MaxPool1d(kernel_size=64, stride=32, padding=0, dilation=1, ceil_mode=False)
  )
  (fc): Linear(in_features=1536, out_features=2, bias=True)
)",charCNN,0.15,0.025,IMDB binary classification,293040
28,0.67088,0.8442222222222222,Maxlen 512,0.5,30,0.6851128970531956,0.8558384403405586,<function xavier_normal at 0x7f1aa4d2d048>,0.0001,"CharCNN(
  (embedding): Linear(in_features=74, out_features=74, bias=True)
  (conv): Sequential(
    (0): Conv1d(74, 256, kernel_size=(15,), stride=(2,))
    (1): ReLU()
    (2): MaxPool1d(kernel_size=64, stride=32, padding=0, dilation=1, ceil_mode=False)
  )
  (fc): Linear(in_features=1536, out_features=2, bias=True)
)",charCNN,0.175,0.025,IMDB binary classification,293040
29,0.65584,0.8442222222222222,Maxlen 512,0.5,30,0.6671566731141199,0.8558384403405586,<function xavier_normal at 0x7f1aa4d2d048>,0.0001,"CharCNN(
  (embedding): Linear(in_features=74, out_features=74, bias=True)
  (conv): Sequential(
    (0): Conv1d(74, 256, kernel_size=(15,), stride=(2,))
    (1): ReLU()
    (2): MaxPool1d(kernel_size=64, stride=32, padding=0, dilation=1, ceil_mode=False)
  )
  (fc): Linear(in_features=1536, out_features=2, bias=True)
)",charCNN,0.2,0.025,IMDB binary classification,293040
30,0.77292,0.8102222222222222,Maxlen 512,0.5,30,0.7790104714079955,0.8121590709132501,<function xavier_normal at 0x7f1aa4d2d048>,0.0001,"CharCNN(
  (embedding): Linear(in_features=74, out_features=74, bias=True)
  (conv): Sequential(
    (0): Conv1d(74, 256, kernel_size=(15,), stride=(2,))
    (1): ReLU()
    (2): MaxPool1d(kernel_size=64, stride=32, padding=0, dilation=1, ceil_mode=False)
  )
  (fc): Linear(in_features=1536, out_features=2, bias=True)
)",charCNN,0.0,0.05,IMDB binary classification,293040
31,0.76736,0.8102222222222222,Maxlen 512,0.5,30,0.7723857232310583,0.8121590709132501,<function xavier_normal at 0x7f1aa4d2d048>,0.0001,"CharCNN(
  (embedding): Linear(in_features=74, out_features=74, bias=True)
  (conv): Sequential(
    (0): Conv1d(74, 256, kernel_size=(15,), stride=(2,))
    (1): ReLU()
    (2): MaxPool1d(kernel_size=64, stride=32, padding=0, dilation=1, ceil_mode=False)
  )
  (fc): Linear(in_features=1536, out_features=2, bias=True)
)",charCNN,0.01,0.05,IMDB binary classification,293040
32,0.76412,0.8102222222222222,Maxlen 512,0.5,30,0.7685544958593351,0.8121590709132501,<function xavier_normal at 0x7f1aa4d2d048>,0.0001,"CharCNN(
  (embedding): Linear(in_features=74, out_features=74, bias=True)
  (conv): Sequential(
    (0): Conv1d(74, 256, kernel_size=(15,), stride=(2,))
    (1): ReLU()
    (2): MaxPool1d(kernel_size=64, stride=32, padding=0, dilation=1, ceil_mode=False)
  )
  (fc): Linear(in_features=1536, out_features=2, bias=True)
)",charCNN,0.025,0.05,IMDB binary classification,293040
33,0.74996,0.8102222222222222,Maxlen 512,0.5,30,0.7519739713526168,0.8121590709132501,<function xavier_normal at 0x7f1aa4d2d048>,0.0001,"CharCNN(
  (embedding): Linear(in_features=74, out_features=74, bias=True)
  (conv): Sequential(
    (0): Conv1d(74, 256, kernel_size=(15,), stride=(2,))
    (1): ReLU()
    (2): MaxPool1d(kernel_size=64, stride=32, padding=0, dilation=1, ceil_mode=False)
  )
  (fc): Linear(in_features=1536, out_features=2, bias=True)
)",charCNN,0.05,0.05,IMDB binary classification,293040
34,0.73376,0.8102222222222222,Maxlen 512,0.5,30,0.7323037323037324,0.8121590709132501,<function xavier_normal at 0x7f1aa4d2d048>,0.0001,"CharCNN(
  (embedding): Linear(in_features=74, out_features=74, bias=True)
  (conv): Sequential(
    (0): Conv1d(74, 256, kernel_size=(15,), stride=(2,))
    (1): ReLU()
    (2): MaxPool1d(kernel_size=64, stride=32, padding=0, dilation=1, ceil_mode=False)
  )
  (fc): Linear(in_features=1536, out_features=2, bias=True)
)",charCNN,0.075,0.05,IMDB binary classification,293040
35,0.72136,0.8102222222222222,Maxlen 512,0.5,30,0.7146017699115045,0.8121590709132501,<function xavier_normal at 0x7f1aa4d2d048>,0.0001,"CharCNN(
  (embedding): Linear(in_features=74, out_features=74, bias=True)
  (conv): Sequential(
    (0): Conv1d(74, 256, kernel_size=(15,), stride=(2,))
    (1): ReLU()
    (2): MaxPool1d(kernel_size=64, stride=32, padding=0, dilation=1, ceil_mode=False)
  )
  (fc): Linear(in_features=1536, out_features=2, bias=True)
)",charCNN,0.1,0.05,IMDB binary classification,293040
36,0.70912,0.8102222222222222,Maxlen 512,0.5,30,0.6964434797128067,0.8121590709132501,<function xavier_normal at 0x7f1aa4d2d048>,0.0001,"CharCNN(
  (embedding): Linear(in_features=74, out_features=74, bias=True)
  (conv): Sequential(
    (0): Conv1d(74, 256, kernel_size=(15,), stride=(2,))
    (1): ReLU()
    (2): MaxPool1d(kernel_size=64, stride=32, padding=0, dilation=1, ceil_mode=False)
  )
  (fc): Linear(in_features=1536, out_features=2, bias=True)
)",charCNN,0.125,0.05,IMDB binary classification,293040
37,0.70008,0.8102222222222222,Maxlen 512,0.5,30,0.6795726495726496,0.8121590709132501,<function xavier_normal at 0x7f1aa4d2d048>,0.0001,"CharCNN(
  (embedding): Linear(in_features=74, out_features=74, bias=True)
  (conv): Sequential(
    (0): Conv1d(74, 256, kernel_size=(15,), stride=(2,))
    (1): ReLU()
    (2): MaxPool1d(kernel_size=64, stride=32, padding=0, dilation=1, ceil_mode=False)
  )
  (fc): Linear(in_features=1536, out_features=2, bias=True)
)",charCNN,0.15,0.05,IMDB binary classification,293040
38,0.67912,0.8102222222222222,Maxlen 512,0.5,30,0.6514598540145986,0.8121590709132501,<function xavier_normal at 0x7f1aa4d2d048>,0.0001,"CharCNN(
  (embedding): Linear(in_features=74, out_features=74, bias=True)
  (conv): Sequential(
    (0): Conv1d(74, 256, kernel_size=(15,), stride=(2,))
    (1): ReLU()
    (2): MaxPool1d(kernel_size=64, stride=32, padding=0, dilation=1, ceil_mode=False)
  )
  (fc): Linear(in_features=1536, out_features=2, bias=True)
)",charCNN,0.175,0.05,IMDB binary classification,293040
39,0.66716,0.8102222222222222,Maxlen 512,0.5,30,0.6288747156683466,0.8121590709132501,<function xavier_normal at 0x7f1aa4d2d048>,0.0001,"CharCNN(
  (embedding): Linear(in_features=74, out_features=74, bias=True)
  (conv): Sequential(
    (0): Conv1d(74, 256, kernel_size=(15,), stride=(2,))
    (1): ReLU()
    (2): MaxPool1d(kernel_size=64, stride=32, padding=0, dilation=1, ceil_mode=False)
  )
  (fc): Linear(in_features=1536, out_features=2, bias=True)
)",charCNN,0.2,0.05,IMDB binary classification,293040
40,0.76616,0.7813333333333333,Maxlen 512,0.5,30,0.7789457762988732,0.7923174335162515,<function xavier_normal at 0x7f1aa4d2d048>,0.0001,"CharCNN(
  (embedding): Linear(in_features=74, out_features=74, bias=True)
  (conv): Sequential(
    (0): Conv1d(74, 256, kernel_size=(15,), stride=(2,))
    (1): ReLU()
    (2): MaxPool1d(kernel_size=64, stride=32, padding=0, dilation=1, ceil_mode=False)
  )
  (fc): Linear(in_features=1536, out_features=2, bias=True)
)",charCNN,0.0,0.075,IMDB binary classification,293040
41,0.76388,0.7813333333333333,Maxlen 512,0.5,30,0.7765623225708771,0.7923174335162515,<function xavier_normal at 0x7f1aa4d2d048>,0.0001,"CharCNN(
  (embedding): Linear(in_features=74, out_features=74, bias=True)
  (conv): Sequential(
    (0): Conv1d(74, 256, kernel_size=(15,), stride=(2,))
    (1): ReLU()
    (2): MaxPool1d(kernel_size=64, stride=32, padding=0, dilation=1, ceil_mode=False)
  )
  (fc): Linear(in_features=1536, out_features=2, bias=True)
)",charCNN,0.01,0.075,IMDB binary classification,293040
42,0.75716,0.7813333333333333,Maxlen 512,0.5,30,0.7707585998565119,0.7923174335162515,<function xavier_normal at 0x7f1aa4d2d048>,0.0001,"CharCNN(
  (embedding): Linear(in_features=74, out_features=74, bias=True)
  (conv): Sequential(
    (0): Conv1d(74, 256, kernel_size=(15,), stride=(2,))
    (1): ReLU()
    (2): MaxPool1d(kernel_size=64, stride=32, padding=0, dilation=1, ceil_mode=False)
  )
  (fc): Linear(in_features=1536, out_features=2, bias=True)
)",charCNN,0.025,0.075,IMDB binary classification,293040
43,0.74632,0.7813333333333333,Maxlen 512,0.5,30,0.7592437931819908,0.7923174335162515,<function xavier_normal at 0x7f1aa4d2d048>,0.0001,"CharCNN(
  (embedding): Linear(in_features=74, out_features=74, bias=True)
  (conv): Sequential(
    (0): Conv1d(74, 256, kernel_size=(15,), stride=(2,))
    (1): ReLU()
    (2): MaxPool1d(kernel_size=64, stride=32, padding=0, dilation=1, ceil_mode=False)
  )
  (fc): Linear(in_features=1536, out_features=2, bias=True)
)",charCNN,0.05,0.075,IMDB binary classification,293040
44,0.73496,0.7813333333333333,Maxlen 512,0.5,30,0.7482714079477243,0.7923174335162515,<function xavier_normal at 0x7f1aa4d2d048>,0.0001,"CharCNN(
  (embedding): Linear(in_features=74, out_features=74, bias=True)
  (conv): Sequential(
    (0): Conv1d(74, 256, kernel_size=(15,), stride=(2,))
    (1): ReLU()
    (2): MaxPool1d(kernel_size=64, stride=32, padding=0, dilation=1, ceil_mode=False)
  )
  (fc): Linear(in_features=1536, out_features=2, bias=True)
)",charCNN,0.075,0.075,IMDB binary classification,293040
45,0.72528,0.7813333333333333,Maxlen 512,0.5,30,0.7368985596077231,0.7923174335162515,<function xavier_normal at 0x7f1aa4d2d048>,0.0001,"CharCNN(
  (embedding): Linear(in_features=74, out_features=74, bias=True)
  (conv): Sequential(
    (0): Conv1d(74, 256, kernel_size=(15,), stride=(2,))
    (1): ReLU()
    (2): MaxPool1d(kernel_size=64, stride=32, padding=0, dilation=1, ceil_mode=False)
  )
  (fc): Linear(in_features=1536, out_features=2, bias=True)
)",charCNN,0.1,0.075,IMDB binary classification,293040
46,0.71348,0.7813333333333333,Maxlen 512,0.5,30,0.7242560726796782,0.7923174335162515,<function xavier_normal at 0x7f1aa4d2d048>,0.0001,"CharCNN(
  (embedding): Linear(in_features=74, out_features=74, bias=True)
  (conv): Sequential(
    (0): Conv1d(74, 256, kernel_size=(15,), stride=(2,))
    (1): ReLU()
    (2): MaxPool1d(kernel_size=64, stride=32, padding=0, dilation=1, ceil_mode=False)
  )
  (fc): Linear(in_features=1536, out_features=2, bias=True)
)",charCNN,0.125,0.075,IMDB binary classification,293040
47,0.70868,0.7813333333333333,Maxlen 512,0.5,30,0.7178334818488242,0.7923174335162515,<function xavier_normal at 0x7f1aa4d2d048>,0.0001,"CharCNN(
  (embedding): Linear(in_features=74, out_features=74, bias=True)
  (conv): Sequential(
    (0): Conv1d(74, 256, kernel_size=(15,), stride=(2,))
    (1): ReLU()
    (2): MaxPool1d(kernel_size=64, stride=32, padding=0, dilation=1, ceil_mode=False)
  )
  (fc): Linear(in_features=1536, out_features=2, bias=True)
)",charCNN,0.15,0.075,IMDB binary classification,293040
48,0.6902,0.7813333333333333,Maxlen 512,0.5,30,0.6970467435947585,0.7923174335162515,<function xavier_normal at 0x7f1aa4d2d048>,0.0001,"CharCNN(
  (embedding): Linear(in_features=74, out_features=74, bias=True)
  (conv): Sequential(
    (0): Conv1d(74, 256, kernel_size=(15,), stride=(2,))
    (1): ReLU()
    (2): MaxPool1d(kernel_size=64, stride=32, padding=0, dilation=1, ceil_mode=False)
  )
  (fc): Linear(in_features=1536, out_features=2, bias=True)
)",charCNN,0.175,0.075,IMDB binary classification,293040
49,0.68372,0.7813333333333333,Maxlen 512,0.5,30,0.68763086161261,0.7923174335162515,<function xavier_normal at 0x7f1aa4d2d048>,0.0001,"CharCNN(
  (embedding): Linear(in_features=74, out_features=74, bias=True)
  (conv): Sequential(
    (0): Conv1d(74, 256, kernel_size=(15,), stride=(2,))
    (1): ReLU()
    (2): MaxPool1d(kernel_size=64, stride=32, padding=0, dilation=1, ceil_mode=False)
  )
  (fc): Linear(in_features=1536, out_features=2, bias=True)
)",charCNN,0.2,0.075,IMDB binary classification,293040
50,0.76256,0.7628888888888888,Maxlen 512,0.5,30,0.7706691392365941,0.7745425347589062,<function xavier_normal at 0x7f1aa4d2d048>,0.0001,"CharCNN(
  (embedding): Linear(in_features=74, out_features=74, bias=True)
  (conv): Sequential(
    (0): Conv1d(74, 256, kernel_size=(15,), stride=(2,))
    (1): ReLU()
    (2): MaxPool1d(kernel_size=64, stride=32, padding=0, dilation=1, ceil_mode=False)
  )
  (fc): Linear(in_features=1536, out_features=2, bias=True)
)",charCNN,0.0,0.1,IMDB binary classification,293040
51,0.75912,0.7628888888888888,Maxlen 512,0.5,30,0.7683846153846154,0.7745425347589062,<function xavier_normal at 0x7f1aa4d2d048>,0.0001,"CharCNN(
  (embedding): Linear(in_features=74, out_features=74, bias=True)
  (conv): Sequential(
    (0): Conv1d(74, 256, kernel_size=(15,), stride=(2,))
    (1): ReLU()
    (2): MaxPool1d(kernel_size=64, stride=32, padding=0, dilation=1, ceil_mode=False)
  )
  (fc): Linear(in_features=1536, out_features=2, bias=True)
)",charCNN,0.01,0.1,IMDB binary classification,293040
52,0.7552,0.7628888888888888,Maxlen 512,0.5,30,0.7643434732383521,0.7745425347589062,<function xavier_normal at 0x7f1aa4d2d048>,0.0001,"CharCNN(
  (embedding): Linear(in_features=74, out_features=74, bias=True)
  (conv): Sequential(
    (0): Conv1d(74, 256, kernel_size=(15,), stride=(2,))
    (1): ReLU()
    (2): MaxPool1d(kernel_size=64, stride=32, padding=0, dilation=1, ceil_mode=False)
  )
  (fc): Linear(in_features=1536, out_features=2, bias=True)
)",charCNN,0.025,0.1,IMDB binary classification,293040
53,0.74508,0.7628888888888888,Maxlen 512,0.5,30,0.7552141348185135,0.7745425347589062,<function xavier_normal at 0x7f1aa4d2d048>,0.0001,"CharCNN(
  (embedding): Linear(in_features=74, out_features=74, bias=True)
  (conv): Sequential(
    (0): Conv1d(74, 256, kernel_size=(15,), stride=(2,))
    (1): ReLU()
    (2): MaxPool1d(kernel_size=64, stride=32, padding=0, dilation=1, ceil_mode=False)
  )
  (fc): Linear(in_features=1536, out_features=2, bias=True)
)",charCNN,0.05,0.1,IMDB binary classification,293040
54,0.73736,0.7628888888888888,Maxlen 512,0.5,30,0.7479656072470444,0.7745425347589062,<function xavier_normal at 0x7f1aa4d2d048>,0.0001,"CharCNN(
  (embedding): Linear(in_features=74, out_features=74, bias=True)
  (conv): Sequential(
    (0): Conv1d(74, 256, kernel_size=(15,), stride=(2,))
    (1): ReLU()
    (2): MaxPool1d(kernel_size=64, stride=32, padding=0, dilation=1, ceil_mode=False)
  )
  (fc): Linear(in_features=1536, out_features=2, bias=True)
)",charCNN,0.075,0.1,IMDB binary classification,293040
55,0.7244,0.7628888888888888,Maxlen 512,0.5,30,0.73599509540961,0.7745425347589062,<function xavier_normal at 0x7f1aa4d2d048>,0.0001,"CharCNN(
  (embedding): Linear(in_features=74, out_features=74, bias=True)
  (conv): Sequential(
    (0): Conv1d(74, 256, kernel_size=(15,), stride=(2,))
    (1): ReLU()
    (2): MaxPool1d(kernel_size=64, stride=32, padding=0, dilation=1, ceil_mode=False)
  )
  (fc): Linear(in_features=1536, out_features=2, bias=True)
)",charCNN,0.1,0.1,IMDB binary classification,293040
56,0.71492,0.7628888888888888,Maxlen 512,0.5,30,0.7256207892204042,0.7745425347589062,<function xavier_normal at 0x7f1aa4d2d048>,0.0001,"CharCNN(
  (embedding): Linear(in_features=74, out_features=74, bias=True)
  (conv): Sequential(
    (0): Conv1d(74, 256, kernel_size=(15,), stride=(2,))
    (1): ReLU()
    (2): MaxPool1d(kernel_size=64, stride=32, padding=0, dilation=1, ceil_mode=False)
  )
  (fc): Linear(in_features=1536, out_features=2, bias=True)
)",charCNN,0.125,0.1,IMDB binary classification,293040
57,0.70544,0.7628888888888888,Maxlen 512,0.5,30,0.716638448514699,0.7745425347589062,<function xavier_normal at 0x7f1aa4d2d048>,0.0001,"CharCNN(
  (embedding): Linear(in_features=74, out_features=74, bias=True)
  (conv): Sequential(
    (0): Conv1d(74, 256, kernel_size=(15,), stride=(2,))
    (1): ReLU()
    (2): MaxPool1d(kernel_size=64, stride=32, padding=0, dilation=1, ceil_mode=False)
  )
  (fc): Linear(in_features=1536, out_features=2, bias=True)
)",charCNN,0.15,0.1,IMDB binary classification,293040
58,0.69304,0.7628888888888888,Maxlen 512,0.5,30,0.7065391969407265,0.7745425347589062,<function xavier_normal at 0x7f1aa4d2d048>,0.0001,"CharCNN(
  (embedding): Linear(in_features=74, out_features=74, bias=True)
  (conv): Sequential(
    (0): Conv1d(74, 256, kernel_size=(15,), stride=(2,))
    (1): ReLU()
    (2): MaxPool1d(kernel_size=64, stride=32, padding=0, dilation=1, ceil_mode=False)
  )
  (fc): Linear(in_features=1536, out_features=2, bias=True)
)",charCNN,0.175,0.1,IMDB binary classification,293040
59,0.68936,0.7628888888888888,Maxlen 512,0.5,30,0.7013766053987542,0.7745425347589062,<function xavier_normal at 0x7f1aa4d2d048>,0.0001,"CharCNN(
  (embedding): Linear(in_features=74, out_features=74, bias=True)
  (conv): Sequential(
    (0): Conv1d(74, 256, kernel_size=(15,), stride=(2,))
    (1): ReLU()
    (2): MaxPool1d(kernel_size=64, stride=32, padding=0, dilation=1, ceil_mode=False)
  )
  (fc): Linear(in_features=1536, out_features=2, bias=True)
)",charCNN,0.2,0.1,IMDB binary classification,293040
60,0.7524,0.7349777777777777,Maxlen 512,0.5,30,0.7654058970666262,0.7562839743327748,<function xavier_normal at 0x7f1aa4d2d048>,0.0001,"CharCNN(
  (embedding): Linear(in_features=74, out_features=74, bias=True)
  (conv): Sequential(
    (0): Conv1d(74, 256, kernel_size=(15,), stride=(2,))
    (1): ReLU()
    (2): MaxPool1d(kernel_size=64, stride=32, padding=0, dilation=1, ceil_mode=False)
  )
  (fc): Linear(in_features=1536, out_features=2, bias=True)
)",charCNN,0.0,0.125,IMDB binary classification,293040
61,0.75132,0.7349777777777777,Maxlen 512,0.5,30,0.7650682084419755,0.7562839743327748,<function xavier_normal at 0x7f1aa4d2d048>,0.0001,"CharCNN(
  (embedding): Linear(in_features=74, out_features=74, bias=True)
  (conv): Sequential(
    (0): Conv1d(74, 256, kernel_size=(15,), stride=(2,))
    (1): ReLU()
    (2): MaxPool1d(kernel_size=64, stride=32, padding=0, dilation=1, ceil_mode=False)
  )
  (fc): Linear(in_features=1536, out_features=2, bias=True)
)",charCNN,0.01,0.125,IMDB binary classification,293040
62,0.74612,0.7349777777777777,Maxlen 512,0.5,30,0.7610226288640386,0.7562839743327748,<function xavier_normal at 0x7f1aa4d2d048>,0.0001,"CharCNN(
  (embedding): Linear(in_features=74, out_features=74, bias=True)
  (conv): Sequential(
    (0): Conv1d(74, 256, kernel_size=(15,), stride=(2,))
    (1): ReLU()
    (2): MaxPool1d(kernel_size=64, stride=32, padding=0, dilation=1, ceil_mode=False)
  )
  (fc): Linear(in_features=1536, out_features=2, bias=True)
)",charCNN,0.025,0.125,IMDB binary classification,293040
63,0.7352,0.7349777777777777,Maxlen 512,0.5,30,0.7525973540623365,0.7562839743327748,<function xavier_normal at 0x7f1aa4d2d048>,0.0001,"CharCNN(
  (embedding): Linear(in_features=74, out_features=74, bias=True)
  (conv): Sequential(
    (0): Conv1d(74, 256, kernel_size=(15,), stride=(2,))
    (1): ReLU()
    (2): MaxPool1d(kernel_size=64, stride=32, padding=0, dilation=1, ceil_mode=False)
  )
  (fc): Linear(in_features=1536, out_features=2, bias=True)
)",charCNN,0.05,0.125,IMDB binary classification,293040
64,0.7278,0.7349777777777777,Maxlen 512,0.5,30,0.7473172180758234,0.7562839743327748,<function xavier_normal at 0x7f1aa4d2d048>,0.0001,"CharCNN(
  (embedding): Linear(in_features=74, out_features=74, bias=True)
  (conv): Sequential(
    (0): Conv1d(74, 256, kernel_size=(15,), stride=(2,))
    (1): ReLU()
    (2): MaxPool1d(kernel_size=64, stride=32, padding=0, dilation=1, ceil_mode=False)
  )
  (fc): Linear(in_features=1536, out_features=2, bias=True)
)",charCNN,0.075,0.125,IMDB binary classification,293040
65,0.71716,0.7349777777777777,Maxlen 512,0.5,30,0.7380043721516174,0.7562839743327748,<function xavier_normal at 0x7f1aa4d2d048>,0.0001,"CharCNN(
  (embedding): Linear(in_features=74, out_features=74, bias=True)
  (conv): Sequential(
    (0): Conv1d(74, 256, kernel_size=(15,), stride=(2,))
    (1): ReLU()
    (2): MaxPool1d(kernel_size=64, stride=32, padding=0, dilation=1, ceil_mode=False)
  )
  (fc): Linear(in_features=1536, out_features=2, bias=True)
)",charCNN,0.1,0.125,IMDB binary classification,293040
66,0.70756,0.7349777777777777,Maxlen 512,0.5,30,0.729992244340215,0.7562839743327748,<function xavier_normal at 0x7f1aa4d2d048>,0.0001,"CharCNN(
  (embedding): Linear(in_features=74, out_features=74, bias=True)
  (conv): Sequential(
    (0): Conv1d(74, 256, kernel_size=(15,), stride=(2,))
    (1): ReLU()
    (2): MaxPool1d(kernel_size=64, stride=32, padding=0, dilation=1, ceil_mode=False)
  )
  (fc): Linear(in_features=1536, out_features=2, bias=True)
)",charCNN,0.125,0.125,IMDB binary classification,293040
67,0.7016,0.7349777777777777,Maxlen 512,0.5,30,0.725412249705536,0.7562839743327748,<function xavier_normal at 0x7f1aa4d2d048>,0.0001,"CharCNN(
  (embedding): Linear(in_features=74, out_features=74, bias=True)
  (conv): Sequential(
    (0): Conv1d(74, 256, kernel_size=(15,), stride=(2,))
    (1): ReLU()
    (2): MaxPool1d(kernel_size=64, stride=32, padding=0, dilation=1, ceil_mode=False)
  )
  (fc): Linear(in_features=1536, out_features=2, bias=True)
)",charCNN,0.15,0.125,IMDB binary classification,293040
68,0.69068,0.7349777777777777,Maxlen 512,0.5,30,0.7174953421254521,0.7562839743327748,<function xavier_normal at 0x7f1aa4d2d048>,0.0001,"CharCNN(
  (embedding): Linear(in_features=74, out_features=74, bias=True)
  (conv): Sequential(
    (0): Conv1d(74, 256, kernel_size=(15,), stride=(2,))
    (1): ReLU()
    (2): MaxPool1d(kernel_size=64, stride=32, padding=0, dilation=1, ceil_mode=False)
  )
  (fc): Linear(in_features=1536, out_features=2, bias=True)
)",charCNN,0.175,0.125,IMDB binary classification,293040
69,0.6792,0.7349777777777777,Maxlen 512,0.5,30,0.7080876465021475,0.7562839743327748,<function xavier_normal at 0x7f1aa4d2d048>,0.0001,"CharCNN(
  (embedding): Linear(in_features=74, out_features=74, bias=True)
  (conv): Sequential(
    (0): Conv1d(74, 256, kernel_size=(15,), stride=(2,))
    (1): ReLU()
    (2): MaxPool1d(kernel_size=64, stride=32, padding=0, dilation=1, ceil_mode=False)
  )
  (fc): Linear(in_features=1536, out_features=2, bias=True)
)",charCNN,0.2,0.125,IMDB binary classification,293040
70,0.75256,0.7335555555555555,Maxlen 512,0.5,30,0.7579243953979808,0.7346288344916116,<function xavier_normal at 0x7f1aa4d2d048>,0.0001,"CharCNN(
  (embedding): Linear(in_features=74, out_features=74, bias=True)
  (conv): Sequential(
    (0): Conv1d(74, 256, kernel_size=(15,), stride=(2,))
    (1): ReLU()
    (2): MaxPool1d(kernel_size=64, stride=32, padding=0, dilation=1, ceil_mode=False)
  )
  (fc): Linear(in_features=1536, out_features=2, bias=True)
)",charCNN,0.0,0.15,IMDB binary classification,293040
71,0.7504,0.7335555555555555,Maxlen 512,0.5,30,0.7560212699405693,0.7346288344916116,<function xavier_normal at 0x7f1aa4d2d048>,0.0001,"CharCNN(
  (embedding): Linear(in_features=74, out_features=74, bias=True)
  (conv): Sequential(
    (0): Conv1d(74, 256, kernel_size=(15,), stride=(2,))
    (1): ReLU()
    (2): MaxPool1d(kernel_size=64, stride=32, padding=0, dilation=1, ceil_mode=False)
  )
  (fc): Linear(in_features=1536, out_features=2, bias=True)
)",charCNN,0.01,0.15,IMDB binary classification,293040
72,0.74544,0.7335555555555555,Maxlen 512,0.5,30,0.7506074143741672,0.7346288344916116,<function xavier_normal at 0x7f1aa4d2d048>,0.0001,"CharCNN(
  (embedding): Linear(in_features=74, out_features=74, bias=True)
  (conv): Sequential(
    (0): Conv1d(74, 256, kernel_size=(15,), stride=(2,))
    (1): ReLU()
    (2): MaxPool1d(kernel_size=64, stride=32, padding=0, dilation=1, ceil_mode=False)
  )
  (fc): Linear(in_features=1536, out_features=2, bias=True)
)",charCNN,0.025,0.15,IMDB binary classification,293040
73,0.7398,0.7335555555555555,Maxlen 512,0.5,30,0.7445714061334276,0.7346288344916116,<function xavier_normal at 0x7f1aa4d2d048>,0.0001,"CharCNN(
  (embedding): Linear(in_features=74, out_features=74, bias=True)
  (conv): Sequential(
    (0): Conv1d(74, 256, kernel_size=(15,), stride=(2,))
    (1): ReLU()
    (2): MaxPool1d(kernel_size=64, stride=32, padding=0, dilation=1, ceil_mode=False)
  )
  (fc): Linear(in_features=1536, out_features=2, bias=True)
)",charCNN,0.05,0.15,IMDB binary classification,293040
74,0.73076,0.7335555555555555,Maxlen 512,0.5,30,0.7352189134967154,0.7346288344916116,<function xavier_normal at 0x7f1aa4d2d048>,0.0001,"CharCNN(
  (embedding): Linear(in_features=74, out_features=74, bias=True)
  (conv): Sequential(
    (0): Conv1d(74, 256, kernel_size=(15,), stride=(2,))
    (1): ReLU()
    (2): MaxPool1d(kernel_size=64, stride=32, padding=0, dilation=1, ceil_mode=False)
  )
  (fc): Linear(in_features=1536, out_features=2, bias=True)
)",charCNN,0.075,0.15,IMDB binary classification,293040
75,0.72036,0.7335555555555555,Maxlen 512,0.5,30,0.724035842576876,0.7346288344916116,<function xavier_normal at 0x7f1aa4d2d048>,0.0001,"CharCNN(
  (embedding): Linear(in_features=74, out_features=74, bias=True)
  (conv): Sequential(
    (0): Conv1d(74, 256, kernel_size=(15,), stride=(2,))
    (1): ReLU()
    (2): MaxPool1d(kernel_size=64, stride=32, padding=0, dilation=1, ceil_mode=False)
  )
  (fc): Linear(in_features=1536, out_features=2, bias=True)
)",charCNN,0.1,0.15,IMDB binary classification,293040
76,0.7124,0.7335555555555555,Maxlen 512,0.5,30,0.7147504562405776,0.7346288344916116,<function xavier_normal at 0x7f1aa4d2d048>,0.0001,"CharCNN(
  (embedding): Linear(in_features=74, out_features=74, bias=True)
  (conv): Sequential(
    (0): Conv1d(74, 256, kernel_size=(15,), stride=(2,))
    (1): ReLU()
    (2): MaxPool1d(kernel_size=64, stride=32, padding=0, dilation=1, ceil_mode=False)
  )
  (fc): Linear(in_features=1536, out_features=2, bias=True)
)",charCNN,0.125,0.15,IMDB binary classification,293040
77,0.70232,0.7335555555555555,Maxlen 512,0.5,30,0.703080114905841,0.7346288344916116,<function xavier_normal at 0x7f1aa4d2d048>,0.0001,"CharCNN(
  (embedding): Linear(in_features=74, out_features=74, bias=True)
  (conv): Sequential(
    (0): Conv1d(74, 256, kernel_size=(15,), stride=(2,))
    (1): ReLU()
    (2): MaxPool1d(kernel_size=64, stride=32, padding=0, dilation=1, ceil_mode=False)
  )
  (fc): Linear(in_features=1536, out_features=2, bias=True)
)",charCNN,0.15,0.15,IMDB binary classification,293040
78,0.70072,0.7335555555555555,Maxlen 512,0.5,30,0.7002163634906643,0.7346288344916116,<function xavier_normal at 0x7f1aa4d2d048>,0.0001,"CharCNN(
  (embedding): Linear(in_features=74, out_features=74, bias=True)
  (conv): Sequential(
    (0): Conv1d(74, 256, kernel_size=(15,), stride=(2,))
    (1): ReLU()
    (2): MaxPool1d(kernel_size=64, stride=32, padding=0, dilation=1, ceil_mode=False)
  )
  (fc): Linear(in_features=1536, out_features=2, bias=True)
)",charCNN,0.175,0.15,IMDB binary classification,293040
79,0.69224,0.7335555555555555,Maxlen 512,0.5,30,0.6882748561704887,0.7346288344916116,<function xavier_normal at 0x7f1aa4d2d048>,0.0001,"CharCNN(
  (embedding): Linear(in_features=74, out_features=74, bias=True)
  (conv): Sequential(
    (0): Conv1d(74, 256, kernel_size=(15,), stride=(2,))
    (1): ReLU()
    (2): MaxPool1d(kernel_size=64, stride=32, padding=0, dilation=1, ceil_mode=False)
  )
  (fc): Linear(in_features=1536, out_features=2, bias=True)
)",charCNN,0.2,0.15,IMDB binary classification,293040
80,0.7232,0.6963555555555555,Maxlen 512,0.5,30,0.6839605407380343,0.6555062525211779,<function xavier_normal at 0x7f1aa4d2d048>,0.0001,"CharCNN(
  (embedding): Linear(in_features=74, out_features=74, bias=True)
  (conv): Sequential(
    (0): Conv1d(74, 256, kernel_size=(15,), stride=(2,))
    (1): ReLU()
    (2): MaxPool1d(kernel_size=64, stride=32, padding=0, dilation=1, ceil_mode=False)
  )
  (fc): Linear(in_features=1536, out_features=2, bias=True)
)",charCNN,0.0,0.175,IMDB binary classification,293040
81,0.72228,0.6963555555555555,Maxlen 512,0.5,30,0.6820533956129504,0.6555062525211779,<function xavier_normal at 0x7f1aa4d2d048>,0.0001,"CharCNN(
  (embedding): Linear(in_features=74, out_features=74, bias=True)
  (conv): Sequential(
    (0): Conv1d(74, 256, kernel_size=(15,), stride=(2,))
    (1): ReLU()
    (2): MaxPool1d(kernel_size=64, stride=32, padding=0, dilation=1, ceil_mode=False)
  )
  (fc): Linear(in_features=1536, out_features=2, bias=True)
)",charCNN,0.01,0.175,IMDB binary classification,293040
82,0.71592,0.6963555555555555,Maxlen 512,0.5,30,0.6748466257668713,0.6555062525211779,<function xavier_normal at 0x7f1aa4d2d048>,0.0001,"CharCNN(
  (embedding): Linear(in_features=74, out_features=74, bias=True)
  (conv): Sequential(
    (0): Conv1d(74, 256, kernel_size=(15,), stride=(2,))
    (1): ReLU()
    (2): MaxPool1d(kernel_size=64, stride=32, padding=0, dilation=1, ceil_mode=False)
  )
  (fc): Linear(in_features=1536, out_features=2, bias=True)
)",charCNN,0.025,0.175,IMDB binary classification,293040
83,0.71276,0.6963555555555555,Maxlen 512,0.5,30,0.6732195676905574,0.6555062525211779,<function xavier_normal at 0x7f1aa4d2d048>,0.0001,"CharCNN(
  (embedding): Linear(in_features=74, out_features=74, bias=True)
  (conv): Sequential(
    (0): Conv1d(74, 256, kernel_size=(15,), stride=(2,))
    (1): ReLU()
    (2): MaxPool1d(kernel_size=64, stride=32, padding=0, dilation=1, ceil_mode=False)
  )
  (fc): Linear(in_features=1536, out_features=2, bias=True)
)",charCNN,0.05,0.175,IMDB binary classification,293040
84,0.70896,0.6963555555555555,Maxlen 512,0.5,30,0.6687608121642539,0.6555062525211779,<function xavier_normal at 0x7f1aa4d2d048>,0.0001,"CharCNN(
  (embedding): Linear(in_features=74, out_features=74, bias=True)
  (conv): Sequential(
    (0): Conv1d(74, 256, kernel_size=(15,), stride=(2,))
    (1): ReLU()
    (2): MaxPool1d(kernel_size=64, stride=32, padding=0, dilation=1, ceil_mode=False)
  )
  (fc): Linear(in_features=1536, out_features=2, bias=True)
)",charCNN,0.075,0.175,IMDB binary classification,293040
85,0.69772,0.6963555555555555,Maxlen 512,0.5,30,0.6542842764993824,0.6555062525211779,<function xavier_normal at 0x7f1aa4d2d048>,0.0001,"CharCNN(
  (embedding): Linear(in_features=74, out_features=74, bias=True)
  (conv): Sequential(
    (0): Conv1d(74, 256, kernel_size=(15,), stride=(2,))
    (1): ReLU()
    (2): MaxPool1d(kernel_size=64, stride=32, padding=0, dilation=1, ceil_mode=False)
  )
  (fc): Linear(in_features=1536, out_features=2, bias=True)
)",charCNN,0.1,0.175,IMDB binary classification,293040
86,0.69244,0.6963555555555555,Maxlen 512,0.5,30,0.6470831229632349,0.6555062525211779,<function xavier_normal at 0x7f1aa4d2d048>,0.0001,"CharCNN(
  (embedding): Linear(in_features=74, out_features=74, bias=True)
  (conv): Sequential(
    (0): Conv1d(74, 256, kernel_size=(15,), stride=(2,))
    (1): ReLU()
    (2): MaxPool1d(kernel_size=64, stride=32, padding=0, dilation=1, ceil_mode=False)
  )
  (fc): Linear(in_features=1536, out_features=2, bias=True)
)",charCNN,0.125,0.175,IMDB binary classification,293040
87,0.68456,0.6963555555555555,Maxlen 512,0.5,30,0.6391837481698388,0.6555062525211779,<function xavier_normal at 0x7f1aa4d2d048>,0.0001,"CharCNN(
  (embedding): Linear(in_features=74, out_features=74, bias=True)
  (conv): Sequential(
    (0): Conv1d(74, 256, kernel_size=(15,), stride=(2,))
    (1): ReLU()
    (2): MaxPool1d(kernel_size=64, stride=32, padding=0, dilation=1, ceil_mode=False)
  )
  (fc): Linear(in_features=1536, out_features=2, bias=True)
)",charCNN,0.15,0.175,IMDB binary classification,293040
88,0.6814,0.6963555555555555,Maxlen 512,0.5,30,0.6337425851841634,0.6555062525211779,<function xavier_normal at 0x7f1aa4d2d048>,0.0001,"CharCNN(
  (embedding): Linear(in_features=74, out_features=74, bias=True)
  (conv): Sequential(
    (0): Conv1d(74, 256, kernel_size=(15,), stride=(2,))
    (1): ReLU()
    (2): MaxPool1d(kernel_size=64, stride=32, padding=0, dilation=1, ceil_mode=False)
  )
  (fc): Linear(in_features=1536, out_features=2, bias=True)
)",charCNN,0.175,0.175,IMDB binary classification,293040
89,0.66888,0.6963555555555555,Maxlen 512,0.5,30,0.6194022988505747,0.6555062525211779,<function xavier_normal at 0x7f1aa4d2d048>,0.0001,"CharCNN(
  (embedding): Linear(in_features=74, out_features=74, bias=True)
  (conv): Sequential(
    (0): Conv1d(74, 256, kernel_size=(15,), stride=(2,))
    (1): ReLU()
    (2): MaxPool1d(kernel_size=64, stride=32, padding=0, dilation=1, ceil_mode=False)
  )
  (fc): Linear(in_features=1536, out_features=2, bias=True)
)",charCNN,0.2,0.175,IMDB binary classification,293040
90,0.73596,0.7027111111111111,Maxlen 512,0.5,30,0.7247863247863248,0.6901662883876047,<function xavier_normal at 0x7f1aa4d2d048>,0.0001,"CharCNN(
  (embedding): Linear(in_features=74, out_features=74, bias=True)
  (conv): Sequential(
    (0): Conv1d(74, 256, kernel_size=(15,), stride=(2,))
    (1): ReLU()
    (2): MaxPool1d(kernel_size=64, stride=32, padding=0, dilation=1, ceil_mode=False)
  )
  (fc): Linear(in_features=1536, out_features=2, bias=True)
)",charCNN,0.0,0.2,IMDB binary classification,293040
91,0.7348,0.7027111111111111,Maxlen 512,0.5,30,0.7229419139155872,0.6901662883876047,<function xavier_normal at 0x7f1aa4d2d048>,0.0001,"CharCNN(
  (embedding): Linear(in_features=74, out_features=74, bias=True)
  (conv): Sequential(
    (0): Conv1d(74, 256, kernel_size=(15,), stride=(2,))
    (1): ReLU()
    (2): MaxPool1d(kernel_size=64, stride=32, padding=0, dilation=1, ceil_mode=False)
  )
  (fc): Linear(in_features=1536, out_features=2, bias=True)
)",charCNN,0.01,0.2,IMDB binary classification,293040
92,0.73,0.7027111111111111,Maxlen 512,0.5,30,0.71875,0.6901662883876047,<function xavier_normal at 0x7f1aa4d2d048>,0.0001,"CharCNN(
  (embedding): Linear(in_features=74, out_features=74, bias=True)
  (conv): Sequential(
    (0): Conv1d(74, 256, kernel_size=(15,), stride=(2,))
    (1): ReLU()
    (2): MaxPool1d(kernel_size=64, stride=32, padding=0, dilation=1, ceil_mode=False)
  )
  (fc): Linear(in_features=1536, out_features=2, bias=True)
)",charCNN,0.025,0.2,IMDB binary classification,293040
93,0.722,0.7027111111111111,Maxlen 512,0.5,30,0.7112348346352003,0.6901662883876047,<function xavier_normal at 0x7f1aa4d2d048>,0.0001,"CharCNN(
  (embedding): Linear(in_features=74, out_features=74, bias=True)
  (conv): Sequential(
    (0): Conv1d(74, 256, kernel_size=(15,), stride=(2,))
    (1): ReLU()
    (2): MaxPool1d(kernel_size=64, stride=32, padding=0, dilation=1, ceil_mode=False)
  )
  (fc): Linear(in_features=1536, out_features=2, bias=True)
)",charCNN,0.05,0.2,IMDB binary classification,293040
94,0.71696,0.7027111111111111,Maxlen 512,0.5,30,0.7060485211033566,0.6901662883876047,<function xavier_normal at 0x7f1aa4d2d048>,0.0001,"CharCNN(
  (embedding): Linear(in_features=74, out_features=74, bias=True)
  (conv): Sequential(
    (0): Conv1d(74, 256, kernel_size=(15,), stride=(2,))
    (1): ReLU()
    (2): MaxPool1d(kernel_size=64, stride=32, padding=0, dilation=1, ceil_mode=False)
  )
  (fc): Linear(in_features=1536, out_features=2, bias=True)
)",charCNN,0.075,0.2,IMDB binary classification,293040
95,0.70804,0.7027111111111111,Maxlen 512,0.5,30,0.6970992239697889,0.6901662883876047,<function xavier_normal at 0x7f1aa4d2d048>,0.0001,"CharCNN(
  (embedding): Linear(in_features=74, out_features=74, bias=True)
  (conv): Sequential(
    (0): Conv1d(74, 256, kernel_size=(15,), stride=(2,))
    (1): ReLU()
    (2): MaxPool1d(kernel_size=64, stride=32, padding=0, dilation=1, ceil_mode=False)
  )
  (fc): Linear(in_features=1536, out_features=2, bias=True)
)",charCNN,0.1,0.2,IMDB binary classification,293040
96,0.70264,0.7027111111111111,Maxlen 512,0.5,30,0.69130470891122,0.6901662883876047,<function xavier_normal at 0x7f1aa4d2d048>,0.0001,"CharCNN(
  (embedding): Linear(in_features=74, out_features=74, bias=True)
  (conv): Sequential(
    (0): Conv1d(74, 256, kernel_size=(15,), stride=(2,))
    (1): ReLU()
    (2): MaxPool1d(kernel_size=64, stride=32, padding=0, dilation=1, ceil_mode=False)
  )
  (fc): Linear(in_features=1536, out_features=2, bias=True)
)",charCNN,0.125,0.2,IMDB binary classification,293040
97,0.69816,0.7027111111111111,Maxlen 512,0.5,30,0.6859758635039533,0.6901662883876047,<function xavier_normal at 0x7f1aa4d2d048>,0.0001,"CharCNN(
  (embedding): Linear(in_features=74, out_features=74, bias=True)
  (conv): Sequential(
    (0): Conv1d(74, 256, kernel_size=(15,), stride=(2,))
    (1): ReLU()
    (2): MaxPool1d(kernel_size=64, stride=32, padding=0, dilation=1, ceil_mode=False)
  )
  (fc): Linear(in_features=1536, out_features=2, bias=True)
)",charCNN,0.15,0.2,IMDB binary classification,293040
98,0.68436,0.7027111111111111,Maxlen 512,0.5,30,0.6724230976794388,0.6901662883876047,<function xavier_normal at 0x7f1aa4d2d048>,0.0001,"CharCNN(
  (embedding): Linear(in_features=74, out_features=74, bias=True)
  (conv): Sequential(
    (0): Conv1d(74, 256, kernel_size=(15,), stride=(2,))
    (1): ReLU()
    (2): MaxPool1d(kernel_size=64, stride=32, padding=0, dilation=1, ceil_mode=False)
  )
  (fc): Linear(in_features=1536, out_features=2, bias=True)
)",charCNN,0.175,0.2,IMDB binary classification,293040
99,0.68192,0.7027111111111111,Maxlen 512,0.5,30,0.6674194897532414,0.6901662883876047,<function xavier_normal at 0x7f1aa4d2d048>,0.0001,"CharCNN(
  (embedding): Linear(in_features=74, out_features=74, bias=True)
  (conv): Sequential(
    (0): Conv1d(74, 256, kernel_size=(15,), stride=(2,))
    (1): ReLU()
    (2): MaxPool1d(kernel_size=64, stride=32, padding=0, dilation=1, ceil_mode=False)
  )
  (fc): Linear(in_features=1536, out_features=2, bias=True)
)",charCNN,0.2,0.2,IMDB binary classification,293040
