,acc_test,acc_train,data_desc,dropout,epochs,f1_test,f1_train,init_function,lr,model_desc,model_type,noise_level_test,noise_level_train,run_name,task,trainable_params
0,0.80496,0.9920941176470588,"MaxWordLen 8, MaxTexLen 128",0.5,30,0.8091286307053943,0.9921089713480508,,0.001,"YoonKimModel(
  (embedding): Linear(in_features=74, out_features=74, bias=True)
  (chars_cnn): Sequential(
    (0): Conv1d(74, 256, kernel_size=(5,), stride=(1,), padding=(2,))
    (1): ReLU()
    (2): MaxPool1d(kernel_size=8, stride=8, padding=0, dilation=1, ceil_mode=False)
  )
  (dropout): Dropout(p=0.5)
  (words_rnn): GRU(256, 128)
  (projector): Linear(in_features=128, out_features=2, bias=True)
)",charCNN,0.0,0.0,runs/May16_01-26-06_phobos-aijun_YoonKim_lr3_noise_level0_wordlen8_IMDB,Mokoron binary classification,249008
1,0.79808,0.9920941176470588,"MaxWordLen 8, MaxTexLen 128",0.5,30,0.8015567261577168,0.9921089713480508,,0.001,"YoonKimModel(
  (embedding): Linear(in_features=74, out_features=74, bias=True)
  (chars_cnn): Sequential(
    (0): Conv1d(74, 256, kernel_size=(5,), stride=(1,), padding=(2,))
    (1): ReLU()
    (2): MaxPool1d(kernel_size=8, stride=8, padding=0, dilation=1, ceil_mode=False)
  )
  (dropout): Dropout(p=0.5)
  (words_rnn): GRU(256, 128)
  (projector): Linear(in_features=128, out_features=2, bias=True)
)",charCNN,0.005,0.0,runs/May16_01-26-06_phobos-aijun_YoonKim_lr3_noise_level0_wordlen8_IMDB,Mokoron binary classification,249008
2,0.79172,0.9920941176470588,"MaxWordLen 8, MaxTexLen 128",0.5,30,0.7947494974181086,0.9921089713480508,,0.001,"YoonKimModel(
  (embedding): Linear(in_features=74, out_features=74, bias=True)
  (chars_cnn): Sequential(
    (0): Conv1d(74, 256, kernel_size=(5,), stride=(1,), padding=(2,))
    (1): ReLU()
    (2): MaxPool1d(kernel_size=8, stride=8, padding=0, dilation=1, ceil_mode=False)
  )
  (dropout): Dropout(p=0.5)
  (words_rnn): GRU(256, 128)
  (projector): Linear(in_features=128, out_features=2, bias=True)
)",charCNN,0.01,0.0,runs/May16_01-26-06_phobos-aijun_YoonKim_lr3_noise_level0_wordlen8_IMDB,Mokoron binary classification,249008
3,0.77268,0.9920941176470588,"MaxWordLen 8, MaxTexLen 128",0.5,30,0.7727981449646184,0.9921089713480508,,0.001,"YoonKimModel(
  (embedding): Linear(in_features=74, out_features=74, bias=True)
  (chars_cnn): Sequential(
    (0): Conv1d(74, 256, kernel_size=(5,), stride=(1,), padding=(2,))
    (1): ReLU()
    (2): MaxPool1d(kernel_size=8, stride=8, padding=0, dilation=1, ceil_mode=False)
  )
  (dropout): Dropout(p=0.5)
  (words_rnn): GRU(256, 128)
  (projector): Linear(in_features=128, out_features=2, bias=True)
)",charCNN,0.025,0.0,runs/May16_01-26-06_phobos-aijun_YoonKim_lr3_noise_level0_wordlen8_IMDB,Mokoron binary classification,249008
4,0.7364,0.9920941176470588,"MaxWordLen 8, MaxTexLen 128",0.5,30,0.7312178807406803,0.9921089713480508,,0.001,"YoonKimModel(
  (embedding): Linear(in_features=74, out_features=74, bias=True)
  (chars_cnn): Sequential(
    (0): Conv1d(74, 256, kernel_size=(5,), stride=(1,), padding=(2,))
    (1): ReLU()
    (2): MaxPool1d(kernel_size=8, stride=8, padding=0, dilation=1, ceil_mode=False)
  )
  (dropout): Dropout(p=0.5)
  (words_rnn): GRU(256, 128)
  (projector): Linear(in_features=128, out_features=2, bias=True)
)",charCNN,0.05,0.0,runs/May16_01-26-06_phobos-aijun_YoonKim_lr3_noise_level0_wordlen8_IMDB,Mokoron binary classification,249008
5,0.70772,0.9920941176470588,"MaxWordLen 8, MaxTexLen 128",0.5,30,0.6939476439790576,0.9921089713480508,,0.001,"YoonKimModel(
  (embedding): Linear(in_features=74, out_features=74, bias=True)
  (chars_cnn): Sequential(
    (0): Conv1d(74, 256, kernel_size=(5,), stride=(1,), padding=(2,))
    (1): ReLU()
    (2): MaxPool1d(kernel_size=8, stride=8, padding=0, dilation=1, ceil_mode=False)
  )
  (dropout): Dropout(p=0.5)
  (words_rnn): GRU(256, 128)
  (projector): Linear(in_features=128, out_features=2, bias=True)
)",charCNN,0.075,0.0,runs/May16_01-26-06_phobos-aijun_YoonKim_lr3_noise_level0_wordlen8_IMDB,Mokoron binary classification,249008
6,0.67324,0.9920941176470588,"MaxWordLen 8, MaxTexLen 128",0.5,30,0.6488113150767378,0.9921089713480508,,0.001,"YoonKimModel(
  (embedding): Linear(in_features=74, out_features=74, bias=True)
  (chars_cnn): Sequential(
    (0): Conv1d(74, 256, kernel_size=(5,), stride=(1,), padding=(2,))
    (1): ReLU()
    (2): MaxPool1d(kernel_size=8, stride=8, padding=0, dilation=1, ceil_mode=False)
  )
  (dropout): Dropout(p=0.5)
  (words_rnn): GRU(256, 128)
  (projector): Linear(in_features=128, out_features=2, bias=True)
)",charCNN,0.1,0.0,runs/May16_01-26-06_phobos-aijun_YoonKim_lr3_noise_level0_wordlen8_IMDB,Mokoron binary classification,249008
7,0.648,0.9920941176470588,"MaxWordLen 8, MaxTexLen 128",0.5,30,0.6114104036032854,0.9921089713480508,,0.001,"YoonKimModel(
  (embedding): Linear(in_features=74, out_features=74, bias=True)
  (chars_cnn): Sequential(
    (0): Conv1d(74, 256, kernel_size=(5,), stride=(1,), padding=(2,))
    (1): ReLU()
    (2): MaxPool1d(kernel_size=8, stride=8, padding=0, dilation=1, ceil_mode=False)
  )
  (dropout): Dropout(p=0.5)
  (words_rnn): GRU(256, 128)
  (projector): Linear(in_features=128, out_features=2, bias=True)
)",charCNN,0.125,0.0,runs/May16_01-26-06_phobos-aijun_YoonKim_lr3_noise_level0_wordlen8_IMDB,Mokoron binary classification,249008
8,0.61728,0.9920941176470588,"MaxWordLen 8, MaxTexLen 128",0.5,30,0.5659196080210508,0.9921089713480508,,0.001,"YoonKimModel(
  (embedding): Linear(in_features=74, out_features=74, bias=True)
  (chars_cnn): Sequential(
    (0): Conv1d(74, 256, kernel_size=(5,), stride=(1,), padding=(2,))
    (1): ReLU()
    (2): MaxPool1d(kernel_size=8, stride=8, padding=0, dilation=1, ceil_mode=False)
  )
  (dropout): Dropout(p=0.5)
  (words_rnn): GRU(256, 128)
  (projector): Linear(in_features=128, out_features=2, bias=True)
)",charCNN,0.15,0.0,runs/May16_01-26-06_phobos-aijun_YoonKim_lr3_noise_level0_wordlen8_IMDB,Mokoron binary classification,249008
9,0.60304,0.9920941176470588,"MaxWordLen 8, MaxTexLen 128",0.5,30,0.5372132064913262,0.9921089713480508,,0.001,"YoonKimModel(
  (embedding): Linear(in_features=74, out_features=74, bias=True)
  (chars_cnn): Sequential(
    (0): Conv1d(74, 256, kernel_size=(5,), stride=(1,), padding=(2,))
    (1): ReLU()
    (2): MaxPool1d(kernel_size=8, stride=8, padding=0, dilation=1, ceil_mode=False)
  )
  (dropout): Dropout(p=0.5)
  (words_rnn): GRU(256, 128)
  (projector): Linear(in_features=128, out_features=2, bias=True)
)",charCNN,0.175,0.0,runs/May16_01-26-06_phobos-aijun_YoonKim_lr3_noise_level0_wordlen8_IMDB,Mokoron binary classification,249008
10,0.58372,0.9920941176470588,"MaxWordLen 8, MaxTexLen 128",0.5,30,0.5080130477946391,0.9921089713480508,,0.001,"YoonKimModel(
  (embedding): Linear(in_features=74, out_features=74, bias=True)
  (chars_cnn): Sequential(
    (0): Conv1d(74, 256, kernel_size=(5,), stride=(1,), padding=(2,))
    (1): ReLU()
    (2): MaxPool1d(kernel_size=8, stride=8, padding=0, dilation=1, ceil_mode=False)
  )
  (dropout): Dropout(p=0.5)
  (words_rnn): GRU(256, 128)
  (projector): Linear(in_features=128, out_features=2, bias=True)
)",charCNN,0.2,0.0,runs/May16_01-26-06_phobos-aijun_YoonKim_lr3_noise_level0_wordlen8_IMDB,Mokoron binary classification,249008
11,0.80284,0.9920941176470588,"MaxWordLen 8, MaxTexLen 128",0.5,30,0.8071973401134364,0.9921089713480508,,0.001,"YoonKimModel(
  (embedding): Linear(in_features=74, out_features=74, bias=True)
  (chars_cnn): Sequential(
    (0): Conv1d(74, 256, kernel_size=(5,), stride=(1,), padding=(2,))
    (1): ReLU()
    (2): MaxPool1d(kernel_size=8, stride=8, padding=0, dilation=1, ceil_mode=False)
  )
  (dropout): Dropout(p=0.5)
  (words_rnn): GRU(256, 128)
  (projector): Linear(in_features=128, out_features=2, bias=True)
)",charCNN,-1.0,0.0,runs/May16_01-26-06_phobos-aijun_YoonKim_lr3_noise_level0_wordlen8_IMDB,Mokoron binary classification,249008
12,0.80444,0.9770352941176471,"MaxWordLen 8, MaxTexLen 128",0.5,30,0.7976658527500724,0.9766819571865444,,0.001,"YoonKimModel(
  (embedding): Linear(in_features=74, out_features=74, bias=True)
  (chars_cnn): Sequential(
    (0): Conv1d(74, 256, kernel_size=(5,), stride=(1,), padding=(2,))
    (1): ReLU()
    (2): MaxPool1d(kernel_size=8, stride=8, padding=0, dilation=1, ceil_mode=False)
  )
  (dropout): Dropout(p=0.5)
  (words_rnn): GRU(256, 128)
  (projector): Linear(in_features=128, out_features=2, bias=True)
)",charCNN,0.0,0.005,runs/May16_02-25-36_phobos-aijun_YoonKim_lr3_noise_level0.005_wordlen8_IMDB,Mokoron binary classification,249008
13,0.7986,0.9770352941176471,"MaxWordLen 8, MaxTexLen 128",0.5,30,0.7907054079893586,0.9766819571865444,,0.001,"YoonKimModel(
  (embedding): Linear(in_features=74, out_features=74, bias=True)
  (chars_cnn): Sequential(
    (0): Conv1d(74, 256, kernel_size=(5,), stride=(1,), padding=(2,))
    (1): ReLU()
    (2): MaxPool1d(kernel_size=8, stride=8, padding=0, dilation=1, ceil_mode=False)
  )
  (dropout): Dropout(p=0.5)
  (words_rnn): GRU(256, 128)
  (projector): Linear(in_features=128, out_features=2, bias=True)
)",charCNN,0.005,0.005,runs/May16_02-25-36_phobos-aijun_YoonKim_lr3_noise_level0.005_wordlen8_IMDB,Mokoron binary classification,249008
14,0.79068,0.9770352941176471,"MaxWordLen 8, MaxTexLen 128",0.5,30,0.781293099845363,0.9766819571865444,,0.001,"YoonKimModel(
  (embedding): Linear(in_features=74, out_features=74, bias=True)
  (chars_cnn): Sequential(
    (0): Conv1d(74, 256, kernel_size=(5,), stride=(1,), padding=(2,))
    (1): ReLU()
    (2): MaxPool1d(kernel_size=8, stride=8, padding=0, dilation=1, ceil_mode=False)
  )
  (dropout): Dropout(p=0.5)
  (words_rnn): GRU(256, 128)
  (projector): Linear(in_features=128, out_features=2, bias=True)
)",charCNN,0.01,0.005,runs/May16_02-25-36_phobos-aijun_YoonKim_lr3_noise_level0.005_wordlen8_IMDB,Mokoron binary classification,249008
15,0.77228,0.9770352941176471,"MaxWordLen 8, MaxTexLen 128",0.5,30,0.7573212839421971,0.9766819571865444,,0.001,"YoonKimModel(
  (embedding): Linear(in_features=74, out_features=74, bias=True)
  (chars_cnn): Sequential(
    (0): Conv1d(74, 256, kernel_size=(5,), stride=(1,), padding=(2,))
    (1): ReLU()
    (2): MaxPool1d(kernel_size=8, stride=8, padding=0, dilation=1, ceil_mode=False)
  )
  (dropout): Dropout(p=0.5)
  (words_rnn): GRU(256, 128)
  (projector): Linear(in_features=128, out_features=2, bias=True)
)",charCNN,0.025,0.005,runs/May16_02-25-36_phobos-aijun_YoonKim_lr3_noise_level0.005_wordlen8_IMDB,Mokoron binary classification,249008
16,0.74368,0.9770352941176471,"MaxWordLen 8, MaxTexLen 128",0.5,30,0.7191690770444386,0.9766819571865444,,0.001,"YoonKimModel(
  (embedding): Linear(in_features=74, out_features=74, bias=True)
  (chars_cnn): Sequential(
    (0): Conv1d(74, 256, kernel_size=(5,), stride=(1,), padding=(2,))
    (1): ReLU()
    (2): MaxPool1d(kernel_size=8, stride=8, padding=0, dilation=1, ceil_mode=False)
  )
  (dropout): Dropout(p=0.5)
  (words_rnn): GRU(256, 128)
  (projector): Linear(in_features=128, out_features=2, bias=True)
)",charCNN,0.05,0.005,runs/May16_02-25-36_phobos-aijun_YoonKim_lr3_noise_level0.005_wordlen8_IMDB,Mokoron binary classification,249008
17,0.71128,0.9770352941176471,"MaxWordLen 8, MaxTexLen 128",0.5,30,0.6730682127004257,0.9766819571865444,,0.001,"YoonKimModel(
  (embedding): Linear(in_features=74, out_features=74, bias=True)
  (chars_cnn): Sequential(
    (0): Conv1d(74, 256, kernel_size=(5,), stride=(1,), padding=(2,))
    (1): ReLU()
    (2): MaxPool1d(kernel_size=8, stride=8, padding=0, dilation=1, ceil_mode=False)
  )
  (dropout): Dropout(p=0.5)
  (words_rnn): GRU(256, 128)
  (projector): Linear(in_features=128, out_features=2, bias=True)
)",charCNN,0.075,0.005,runs/May16_02-25-36_phobos-aijun_YoonKim_lr3_noise_level0.005_wordlen8_IMDB,Mokoron binary classification,249008
18,0.67228,0.9770352941176471,"MaxWordLen 8, MaxTexLen 128",0.5,30,0.616163035839775,0.9766819571865444,,0.001,"YoonKimModel(
  (embedding): Linear(in_features=74, out_features=74, bias=True)
  (chars_cnn): Sequential(
    (0): Conv1d(74, 256, kernel_size=(5,), stride=(1,), padding=(2,))
    (1): ReLU()
    (2): MaxPool1d(kernel_size=8, stride=8, padding=0, dilation=1, ceil_mode=False)
  )
  (dropout): Dropout(p=0.5)
  (words_rnn): GRU(256, 128)
  (projector): Linear(in_features=128, out_features=2, bias=True)
)",charCNN,0.1,0.005,runs/May16_02-25-36_phobos-aijun_YoonKim_lr3_noise_level0.005_wordlen8_IMDB,Mokoron binary classification,249008
19,0.65264,0.9770352941176471,"MaxWordLen 8, MaxTexLen 128",0.5,30,0.579874213836478,0.9766819571865444,,0.001,"YoonKimModel(
  (embedding): Linear(in_features=74, out_features=74, bias=True)
  (chars_cnn): Sequential(
    (0): Conv1d(74, 256, kernel_size=(5,), stride=(1,), padding=(2,))
    (1): ReLU()
    (2): MaxPool1d(kernel_size=8, stride=8, padding=0, dilation=1, ceil_mode=False)
  )
  (dropout): Dropout(p=0.5)
  (words_rnn): GRU(256, 128)
  (projector): Linear(in_features=128, out_features=2, bias=True)
)",charCNN,0.125,0.005,runs/May16_02-25-36_phobos-aijun_YoonKim_lr3_noise_level0.005_wordlen8_IMDB,Mokoron binary classification,249008
20,0.6258,0.9770352941176471,"MaxWordLen 8, MaxTexLen 128",0.5,30,0.5348316841529511,0.9766819571865444,,0.001,"YoonKimModel(
  (embedding): Linear(in_features=74, out_features=74, bias=True)
  (chars_cnn): Sequential(
    (0): Conv1d(74, 256, kernel_size=(5,), stride=(1,), padding=(2,))
    (1): ReLU()
    (2): MaxPool1d(kernel_size=8, stride=8, padding=0, dilation=1, ceil_mode=False)
  )
  (dropout): Dropout(p=0.5)
  (words_rnn): GRU(256, 128)
  (projector): Linear(in_features=128, out_features=2, bias=True)
)",charCNN,0.15,0.005,runs/May16_02-25-36_phobos-aijun_YoonKim_lr3_noise_level0.005_wordlen8_IMDB,Mokoron binary classification,249008
21,0.59932,0.9770352941176471,"MaxWordLen 8, MaxTexLen 128",0.5,30,0.4834734182436963,0.9766819571865444,,0.001,"YoonKimModel(
  (embedding): Linear(in_features=74, out_features=74, bias=True)
  (chars_cnn): Sequential(
    (0): Conv1d(74, 256, kernel_size=(5,), stride=(1,), padding=(2,))
    (1): ReLU()
    (2): MaxPool1d(kernel_size=8, stride=8, padding=0, dilation=1, ceil_mode=False)
  )
  (dropout): Dropout(p=0.5)
  (words_rnn): GRU(256, 128)
  (projector): Linear(in_features=128, out_features=2, bias=True)
)",charCNN,0.175,0.005,runs/May16_02-25-36_phobos-aijun_YoonKim_lr3_noise_level0.005_wordlen8_IMDB,Mokoron binary classification,249008
22,0.58832,0.9770352941176471,"MaxWordLen 8, MaxTexLen 128",0.5,30,0.4647945917836714,0.9766819571865444,,0.001,"YoonKimModel(
  (embedding): Linear(in_features=74, out_features=74, bias=True)
  (chars_cnn): Sequential(
    (0): Conv1d(74, 256, kernel_size=(5,), stride=(1,), padding=(2,))
    (1): ReLU()
    (2): MaxPool1d(kernel_size=8, stride=8, padding=0, dilation=1, ceil_mode=False)
  )
  (dropout): Dropout(p=0.5)
  (words_rnn): GRU(256, 128)
  (projector): Linear(in_features=128, out_features=2, bias=True)
)",charCNN,0.2,0.005,runs/May16_02-25-36_phobos-aijun_YoonKim_lr3_noise_level0.005_wordlen8_IMDB,Mokoron binary classification,249008
23,0.7984,0.9770352941176471,"MaxWordLen 8, MaxTexLen 128",0.5,30,0.7904365904365905,0.9766819571865444,,0.001,"YoonKimModel(
  (embedding): Linear(in_features=74, out_features=74, bias=True)
  (chars_cnn): Sequential(
    (0): Conv1d(74, 256, kernel_size=(5,), stride=(1,), padding=(2,))
    (1): ReLU()
    (2): MaxPool1d(kernel_size=8, stride=8, padding=0, dilation=1, ceil_mode=False)
  )
  (dropout): Dropout(p=0.5)
  (words_rnn): GRU(256, 128)
  (projector): Linear(in_features=128, out_features=2, bias=True)
)",charCNN,-1.0,0.005,runs/May16_02-25-36_phobos-aijun_YoonKim_lr3_noise_level0.005_wordlen8_IMDB,Mokoron binary classification,249008
24,0.81004,0.9713882352941177,"MaxWordLen 8, MaxTexLen 128",0.5,30,0.8019186652763295,0.9708057236147124,,0.001,"YoonKimModel(
  (embedding): Linear(in_features=74, out_features=74, bias=True)
  (chars_cnn): Sequential(
    (0): Conv1d(74, 256, kernel_size=(5,), stride=(1,), padding=(2,))
    (1): ReLU()
    (2): MaxPool1d(kernel_size=8, stride=8, padding=0, dilation=1, ceil_mode=False)
  )
  (dropout): Dropout(p=0.5)
  (words_rnn): GRU(256, 128)
  (projector): Linear(in_features=128, out_features=2, bias=True)
)",charCNN,0.0,0.01,runs/May16_03-43-23_phobos-aijun_YoonKim_lr3_noise_level0.01_wordlen8_IMDB,Mokoron binary classification,249008
25,0.80512,0.9713882352941177,"MaxWordLen 8, MaxTexLen 128",0.5,30,0.7963721474546519,0.9708057236147124,,0.001,"YoonKimModel(
  (embedding): Linear(in_features=74, out_features=74, bias=True)
  (chars_cnn): Sequential(
    (0): Conv1d(74, 256, kernel_size=(5,), stride=(1,), padding=(2,))
    (1): ReLU()
    (2): MaxPool1d(kernel_size=8, stride=8, padding=0, dilation=1, ceil_mode=False)
  )
  (dropout): Dropout(p=0.5)
  (words_rnn): GRU(256, 128)
  (projector): Linear(in_features=128, out_features=2, bias=True)
)",charCNN,0.005,0.01,runs/May16_03-43-23_phobos-aijun_YoonKim_lr3_noise_level0.01_wordlen8_IMDB,Mokoron binary classification,249008
26,0.79816,0.9713882352941177,"MaxWordLen 8, MaxTexLen 128",0.5,30,0.7877513249768654,0.9708057236147124,,0.001,"YoonKimModel(
  (embedding): Linear(in_features=74, out_features=74, bias=True)
  (chars_cnn): Sequential(
    (0): Conv1d(74, 256, kernel_size=(5,), stride=(1,), padding=(2,))
    (1): ReLU()
    (2): MaxPool1d(kernel_size=8, stride=8, padding=0, dilation=1, ceil_mode=False)
  )
  (dropout): Dropout(p=0.5)
  (words_rnn): GRU(256, 128)
  (projector): Linear(in_features=128, out_features=2, bias=True)
)",charCNN,0.01,0.01,runs/May16_03-43-23_phobos-aijun_YoonKim_lr3_noise_level0.01_wordlen8_IMDB,Mokoron binary classification,249008
27,0.78728,0.9713882352941177,"MaxWordLen 8, MaxTexLen 128",0.5,30,0.773779139016505,0.9708057236147124,,0.001,"YoonKimModel(
  (embedding): Linear(in_features=74, out_features=74, bias=True)
  (chars_cnn): Sequential(
    (0): Conv1d(74, 256, kernel_size=(5,), stride=(1,), padding=(2,))
    (1): ReLU()
    (2): MaxPool1d(kernel_size=8, stride=8, padding=0, dilation=1, ceil_mode=False)
  )
  (dropout): Dropout(p=0.5)
  (words_rnn): GRU(256, 128)
  (projector): Linear(in_features=128, out_features=2, bias=True)
)",charCNN,0.025,0.01,runs/May16_03-43-23_phobos-aijun_YoonKim_lr3_noise_level0.01_wordlen8_IMDB,Mokoron binary classification,249008
28,0.75428,0.9713882352941177,"MaxWordLen 8, MaxTexLen 128",0.5,30,0.7338042206525978,0.9708057236147124,,0.001,"YoonKimModel(
  (embedding): Linear(in_features=74, out_features=74, bias=True)
  (chars_cnn): Sequential(
    (0): Conv1d(74, 256, kernel_size=(5,), stride=(1,), padding=(2,))
    (1): ReLU()
    (2): MaxPool1d(kernel_size=8, stride=8, padding=0, dilation=1, ceil_mode=False)
  )
  (dropout): Dropout(p=0.5)
  (words_rnn): GRU(256, 128)
  (projector): Linear(in_features=128, out_features=2, bias=True)
)",charCNN,0.05,0.01,runs/May16_03-43-23_phobos-aijun_YoonKim_lr3_noise_level0.01_wordlen8_IMDB,Mokoron binary classification,249008
29,0.72888,0.9713882352941177,"MaxWordLen 8, MaxTexLen 128",0.5,30,0.700591925081721,0.9708057236147124,,0.001,"YoonKimModel(
  (embedding): Linear(in_features=74, out_features=74, bias=True)
  (chars_cnn): Sequential(
    (0): Conv1d(74, 256, kernel_size=(5,), stride=(1,), padding=(2,))
    (1): ReLU()
    (2): MaxPool1d(kernel_size=8, stride=8, padding=0, dilation=1, ceil_mode=False)
  )
  (dropout): Dropout(p=0.5)
  (words_rnn): GRU(256, 128)
  (projector): Linear(in_features=128, out_features=2, bias=True)
)",charCNN,0.075,0.01,runs/May16_03-43-23_phobos-aijun_YoonKim_lr3_noise_level0.01_wordlen8_IMDB,Mokoron binary classification,249008
30,0.70244,0.9713882352941177,"MaxWordLen 8, MaxTexLen 128",0.5,30,0.6624313654308662,0.9708057236147124,,0.001,"YoonKimModel(
  (embedding): Linear(in_features=74, out_features=74, bias=True)
  (chars_cnn): Sequential(
    (0): Conv1d(74, 256, kernel_size=(5,), stride=(1,), padding=(2,))
    (1): ReLU()
    (2): MaxPool1d(kernel_size=8, stride=8, padding=0, dilation=1, ceil_mode=False)
  )
  (dropout): Dropout(p=0.5)
  (words_rnn): GRU(256, 128)
  (projector): Linear(in_features=128, out_features=2, bias=True)
)",charCNN,0.1,0.01,runs/May16_03-43-23_phobos-aijun_YoonKim_lr3_noise_level0.01_wordlen8_IMDB,Mokoron binary classification,249008
31,0.67416,0.9713882352941177,"MaxWordLen 8, MaxTexLen 128",0.5,30,0.6199850718417614,0.9708057236147124,,0.001,"YoonKimModel(
  (embedding): Linear(in_features=74, out_features=74, bias=True)
  (chars_cnn): Sequential(
    (0): Conv1d(74, 256, kernel_size=(5,), stride=(1,), padding=(2,))
    (1): ReLU()
    (2): MaxPool1d(kernel_size=8, stride=8, padding=0, dilation=1, ceil_mode=False)
  )
  (dropout): Dropout(p=0.5)
  (words_rnn): GRU(256, 128)
  (projector): Linear(in_features=128, out_features=2, bias=True)
)",charCNN,0.125,0.01,runs/May16_03-43-23_phobos-aijun_YoonKim_lr3_noise_level0.01_wordlen8_IMDB,Mokoron binary classification,249008
32,0.64964,0.9713882352941177,"MaxWordLen 8, MaxTexLen 128",0.5,30,0.5824872491539158,0.9708057236147124,,0.001,"YoonKimModel(
  (embedding): Linear(in_features=74, out_features=74, bias=True)
  (chars_cnn): Sequential(
    (0): Conv1d(74, 256, kernel_size=(5,), stride=(1,), padding=(2,))
    (1): ReLU()
    (2): MaxPool1d(kernel_size=8, stride=8, padding=0, dilation=1, ceil_mode=False)
  )
  (dropout): Dropout(p=0.5)
  (words_rnn): GRU(256, 128)
  (projector): Linear(in_features=128, out_features=2, bias=True)
)",charCNN,0.15,0.01,runs/May16_03-43-23_phobos-aijun_YoonKim_lr3_noise_level0.01_wordlen8_IMDB,Mokoron binary classification,249008
33,0.6334,0.9713882352941177,"MaxWordLen 8, MaxTexLen 128",0.5,30,0.5525557779622126,0.9708057236147124,,0.001,"YoonKimModel(
  (embedding): Linear(in_features=74, out_features=74, bias=True)
  (chars_cnn): Sequential(
    (0): Conv1d(74, 256, kernel_size=(5,), stride=(1,), padding=(2,))
    (1): ReLU()
    (2): MaxPool1d(kernel_size=8, stride=8, padding=0, dilation=1, ceil_mode=False)
  )
  (dropout): Dropout(p=0.5)
  (words_rnn): GRU(256, 128)
  (projector): Linear(in_features=128, out_features=2, bias=True)
)",charCNN,0.175,0.01,runs/May16_03-43-23_phobos-aijun_YoonKim_lr3_noise_level0.01_wordlen8_IMDB,Mokoron binary classification,249008
34,0.613,0.9713882352941177,"MaxWordLen 8, MaxTexLen 128",0.5,30,0.5200654794384642,0.9708057236147124,,0.001,"YoonKimModel(
  (embedding): Linear(in_features=74, out_features=74, bias=True)
  (chars_cnn): Sequential(
    (0): Conv1d(74, 256, kernel_size=(5,), stride=(1,), padding=(2,))
    (1): ReLU()
    (2): MaxPool1d(kernel_size=8, stride=8, padding=0, dilation=1, ceil_mode=False)
  )
  (dropout): Dropout(p=0.5)
  (words_rnn): GRU(256, 128)
  (projector): Linear(in_features=128, out_features=2, bias=True)
)",charCNN,0.2,0.01,runs/May16_03-43-23_phobos-aijun_YoonKim_lr3_noise_level0.01_wordlen8_IMDB,Mokoron binary classification,249008
35,0.79872,0.9713882352941177,"MaxWordLen 8, MaxTexLen 128",0.5,30,0.7889084654752916,0.9708057236147124,,0.001,"YoonKimModel(
  (embedding): Linear(in_features=74, out_features=74, bias=True)
  (chars_cnn): Sequential(
    (0): Conv1d(74, 256, kernel_size=(5,), stride=(1,), padding=(2,))
    (1): ReLU()
    (2): MaxPool1d(kernel_size=8, stride=8, padding=0, dilation=1, ceil_mode=False)
  )
  (dropout): Dropout(p=0.5)
  (words_rnn): GRU(256, 128)
  (projector): Linear(in_features=128, out_features=2, bias=True)
)",charCNN,-1.0,0.01,runs/May16_03-43-23_phobos-aijun_YoonKim_lr3_noise_level0.01_wordlen8_IMDB,Mokoron binary classification,249008
36,0.82404,0.9378352941176471,"MaxWordLen 8, MaxTexLen 128",0.5,30,0.8194096637793012,0.9362113090926651,,0.001,"YoonKimModel(
  (embedding): Linear(in_features=74, out_features=74, bias=True)
  (chars_cnn): Sequential(
    (0): Conv1d(74, 256, kernel_size=(5,), stride=(1,), padding=(2,))
    (1): ReLU()
    (2): MaxPool1d(kernel_size=8, stride=8, padding=0, dilation=1, ceil_mode=False)
  )
  (dropout): Dropout(p=0.5)
  (words_rnn): GRU(256, 128)
  (projector): Linear(in_features=128, out_features=2, bias=True)
)",charCNN,0.0,0.025,runs/May16_05-01-17_phobos-aijun_YoonKim_lr3_noise_level0.025_wordlen8_IMDB,Mokoron binary classification,249008
37,0.82152,0.9378352941176471,"MaxWordLen 8, MaxTexLen 128",0.5,30,0.8169510994420741,0.9362113090926651,,0.001,"YoonKimModel(
  (embedding): Linear(in_features=74, out_features=74, bias=True)
  (chars_cnn): Sequential(
    (0): Conv1d(74, 256, kernel_size=(5,), stride=(1,), padding=(2,))
    (1): ReLU()
    (2): MaxPool1d(kernel_size=8, stride=8, padding=0, dilation=1, ceil_mode=False)
  )
  (dropout): Dropout(p=0.5)
  (words_rnn): GRU(256, 128)
  (projector): Linear(in_features=128, out_features=2, bias=True)
)",charCNN,0.005,0.025,runs/May16_05-01-17_phobos-aijun_YoonKim_lr3_noise_level0.025_wordlen8_IMDB,Mokoron binary classification,249008
38,0.81704,0.9378352941176471,"MaxWordLen 8, MaxTexLen 128",0.5,30,0.811955270514718,0.9362113090926651,,0.001,"YoonKimModel(
  (embedding): Linear(in_features=74, out_features=74, bias=True)
  (chars_cnn): Sequential(
    (0): Conv1d(74, 256, kernel_size=(5,), stride=(1,), padding=(2,))
    (1): ReLU()
    (2): MaxPool1d(kernel_size=8, stride=8, padding=0, dilation=1, ceil_mode=False)
  )
  (dropout): Dropout(p=0.5)
  (words_rnn): GRU(256, 128)
  (projector): Linear(in_features=128, out_features=2, bias=True)
)",charCNN,0.01,0.025,runs/May16_05-01-17_phobos-aijun_YoonKim_lr3_noise_level0.025_wordlen8_IMDB,Mokoron binary classification,249008
39,0.80584,0.9378352941176471,"MaxWordLen 8, MaxTexLen 128",0.5,30,0.7987562189054727,0.9362113090926651,,0.001,"YoonKimModel(
  (embedding): Linear(in_features=74, out_features=74, bias=True)
  (chars_cnn): Sequential(
    (0): Conv1d(74, 256, kernel_size=(5,), stride=(1,), padding=(2,))
    (1): ReLU()
    (2): MaxPool1d(kernel_size=8, stride=8, padding=0, dilation=1, ceil_mode=False)
  )
  (dropout): Dropout(p=0.5)
  (words_rnn): GRU(256, 128)
  (projector): Linear(in_features=128, out_features=2, bias=True)
)",charCNN,0.025,0.025,runs/May16_05-01-17_phobos-aijun_YoonKim_lr3_noise_level0.025_wordlen8_IMDB,Mokoron binary classification,249008
40,0.78344,0.9378352941176471,"MaxWordLen 8, MaxTexLen 128",0.5,30,0.773396952954964,0.9362113090926651,,0.001,"YoonKimModel(
  (embedding): Linear(in_features=74, out_features=74, bias=True)
  (chars_cnn): Sequential(
    (0): Conv1d(74, 256, kernel_size=(5,), stride=(1,), padding=(2,))
    (1): ReLU()
    (2): MaxPool1d(kernel_size=8, stride=8, padding=0, dilation=1, ceil_mode=False)
  )
  (dropout): Dropout(p=0.5)
  (words_rnn): GRU(256, 128)
  (projector): Linear(in_features=128, out_features=2, bias=True)
)",charCNN,0.05,0.025,runs/May16_05-01-17_phobos-aijun_YoonKim_lr3_noise_level0.025_wordlen8_IMDB,Mokoron binary classification,249008
41,0.76084,0.9378352941176471,"MaxWordLen 8, MaxTexLen 128",0.5,30,0.7464699147691135,0.9362113090926651,,0.001,"YoonKimModel(
  (embedding): Linear(in_features=74, out_features=74, bias=True)
  (chars_cnn): Sequential(
    (0): Conv1d(74, 256, kernel_size=(5,), stride=(1,), padding=(2,))
    (1): ReLU()
    (2): MaxPool1d(kernel_size=8, stride=8, padding=0, dilation=1, ceil_mode=False)
  )
  (dropout): Dropout(p=0.5)
  (words_rnn): GRU(256, 128)
  (projector): Linear(in_features=128, out_features=2, bias=True)
)",charCNN,0.075,0.025,runs/May16_05-01-17_phobos-aijun_YoonKim_lr3_noise_level0.025_wordlen8_IMDB,Mokoron binary classification,249008
42,0.73748,0.9378352941176471,"MaxWordLen 8, MaxTexLen 128",0.5,30,0.7178053919250118,0.9362113090926651,,0.001,"YoonKimModel(
  (embedding): Linear(in_features=74, out_features=74, bias=True)
  (chars_cnn): Sequential(
    (0): Conv1d(74, 256, kernel_size=(5,), stride=(1,), padding=(2,))
    (1): ReLU()
    (2): MaxPool1d(kernel_size=8, stride=8, padding=0, dilation=1, ceil_mode=False)
  )
  (dropout): Dropout(p=0.5)
  (words_rnn): GRU(256, 128)
  (projector): Linear(in_features=128, out_features=2, bias=True)
)",charCNN,0.1,0.025,runs/May16_05-01-17_phobos-aijun_YoonKim_lr3_noise_level0.025_wordlen8_IMDB,Mokoron binary classification,249008
43,0.71256,0.9378352941176471,"MaxWordLen 8, MaxTexLen 128",0.5,30,0.6865567477972608,0.9362113090926651,,0.001,"YoonKimModel(
  (embedding): Linear(in_features=74, out_features=74, bias=True)
  (chars_cnn): Sequential(
    (0): Conv1d(74, 256, kernel_size=(5,), stride=(1,), padding=(2,))
    (1): ReLU()
    (2): MaxPool1d(kernel_size=8, stride=8, padding=0, dilation=1, ceil_mode=False)
  )
  (dropout): Dropout(p=0.5)
  (words_rnn): GRU(256, 128)
  (projector): Linear(in_features=128, out_features=2, bias=True)
)",charCNN,0.125,0.025,runs/May16_05-01-17_phobos-aijun_YoonKim_lr3_noise_level0.025_wordlen8_IMDB,Mokoron binary classification,249008
44,0.68824,0.9378352941176471,"MaxWordLen 8, MaxTexLen 128",0.5,30,0.6539690996270644,0.9362113090926651,,0.001,"YoonKimModel(
  (embedding): Linear(in_features=74, out_features=74, bias=True)
  (chars_cnn): Sequential(
    (0): Conv1d(74, 256, kernel_size=(5,), stride=(1,), padding=(2,))
    (1): ReLU()
    (2): MaxPool1d(kernel_size=8, stride=8, padding=0, dilation=1, ceil_mode=False)
  )
  (dropout): Dropout(p=0.5)
  (words_rnn): GRU(256, 128)
  (projector): Linear(in_features=128, out_features=2, bias=True)
)",charCNN,0.15,0.025,runs/May16_05-01-17_phobos-aijun_YoonKim_lr3_noise_level0.025_wordlen8_IMDB,Mokoron binary classification,249008
45,0.66764,0.9378352941176471,"MaxWordLen 8, MaxTexLen 128",0.5,30,0.6218540936604015,0.9362113090926651,,0.001,"YoonKimModel(
  (embedding): Linear(in_features=74, out_features=74, bias=True)
  (chars_cnn): Sequential(
    (0): Conv1d(74, 256, kernel_size=(5,), stride=(1,), padding=(2,))
    (1): ReLU()
    (2): MaxPool1d(kernel_size=8, stride=8, padding=0, dilation=1, ceil_mode=False)
  )
  (dropout): Dropout(p=0.5)
  (words_rnn): GRU(256, 128)
  (projector): Linear(in_features=128, out_features=2, bias=True)
)",charCNN,0.175,0.025,runs/May16_05-01-17_phobos-aijun_YoonKim_lr3_noise_level0.025_wordlen8_IMDB,Mokoron binary classification,249008
46,0.65312,0.9378352941176471,"MaxWordLen 8, MaxTexLen 128",0.5,30,0.5969885677107538,0.9362113090926651,,0.001,"YoonKimModel(
  (embedding): Linear(in_features=74, out_features=74, bias=True)
  (chars_cnn): Sequential(
    (0): Conv1d(74, 256, kernel_size=(5,), stride=(1,), padding=(2,))
    (1): ReLU()
    (2): MaxPool1d(kernel_size=8, stride=8, padding=0, dilation=1, ceil_mode=False)
  )
  (dropout): Dropout(p=0.5)
  (words_rnn): GRU(256, 128)
  (projector): Linear(in_features=128, out_features=2, bias=True)
)",charCNN,0.2,0.025,runs/May16_05-01-17_phobos-aijun_YoonKim_lr3_noise_level0.025_wordlen8_IMDB,Mokoron binary classification,249008
47,0.8054,0.9378352941176471,"MaxWordLen 8, MaxTexLen 128",0.5,30,0.7983085278388127,0.9362113090926651,,0.001,"YoonKimModel(
  (embedding): Linear(in_features=74, out_features=74, bias=True)
  (chars_cnn): Sequential(
    (0): Conv1d(74, 256, kernel_size=(5,), stride=(1,), padding=(2,))
    (1): ReLU()
    (2): MaxPool1d(kernel_size=8, stride=8, padding=0, dilation=1, ceil_mode=False)
  )
  (dropout): Dropout(p=0.5)
  (words_rnn): GRU(256, 128)
  (projector): Linear(in_features=128, out_features=2, bias=True)
)",charCNN,-1.0,0.025,runs/May16_05-01-17_phobos-aijun_YoonKim_lr3_noise_level0.025_wordlen8_IMDB,Mokoron binary classification,249008
48,0.83536,0.8987294117647059,"MaxWordLen 8, MaxTexLen 128",0.5,30,0.8361986628462273,0.8992131884600975,,0.001,"YoonKimModel(
  (embedding): Linear(in_features=74, out_features=74, bias=True)
  (chars_cnn): Sequential(
    (0): Conv1d(74, 256, kernel_size=(5,), stride=(1,), padding=(2,))
    (1): ReLU()
    (2): MaxPool1d(kernel_size=8, stride=8, padding=0, dilation=1, ceil_mode=False)
  )
  (dropout): Dropout(p=0.5)
  (words_rnn): GRU(256, 128)
  (projector): Linear(in_features=128, out_features=2, bias=True)
)",charCNN,0.0,0.05,runs/May16_06-19-10_phobos-aijun_YoonKim_lr3_noise_level0.05_wordlen8_IMDB,Mokoron binary classification,249008
49,0.83064,0.8987294117647059,"MaxWordLen 8, MaxTexLen 128",0.5,30,0.8317972350230415,0.8992131884600975,,0.001,"YoonKimModel(
  (embedding): Linear(in_features=74, out_features=74, bias=True)
  (chars_cnn): Sequential(
    (0): Conv1d(74, 256, kernel_size=(5,), stride=(1,), padding=(2,))
    (1): ReLU()
    (2): MaxPool1d(kernel_size=8, stride=8, padding=0, dilation=1, ceil_mode=False)
  )
  (dropout): Dropout(p=0.5)
  (words_rnn): GRU(256, 128)
  (projector): Linear(in_features=128, out_features=2, bias=True)
)",charCNN,0.005,0.05,runs/May16_06-19-10_phobos-aijun_YoonKim_lr3_noise_level0.05_wordlen8_IMDB,Mokoron binary classification,249008
50,0.82932,0.8987294117647059,"MaxWordLen 8, MaxTexLen 128",0.5,30,0.8305064548162859,0.8992131884600975,,0.001,"YoonKimModel(
  (embedding): Linear(in_features=74, out_features=74, bias=True)
  (chars_cnn): Sequential(
    (0): Conv1d(74, 256, kernel_size=(5,), stride=(1,), padding=(2,))
    (1): ReLU()
    (2): MaxPool1d(kernel_size=8, stride=8, padding=0, dilation=1, ceil_mode=False)
  )
  (dropout): Dropout(p=0.5)
  (words_rnn): GRU(256, 128)
  (projector): Linear(in_features=128, out_features=2, bias=True)
)",charCNN,0.01,0.05,runs/May16_06-19-10_phobos-aijun_YoonKim_lr3_noise_level0.05_wordlen8_IMDB,Mokoron binary classification,249008
51,0.82072,0.8987294117647059,"MaxWordLen 8, MaxTexLen 128",0.5,30,0.8218317697567182,0.8992131884600975,,0.001,"YoonKimModel(
  (embedding): Linear(in_features=74, out_features=74, bias=True)
  (chars_cnn): Sequential(
    (0): Conv1d(74, 256, kernel_size=(5,), stride=(1,), padding=(2,))
    (1): ReLU()
    (2): MaxPool1d(kernel_size=8, stride=8, padding=0, dilation=1, ceil_mode=False)
  )
  (dropout): Dropout(p=0.5)
  (words_rnn): GRU(256, 128)
  (projector): Linear(in_features=128, out_features=2, bias=True)
)",charCNN,0.025,0.05,runs/May16_06-19-10_phobos-aijun_YoonKim_lr3_noise_level0.05_wordlen8_IMDB,Mokoron binary classification,249008
52,0.79912,0.8987294117647059,"MaxWordLen 8, MaxTexLen 128",0.5,30,0.7987819536821862,0.8992131884600975,,0.001,"YoonKimModel(
  (embedding): Linear(in_features=74, out_features=74, bias=True)
  (chars_cnn): Sequential(
    (0): Conv1d(74, 256, kernel_size=(5,), stride=(1,), padding=(2,))
    (1): ReLU()
    (2): MaxPool1d(kernel_size=8, stride=8, padding=0, dilation=1, ceil_mode=False)
  )
  (dropout): Dropout(p=0.5)
  (words_rnn): GRU(256, 128)
  (projector): Linear(in_features=128, out_features=2, bias=True)
)",charCNN,0.05,0.05,runs/May16_06-19-10_phobos-aijun_YoonKim_lr3_noise_level0.05_wordlen8_IMDB,Mokoron binary classification,249008
53,0.78208,0.8987294117647059,"MaxWordLen 8, MaxTexLen 128",0.5,30,0.7810817327011171,0.8992131884600975,,0.001,"YoonKimModel(
  (embedding): Linear(in_features=74, out_features=74, bias=True)
  (chars_cnn): Sequential(
    (0): Conv1d(74, 256, kernel_size=(5,), stride=(1,), padding=(2,))
    (1): ReLU()
    (2): MaxPool1d(kernel_size=8, stride=8, padding=0, dilation=1, ceil_mode=False)
  )
  (dropout): Dropout(p=0.5)
  (words_rnn): GRU(256, 128)
  (projector): Linear(in_features=128, out_features=2, bias=True)
)",charCNN,0.075,0.05,runs/May16_06-19-10_phobos-aijun_YoonKim_lr3_noise_level0.05_wordlen8_IMDB,Mokoron binary classification,249008
54,0.7704,0.8987294117647059,"MaxWordLen 8, MaxTexLen 128",0.5,30,0.7677617737497977,0.8992131884600975,,0.001,"YoonKimModel(
  (embedding): Linear(in_features=74, out_features=74, bias=True)
  (chars_cnn): Sequential(
    (0): Conv1d(74, 256, kernel_size=(5,), stride=(1,), padding=(2,))
    (1): ReLU()
    (2): MaxPool1d(kernel_size=8, stride=8, padding=0, dilation=1, ceil_mode=False)
  )
  (dropout): Dropout(p=0.5)
  (words_rnn): GRU(256, 128)
  (projector): Linear(in_features=128, out_features=2, bias=True)
)",charCNN,0.1,0.05,runs/May16_06-19-10_phobos-aijun_YoonKim_lr3_noise_level0.05_wordlen8_IMDB,Mokoron binary classification,249008
55,0.7458,0.8987294117647059,"MaxWordLen 8, MaxTexLen 128",0.5,30,0.739751832589377,0.8992131884600975,,0.001,"YoonKimModel(
  (embedding): Linear(in_features=74, out_features=74, bias=True)
  (chars_cnn): Sequential(
    (0): Conv1d(74, 256, kernel_size=(5,), stride=(1,), padding=(2,))
    (1): ReLU()
    (2): MaxPool1d(kernel_size=8, stride=8, padding=0, dilation=1, ceil_mode=False)
  )
  (dropout): Dropout(p=0.5)
  (words_rnn): GRU(256, 128)
  (projector): Linear(in_features=128, out_features=2, bias=True)
)",charCNN,0.125,0.05,runs/May16_06-19-10_phobos-aijun_YoonKim_lr3_noise_level0.05_wordlen8_IMDB,Mokoron binary classification,249008
56,0.72212,0.8987294117647059,"MaxWordLen 8, MaxTexLen 128",0.5,30,0.7126845609826709,0.8992131884600975,,0.001,"YoonKimModel(
  (embedding): Linear(in_features=74, out_features=74, bias=True)
  (chars_cnn): Sequential(
    (0): Conv1d(74, 256, kernel_size=(5,), stride=(1,), padding=(2,))
    (1): ReLU()
    (2): MaxPool1d(kernel_size=8, stride=8, padding=0, dilation=1, ceil_mode=False)
  )
  (dropout): Dropout(p=0.5)
  (words_rnn): GRU(256, 128)
  (projector): Linear(in_features=128, out_features=2, bias=True)
)",charCNN,0.15,0.05,runs/May16_06-19-10_phobos-aijun_YoonKim_lr3_noise_level0.05_wordlen8_IMDB,Mokoron binary classification,249008
57,0.69692,0.8987294117647059,"MaxWordLen 8, MaxTexLen 128",0.5,30,0.6830900497720525,0.8992131884600975,,0.001,"YoonKimModel(
  (embedding): Linear(in_features=74, out_features=74, bias=True)
  (chars_cnn): Sequential(
    (0): Conv1d(74, 256, kernel_size=(5,), stride=(1,), padding=(2,))
    (1): ReLU()
    (2): MaxPool1d(kernel_size=8, stride=8, padding=0, dilation=1, ceil_mode=False)
  )
  (dropout): Dropout(p=0.5)
  (words_rnn): GRU(256, 128)
  (projector): Linear(in_features=128, out_features=2, bias=True)
)",charCNN,0.175,0.05,runs/May16_06-19-10_phobos-aijun_YoonKim_lr3_noise_level0.05_wordlen8_IMDB,Mokoron binary classification,249008
58,0.67812,0.8987294117647059,"MaxWordLen 8, MaxTexLen 128",0.5,30,0.656243325216797,0.8992131884600975,,0.001,"YoonKimModel(
  (embedding): Linear(in_features=74, out_features=74, bias=True)
  (chars_cnn): Sequential(
    (0): Conv1d(74, 256, kernel_size=(5,), stride=(1,), padding=(2,))
    (1): ReLU()
    (2): MaxPool1d(kernel_size=8, stride=8, padding=0, dilation=1, ceil_mode=False)
  )
  (dropout): Dropout(p=0.5)
  (words_rnn): GRU(256, 128)
  (projector): Linear(in_features=128, out_features=2, bias=True)
)",charCNN,0.2,0.05,runs/May16_06-19-10_phobos-aijun_YoonKim_lr3_noise_level0.05_wordlen8_IMDB,Mokoron binary classification,249008
59,0.8012,0.8987294117647059,"MaxWordLen 8, MaxTexLen 128",0.5,30,0.8008814102564102,0.8992131884600975,,0.001,"YoonKimModel(
  (embedding): Linear(in_features=74, out_features=74, bias=True)
  (chars_cnn): Sequential(
    (0): Conv1d(74, 256, kernel_size=(5,), stride=(1,), padding=(2,))
    (1): ReLU()
    (2): MaxPool1d(kernel_size=8, stride=8, padding=0, dilation=1, ceil_mode=False)
  )
  (dropout): Dropout(p=0.5)
  (words_rnn): GRU(256, 128)
  (projector): Linear(in_features=128, out_features=2, bias=True)
)",charCNN,-1.0,0.05,runs/May16_06-19-10_phobos-aijun_YoonKim_lr3_noise_level0.05_wordlen8_IMDB,Mokoron binary classification,249008
60,0.83896,0.8531294117647059,"MaxWordLen 8, MaxTexLen 128",0.5,30,0.8428571428571429,0.858784670376906,,0.001,"YoonKimModel(
  (embedding): Linear(in_features=74, out_features=74, bias=True)
  (chars_cnn): Sequential(
    (0): Conv1d(74, 256, kernel_size=(5,), stride=(1,), padding=(2,))
    (1): ReLU()
    (2): MaxPool1d(kernel_size=8, stride=8, padding=0, dilation=1, ceil_mode=False)
  )
  (dropout): Dropout(p=0.5)
  (words_rnn): GRU(256, 128)
  (projector): Linear(in_features=128, out_features=2, bias=True)
)",charCNN,0.0,0.075,runs/May16_07-37-07_phobos-aijun_YoonKim_lr3_noise_level0.075_wordlen8_IMDB,Mokoron binary classification,249008
61,0.83644,0.8531294117647059,"MaxWordLen 8, MaxTexLen 128",0.5,30,0.8405661480874956,0.858784670376906,,0.001,"YoonKimModel(
  (embedding): Linear(in_features=74, out_features=74, bias=True)
  (chars_cnn): Sequential(
    (0): Conv1d(74, 256, kernel_size=(5,), stride=(1,), padding=(2,))
    (1): ReLU()
    (2): MaxPool1d(kernel_size=8, stride=8, padding=0, dilation=1, ceil_mode=False)
  )
  (dropout): Dropout(p=0.5)
  (words_rnn): GRU(256, 128)
  (projector): Linear(in_features=128, out_features=2, bias=True)
)",charCNN,0.005,0.075,runs/May16_07-37-07_phobos-aijun_YoonKim_lr3_noise_level0.075_wordlen8_IMDB,Mokoron binary classification,249008
62,0.83372,0.8531294117647059,"MaxWordLen 8, MaxTexLen 128",0.5,30,0.8379905686114034,0.858784670376906,,0.001,"YoonKimModel(
  (embedding): Linear(in_features=74, out_features=74, bias=True)
  (chars_cnn): Sequential(
    (0): Conv1d(74, 256, kernel_size=(5,), stride=(1,), padding=(2,))
    (1): ReLU()
    (2): MaxPool1d(kernel_size=8, stride=8, padding=0, dilation=1, ceil_mode=False)
  )
  (dropout): Dropout(p=0.5)
  (words_rnn): GRU(256, 128)
  (projector): Linear(in_features=128, out_features=2, bias=True)
)",charCNN,0.01,0.075,runs/May16_07-37-07_phobos-aijun_YoonKim_lr3_noise_level0.075_wordlen8_IMDB,Mokoron binary classification,249008
63,0.82476,0.8531294117647059,"MaxWordLen 8, MaxTexLen 128",0.5,30,0.8301345430576558,0.858784670376906,,0.001,"YoonKimModel(
  (embedding): Linear(in_features=74, out_features=74, bias=True)
  (chars_cnn): Sequential(
    (0): Conv1d(74, 256, kernel_size=(5,), stride=(1,), padding=(2,))
    (1): ReLU()
    (2): MaxPool1d(kernel_size=8, stride=8, padding=0, dilation=1, ceil_mode=False)
  )
  (dropout): Dropout(p=0.5)
  (words_rnn): GRU(256, 128)
  (projector): Linear(in_features=128, out_features=2, bias=True)
)",charCNN,0.025,0.075,runs/May16_07-37-07_phobos-aijun_YoonKim_lr3_noise_level0.075_wordlen8_IMDB,Mokoron binary classification,249008
64,0.80784,0.8531294117647059,"MaxWordLen 8, MaxTexLen 128",0.5,30,0.814617581230223,0.858784670376906,,0.001,"YoonKimModel(
  (embedding): Linear(in_features=74, out_features=74, bias=True)
  (chars_cnn): Sequential(
    (0): Conv1d(74, 256, kernel_size=(5,), stride=(1,), padding=(2,))
    (1): ReLU()
    (2): MaxPool1d(kernel_size=8, stride=8, padding=0, dilation=1, ceil_mode=False)
  )
  (dropout): Dropout(p=0.5)
  (words_rnn): GRU(256, 128)
  (projector): Linear(in_features=128, out_features=2, bias=True)
)",charCNN,0.05,0.075,runs/May16_07-37-07_phobos-aijun_YoonKim_lr3_noise_level0.075_wordlen8_IMDB,Mokoron binary classification,249008
65,0.79704,0.8531294117647059,"MaxWordLen 8, MaxTexLen 128",0.5,30,0.8060694083473474,0.858784670376906,,0.001,"YoonKimModel(
  (embedding): Linear(in_features=74, out_features=74, bias=True)
  (chars_cnn): Sequential(
    (0): Conv1d(74, 256, kernel_size=(5,), stride=(1,), padding=(2,))
    (1): ReLU()
    (2): MaxPool1d(kernel_size=8, stride=8, padding=0, dilation=1, ceil_mode=False)
  )
  (dropout): Dropout(p=0.5)
  (words_rnn): GRU(256, 128)
  (projector): Linear(in_features=128, out_features=2, bias=True)
)",charCNN,0.075,0.075,runs/May16_07-37-07_phobos-aijun_YoonKim_lr3_noise_level0.075_wordlen8_IMDB,Mokoron binary classification,249008
66,0.77268,0.8531294117647059,"MaxWordLen 8, MaxTexLen 128",0.5,30,0.7832322538810695,0.858784670376906,,0.001,"YoonKimModel(
  (embedding): Linear(in_features=74, out_features=74, bias=True)
  (chars_cnn): Sequential(
    (0): Conv1d(74, 256, kernel_size=(5,), stride=(1,), padding=(2,))
    (1): ReLU()
    (2): MaxPool1d(kernel_size=8, stride=8, padding=0, dilation=1, ceil_mode=False)
  )
  (dropout): Dropout(p=0.5)
  (words_rnn): GRU(256, 128)
  (projector): Linear(in_features=128, out_features=2, bias=True)
)",charCNN,0.1,0.075,runs/May16_07-37-07_phobos-aijun_YoonKim_lr3_noise_level0.075_wordlen8_IMDB,Mokoron binary classification,249008
67,0.75892,0.8531294117647059,"MaxWordLen 8, MaxTexLen 128",0.5,30,0.7721102582523538,0.858784670376906,,0.001,"YoonKimModel(
  (embedding): Linear(in_features=74, out_features=74, bias=True)
  (chars_cnn): Sequential(
    (0): Conv1d(74, 256, kernel_size=(5,), stride=(1,), padding=(2,))
    (1): ReLU()
    (2): MaxPool1d(kernel_size=8, stride=8, padding=0, dilation=1, ceil_mode=False)
  )
  (dropout): Dropout(p=0.5)
  (words_rnn): GRU(256, 128)
  (projector): Linear(in_features=128, out_features=2, bias=True)
)",charCNN,0.125,0.075,runs/May16_07-37-07_phobos-aijun_YoonKim_lr3_noise_level0.075_wordlen8_IMDB,Mokoron binary classification,249008
68,0.7446,0.8531294117647059,"MaxWordLen 8, MaxTexLen 128",0.5,30,0.7593018434048328,0.858784670376906,,0.001,"YoonKimModel(
  (embedding): Linear(in_features=74, out_features=74, bias=True)
  (chars_cnn): Sequential(
    (0): Conv1d(74, 256, kernel_size=(5,), stride=(1,), padding=(2,))
    (1): ReLU()
    (2): MaxPool1d(kernel_size=8, stride=8, padding=0, dilation=1, ceil_mode=False)
  )
  (dropout): Dropout(p=0.5)
  (words_rnn): GRU(256, 128)
  (projector): Linear(in_features=128, out_features=2, bias=True)
)",charCNN,0.15,0.075,runs/May16_07-37-07_phobos-aijun_YoonKim_lr3_noise_level0.075_wordlen8_IMDB,Mokoron binary classification,249008
69,0.72084,0.8531294117647059,"MaxWordLen 8, MaxTexLen 128",0.5,30,0.7380943445791271,0.858784670376906,,0.001,"YoonKimModel(
  (embedding): Linear(in_features=74, out_features=74, bias=True)
  (chars_cnn): Sequential(
    (0): Conv1d(74, 256, kernel_size=(5,), stride=(1,), padding=(2,))
    (1): ReLU()
    (2): MaxPool1d(kernel_size=8, stride=8, padding=0, dilation=1, ceil_mode=False)
  )
  (dropout): Dropout(p=0.5)
  (words_rnn): GRU(256, 128)
  (projector): Linear(in_features=128, out_features=2, bias=True)
)",charCNN,0.175,0.075,runs/May16_07-37-07_phobos-aijun_YoonKim_lr3_noise_level0.075_wordlen8_IMDB,Mokoron binary classification,249008
70,0.70328,0.8531294117647059,"MaxWordLen 8, MaxTexLen 128",0.5,30,0.7227744973465879,0.858784670376906,,0.001,"YoonKimModel(
  (embedding): Linear(in_features=74, out_features=74, bias=True)
  (chars_cnn): Sequential(
    (0): Conv1d(74, 256, kernel_size=(5,), stride=(1,), padding=(2,))
    (1): ReLU()
    (2): MaxPool1d(kernel_size=8, stride=8, padding=0, dilation=1, ceil_mode=False)
  )
  (dropout): Dropout(p=0.5)
  (words_rnn): GRU(256, 128)
  (projector): Linear(in_features=128, out_features=2, bias=True)
)",charCNN,0.2,0.075,runs/May16_07-37-07_phobos-aijun_YoonKim_lr3_noise_level0.075_wordlen8_IMDB,Mokoron binary classification,249008
71,0.79592,0.8531294117647059,"MaxWordLen 8, MaxTexLen 128",0.5,30,0.8043861667050072,0.858784670376906,,0.001,"YoonKimModel(
  (embedding): Linear(in_features=74, out_features=74, bias=True)
  (chars_cnn): Sequential(
    (0): Conv1d(74, 256, kernel_size=(5,), stride=(1,), padding=(2,))
    (1): ReLU()
    (2): MaxPool1d(kernel_size=8, stride=8, padding=0, dilation=1, ceil_mode=False)
  )
  (dropout): Dropout(p=0.5)
  (words_rnn): GRU(256, 128)
  (projector): Linear(in_features=128, out_features=2, bias=True)
)",charCNN,-1.0,0.075,runs/May16_07-37-07_phobos-aijun_YoonKim_lr3_noise_level0.075_wordlen8_IMDB,Mokoron binary classification,249008
72,0.83464,0.8113411764705882,"MaxWordLen 8, MaxTexLen 128",0.5,30,0.8430523917995444,0.8286532461426679,,0.001,"YoonKimModel(
  (embedding): Linear(in_features=74, out_features=74, bias=True)
  (chars_cnn): Sequential(
    (0): Conv1d(74, 256, kernel_size=(5,), stride=(1,), padding=(2,))
    (1): ReLU()
    (2): MaxPool1d(kernel_size=8, stride=8, padding=0, dilation=1, ceil_mode=False)
  )
  (dropout): Dropout(p=0.5)
  (words_rnn): GRU(256, 128)
  (projector): Linear(in_features=128, out_features=2, bias=True)
)",charCNN,0.0,0.1,runs/May16_08-49-01_phobos-aijun_YoonKim_lr3_noise_level0.1_wordlen8_IMDB,Mokoron binary classification,249008
73,0.83248,0.8113411764705882,"MaxWordLen 8, MaxTexLen 128",0.5,30,0.8415077202543142,0.8286532461426679,,0.001,"YoonKimModel(
  (embedding): Linear(in_features=74, out_features=74, bias=True)
  (chars_cnn): Sequential(
    (0): Conv1d(74, 256, kernel_size=(5,), stride=(1,), padding=(2,))
    (1): ReLU()
    (2): MaxPool1d(kernel_size=8, stride=8, padding=0, dilation=1, ceil_mode=False)
  )
  (dropout): Dropout(p=0.5)
  (words_rnn): GRU(256, 128)
  (projector): Linear(in_features=128, out_features=2, bias=True)
)",charCNN,0.005,0.1,runs/May16_08-49-01_phobos-aijun_YoonKim_lr3_noise_level0.1_wordlen8_IMDB,Mokoron binary classification,249008
74,0.83036,0.8113411764705882,"MaxWordLen 8, MaxTexLen 128",0.5,30,0.8401372083380452,0.8286532461426679,,0.001,"YoonKimModel(
  (embedding): Linear(in_features=74, out_features=74, bias=True)
  (chars_cnn): Sequential(
    (0): Conv1d(74, 256, kernel_size=(5,), stride=(1,), padding=(2,))
    (1): ReLU()
    (2): MaxPool1d(kernel_size=8, stride=8, padding=0, dilation=1, ceil_mode=False)
  )
  (dropout): Dropout(p=0.5)
  (words_rnn): GRU(256, 128)
  (projector): Linear(in_features=128, out_features=2, bias=True)
)",charCNN,0.01,0.1,runs/May16_08-49-01_phobos-aijun_YoonKim_lr3_noise_level0.1_wordlen8_IMDB,Mokoron binary classification,249008
75,0.82204,0.8113411764705882,"MaxWordLen 8, MaxTexLen 128",0.5,30,0.8330143001914199,0.8286532461426679,,0.001,"YoonKimModel(
  (embedding): Linear(in_features=74, out_features=74, bias=True)
  (chars_cnn): Sequential(
    (0): Conv1d(74, 256, kernel_size=(5,), stride=(1,), padding=(2,))
    (1): ReLU()
    (2): MaxPool1d(kernel_size=8, stride=8, padding=0, dilation=1, ceil_mode=False)
  )
  (dropout): Dropout(p=0.5)
  (words_rnn): GRU(256, 128)
  (projector): Linear(in_features=128, out_features=2, bias=True)
)",charCNN,0.025,0.1,runs/May16_08-49-01_phobos-aijun_YoonKim_lr3_noise_level0.1_wordlen8_IMDB,Mokoron binary classification,249008
76,0.8058,0.8113411764705882,"MaxWordLen 8, MaxTexLen 128",0.5,30,0.8198448922037924,0.8286532461426679,,0.001,"YoonKimModel(
  (embedding): Linear(in_features=74, out_features=74, bias=True)
  (chars_cnn): Sequential(
    (0): Conv1d(74, 256, kernel_size=(5,), stride=(1,), padding=(2,))
    (1): ReLU()
    (2): MaxPool1d(kernel_size=8, stride=8, padding=0, dilation=1, ceil_mode=False)
  )
  (dropout): Dropout(p=0.5)
  (words_rnn): GRU(256, 128)
  (projector): Linear(in_features=128, out_features=2, bias=True)
)",charCNN,0.05,0.1,runs/May16_08-49-01_phobos-aijun_YoonKim_lr3_noise_level0.1_wordlen8_IMDB,Mokoron binary classification,249008
77,0.78952,0.8113411764705882,"MaxWordLen 8, MaxTexLen 128",0.5,30,0.8072245017584995,0.8286532461426679,,0.001,"YoonKimModel(
  (embedding): Linear(in_features=74, out_features=74, bias=True)
  (chars_cnn): Sequential(
    (0): Conv1d(74, 256, kernel_size=(5,), stride=(1,), padding=(2,))
    (1): ReLU()
    (2): MaxPool1d(kernel_size=8, stride=8, padding=0, dilation=1, ceil_mode=False)
  )
  (dropout): Dropout(p=0.5)
  (words_rnn): GRU(256, 128)
  (projector): Linear(in_features=128, out_features=2, bias=True)
)",charCNN,0.075,0.1,runs/May16_08-49-01_phobos-aijun_YoonKim_lr3_noise_level0.1_wordlen8_IMDB,Mokoron binary classification,249008
78,0.76948,0.8113411764705882,"MaxWordLen 8, MaxTexLen 128",0.5,30,0.7917163612707362,0.8286532461426679,,0.001,"YoonKimModel(
  (embedding): Linear(in_features=74, out_features=74, bias=True)
  (chars_cnn): Sequential(
    (0): Conv1d(74, 256, kernel_size=(5,), stride=(1,), padding=(2,))
    (1): ReLU()
    (2): MaxPool1d(kernel_size=8, stride=8, padding=0, dilation=1, ceil_mode=False)
  )
  (dropout): Dropout(p=0.5)
  (words_rnn): GRU(256, 128)
  (projector): Linear(in_features=128, out_features=2, bias=True)
)",charCNN,0.1,0.1,runs/May16_08-49-01_phobos-aijun_YoonKim_lr3_noise_level0.1_wordlen8_IMDB,Mokoron binary classification,249008
79,0.75476,0.8113411764705882,"MaxWordLen 8, MaxTexLen 128",0.5,30,0.7814493993512279,0.8286532461426679,,0.001,"YoonKimModel(
  (embedding): Linear(in_features=74, out_features=74, bias=True)
  (chars_cnn): Sequential(
    (0): Conv1d(74, 256, kernel_size=(5,), stride=(1,), padding=(2,))
    (1): ReLU()
    (2): MaxPool1d(kernel_size=8, stride=8, padding=0, dilation=1, ceil_mode=False)
  )
  (dropout): Dropout(p=0.5)
  (words_rnn): GRU(256, 128)
  (projector): Linear(in_features=128, out_features=2, bias=True)
)",charCNN,0.125,0.1,runs/May16_08-49-01_phobos-aijun_YoonKim_lr3_noise_level0.1_wordlen8_IMDB,Mokoron binary classification,249008
80,0.7354,0.8113411764705882,"MaxWordLen 8, MaxTexLen 128",0.5,30,0.7675113344814255,0.8286532461426679,,0.001,"YoonKimModel(
  (embedding): Linear(in_features=74, out_features=74, bias=True)
  (chars_cnn): Sequential(
    (0): Conv1d(74, 256, kernel_size=(5,), stride=(1,), padding=(2,))
    (1): ReLU()
    (2): MaxPool1d(kernel_size=8, stride=8, padding=0, dilation=1, ceil_mode=False)
  )
  (dropout): Dropout(p=0.5)
  (words_rnn): GRU(256, 128)
  (projector): Linear(in_features=128, out_features=2, bias=True)
)",charCNN,0.15,0.1,runs/May16_08-49-01_phobos-aijun_YoonKim_lr3_noise_level0.1_wordlen8_IMDB,Mokoron binary classification,249008
81,0.71628,0.8113411764705882,"MaxWordLen 8, MaxTexLen 128",0.5,30,0.7540653930168857,0.8286532461426679,,0.001,"YoonKimModel(
  (embedding): Linear(in_features=74, out_features=74, bias=True)
  (chars_cnn): Sequential(
    (0): Conv1d(74, 256, kernel_size=(5,), stride=(1,), padding=(2,))
    (1): ReLU()
    (2): MaxPool1d(kernel_size=8, stride=8, padding=0, dilation=1, ceil_mode=False)
  )
  (dropout): Dropout(p=0.5)
  (words_rnn): GRU(256, 128)
  (projector): Linear(in_features=128, out_features=2, bias=True)
)",charCNN,0.175,0.1,runs/May16_08-49-01_phobos-aijun_YoonKim_lr3_noise_level0.1_wordlen8_IMDB,Mokoron binary classification,249008
82,0.703,0.8113411764705882,"MaxWordLen 8, MaxTexLen 128",0.5,30,0.7463532948450792,0.8286532461426679,,0.001,"YoonKimModel(
  (embedding): Linear(in_features=74, out_features=74, bias=True)
  (chars_cnn): Sequential(
    (0): Conv1d(74, 256, kernel_size=(5,), stride=(1,), padding=(2,))
    (1): ReLU()
    (2): MaxPool1d(kernel_size=8, stride=8, padding=0, dilation=1, ceil_mode=False)
  )
  (dropout): Dropout(p=0.5)
  (words_rnn): GRU(256, 128)
  (projector): Linear(in_features=128, out_features=2, bias=True)
)",charCNN,0.2,0.1,runs/May16_08-49-01_phobos-aijun_YoonKim_lr3_noise_level0.1_wordlen8_IMDB,Mokoron binary classification,249008
83,0.77428,0.8113411764705882,"MaxWordLen 8, MaxTexLen 128",0.5,30,0.7962448095324065,0.8286532461426679,,0.001,"YoonKimModel(
  (embedding): Linear(in_features=74, out_features=74, bias=True)
  (chars_cnn): Sequential(
    (0): Conv1d(74, 256, kernel_size=(5,), stride=(1,), padding=(2,))
    (1): ReLU()
    (2): MaxPool1d(kernel_size=8, stride=8, padding=0, dilation=1, ceil_mode=False)
  )
  (dropout): Dropout(p=0.5)
  (words_rnn): GRU(256, 128)
  (projector): Linear(in_features=128, out_features=2, bias=True)
)",charCNN,-1.0,0.1,runs/May16_08-49-01_phobos-aijun_YoonKim_lr3_noise_level0.1_wordlen8_IMDB,Mokoron binary classification,249008
84,0.82188,0.7743529411764706,"MaxWordLen 8, MaxTexLen 128",0.5,30,0.8083659680681672,0.7392746452068947,,0.001,"YoonKimModel(
  (embedding): Linear(in_features=74, out_features=74, bias=True)
  (chars_cnn): Sequential(
    (0): Conv1d(74, 256, kernel_size=(5,), stride=(1,), padding=(2,))
    (1): ReLU()
    (2): MaxPool1d(kernel_size=8, stride=8, padding=0, dilation=1, ceil_mode=False)
  )
  (dropout): Dropout(p=0.5)
  (words_rnn): GRU(256, 128)
  (projector): Linear(in_features=128, out_features=2, bias=True)
)",charCNN,0.0,0.125,runs/May16_09-38-21_phobos-aijun_YoonKim_lr3_noise_level0.125_wordlen8_IMDB,Mokoron binary classification,249008
85,0.8174,0.7743529411764706,"MaxWordLen 8, MaxTexLen 128",0.5,30,0.8029184475240686,0.7392746452068947,,0.001,"YoonKimModel(
  (embedding): Linear(in_features=74, out_features=74, bias=True)
  (chars_cnn): Sequential(
    (0): Conv1d(74, 256, kernel_size=(5,), stride=(1,), padding=(2,))
    (1): ReLU()
    (2): MaxPool1d(kernel_size=8, stride=8, padding=0, dilation=1, ceil_mode=False)
  )
  (dropout): Dropout(p=0.5)
  (words_rnn): GRU(256, 128)
  (projector): Linear(in_features=128, out_features=2, bias=True)
)",charCNN,0.005,0.125,runs/May16_09-38-21_phobos-aijun_YoonKim_lr3_noise_level0.125_wordlen8_IMDB,Mokoron binary classification,249008
86,0.81472,0.7743529411764706,"MaxWordLen 8, MaxTexLen 128",0.5,30,0.7993589188252621,0.7392746452068947,,0.001,"YoonKimModel(
  (embedding): Linear(in_features=74, out_features=74, bias=True)
  (chars_cnn): Sequential(
    (0): Conv1d(74, 256, kernel_size=(5,), stride=(1,), padding=(2,))
    (1): ReLU()
    (2): MaxPool1d(kernel_size=8, stride=8, padding=0, dilation=1, ceil_mode=False)
  )
  (dropout): Dropout(p=0.5)
  (words_rnn): GRU(256, 128)
  (projector): Linear(in_features=128, out_features=2, bias=True)
)",charCNN,0.01,0.125,runs/May16_09-38-21_phobos-aijun_YoonKim_lr3_noise_level0.125_wordlen8_IMDB,Mokoron binary classification,249008
87,0.80336,0.7743529411764706,"MaxWordLen 8, MaxTexLen 128",0.5,30,0.7848954231206792,0.7392746452068947,,0.001,"YoonKimModel(
  (embedding): Linear(in_features=74, out_features=74, bias=True)
  (chars_cnn): Sequential(
    (0): Conv1d(74, 256, kernel_size=(5,), stride=(1,), padding=(2,))
    (1): ReLU()
    (2): MaxPool1d(kernel_size=8, stride=8, padding=0, dilation=1, ceil_mode=False)
  )
  (dropout): Dropout(p=0.5)
  (words_rnn): GRU(256, 128)
  (projector): Linear(in_features=128, out_features=2, bias=True)
)",charCNN,0.025,0.125,runs/May16_09-38-21_phobos-aijun_YoonKim_lr3_noise_level0.125_wordlen8_IMDB,Mokoron binary classification,249008
88,0.78932,0.7743529411764706,"MaxWordLen 8, MaxTexLen 128",0.5,30,0.766606106261355,0.7392746452068947,,0.001,"YoonKimModel(
  (embedding): Linear(in_features=74, out_features=74, bias=True)
  (chars_cnn): Sequential(
    (0): Conv1d(74, 256, kernel_size=(5,), stride=(1,), padding=(2,))
    (1): ReLU()
    (2): MaxPool1d(kernel_size=8, stride=8, padding=0, dilation=1, ceil_mode=False)
  )
  (dropout): Dropout(p=0.5)
  (words_rnn): GRU(256, 128)
  (projector): Linear(in_features=128, out_features=2, bias=True)
)",charCNN,0.05,0.125,runs/May16_09-38-21_phobos-aijun_YoonKim_lr3_noise_level0.125_wordlen8_IMDB,Mokoron binary classification,249008
89,0.7718,0.7743529411764706,"MaxWordLen 8, MaxTexLen 128",0.5,30,0.7421468926553673,0.7392746452068947,,0.001,"YoonKimModel(
  (embedding): Linear(in_features=74, out_features=74, bias=True)
  (chars_cnn): Sequential(
    (0): Conv1d(74, 256, kernel_size=(5,), stride=(1,), padding=(2,))
    (1): ReLU()
    (2): MaxPool1d(kernel_size=8, stride=8, padding=0, dilation=1, ceil_mode=False)
  )
  (dropout): Dropout(p=0.5)
  (words_rnn): GRU(256, 128)
  (projector): Linear(in_features=128, out_features=2, bias=True)
)",charCNN,0.075,0.125,runs/May16_09-38-21_phobos-aijun_YoonKim_lr3_noise_level0.125_wordlen8_IMDB,Mokoron binary classification,249008
90,0.75476,0.7743529411764706,"MaxWordLen 8, MaxTexLen 128",0.5,30,0.7174524171620812,0.7392746452068947,,0.001,"YoonKimModel(
  (embedding): Linear(in_features=74, out_features=74, bias=True)
  (chars_cnn): Sequential(
    (0): Conv1d(74, 256, kernel_size=(5,), stride=(1,), padding=(2,))
    (1): ReLU()
    (2): MaxPool1d(kernel_size=8, stride=8, padding=0, dilation=1, ceil_mode=False)
  )
  (dropout): Dropout(p=0.5)
  (words_rnn): GRU(256, 128)
  (projector): Linear(in_features=128, out_features=2, bias=True)
)",charCNN,0.1,0.125,runs/May16_09-38-21_phobos-aijun_YoonKim_lr3_noise_level0.125_wordlen8_IMDB,Mokoron binary classification,249008
91,0.73796,0.7743529411764706,"MaxWordLen 8, MaxTexLen 128",0.5,30,0.6929746449828935,0.7392746452068947,,0.001,"YoonKimModel(
  (embedding): Linear(in_features=74, out_features=74, bias=True)
  (chars_cnn): Sequential(
    (0): Conv1d(74, 256, kernel_size=(5,), stride=(1,), padding=(2,))
    (1): ReLU()
    (2): MaxPool1d(kernel_size=8, stride=8, padding=0, dilation=1, ceil_mode=False)
  )
  (dropout): Dropout(p=0.5)
  (words_rnn): GRU(256, 128)
  (projector): Linear(in_features=128, out_features=2, bias=True)
)",charCNN,0.125,0.125,runs/May16_09-38-21_phobos-aijun_YoonKim_lr3_noise_level0.125_wordlen8_IMDB,Mokoron binary classification,249008
92,0.71952,0.7743529411764706,"MaxWordLen 8, MaxTexLen 128",0.5,30,0.6648824316574268,0.7392746452068947,,0.001,"YoonKimModel(
  (embedding): Linear(in_features=74, out_features=74, bias=True)
  (chars_cnn): Sequential(
    (0): Conv1d(74, 256, kernel_size=(5,), stride=(1,), padding=(2,))
    (1): ReLU()
    (2): MaxPool1d(kernel_size=8, stride=8, padding=0, dilation=1, ceil_mode=False)
  )
  (dropout): Dropout(p=0.5)
  (words_rnn): GRU(256, 128)
  (projector): Linear(in_features=128, out_features=2, bias=True)
)",charCNN,0.15,0.125,runs/May16_09-38-21_phobos-aijun_YoonKim_lr3_noise_level0.125_wordlen8_IMDB,Mokoron binary classification,249008
93,0.70176,0.7743529411764706,"MaxWordLen 8, MaxTexLen 128",0.5,30,0.6381285187342264,0.7392746452068947,,0.001,"YoonKimModel(
  (embedding): Linear(in_features=74, out_features=74, bias=True)
  (chars_cnn): Sequential(
    (0): Conv1d(74, 256, kernel_size=(5,), stride=(1,), padding=(2,))
    (1): ReLU()
    (2): MaxPool1d(kernel_size=8, stride=8, padding=0, dilation=1, ceil_mode=False)
  )
  (dropout): Dropout(p=0.5)
  (words_rnn): GRU(256, 128)
  (projector): Linear(in_features=128, out_features=2, bias=True)
)",charCNN,0.175,0.125,runs/May16_09-38-21_phobos-aijun_YoonKim_lr3_noise_level0.125_wordlen8_IMDB,Mokoron binary classification,249008
94,0.6838,0.7743529411764706,"MaxWordLen 8, MaxTexLen 128",0.5,30,0.6095717884130983,0.7392746452068947,,0.001,"YoonKimModel(
  (embedding): Linear(in_features=74, out_features=74, bias=True)
  (chars_cnn): Sequential(
    (0): Conv1d(74, 256, kernel_size=(5,), stride=(1,), padding=(2,))
    (1): ReLU()
    (2): MaxPool1d(kernel_size=8, stride=8, padding=0, dilation=1, ceil_mode=False)
  )
  (dropout): Dropout(p=0.5)
  (words_rnn): GRU(256, 128)
  (projector): Linear(in_features=128, out_features=2, bias=True)
)",charCNN,0.2,0.125,runs/May16_09-38-21_phobos-aijun_YoonKim_lr3_noise_level0.125_wordlen8_IMDB,Mokoron binary classification,249008
95,0.73852,0.7743529411764706,"MaxWordLen 8, MaxTexLen 128",0.5,30,0.6939176850681275,0.7392746452068947,,0.001,"YoonKimModel(
  (embedding): Linear(in_features=74, out_features=74, bias=True)
  (chars_cnn): Sequential(
    (0): Conv1d(74, 256, kernel_size=(5,), stride=(1,), padding=(2,))
    (1): ReLU()
    (2): MaxPool1d(kernel_size=8, stride=8, padding=0, dilation=1, ceil_mode=False)
  )
  (dropout): Dropout(p=0.5)
  (words_rnn): GRU(256, 128)
  (projector): Linear(in_features=128, out_features=2, bias=True)
)",charCNN,-1.0,0.125,runs/May16_09-38-21_phobos-aijun_YoonKim_lr3_noise_level0.125_wordlen8_IMDB,Mokoron binary classification,249008
96,0.81688,0.7371764705882353,"MaxWordLen 8, MaxTexLen 128",0.5,30,0.8341184143778534,0.7788556721441298,,0.001,"YoonKimModel(
  (embedding): Linear(in_features=74, out_features=74, bias=True)
  (chars_cnn): Sequential(
    (0): Conv1d(74, 256, kernel_size=(5,), stride=(1,), padding=(2,))
    (1): ReLU()
    (2): MaxPool1d(kernel_size=8, stride=8, padding=0, dilation=1, ceil_mode=False)
  )
  (dropout): Dropout(p=0.5)
  (words_rnn): GRU(256, 128)
  (projector): Linear(in_features=128, out_features=2, bias=True)
)",charCNN,0.0,0.15,runs/May16_10-27-39_phobos-aijun_YoonKim_lr3_noise_level0.15_wordlen8_IMDB,Mokoron binary classification,249008
97,0.81284,0.7371764705882353,"MaxWordLen 8, MaxTexLen 128",0.5,30,0.8311013247662709,0.7788556721441298,,0.001,"YoonKimModel(
  (embedding): Linear(in_features=74, out_features=74, bias=True)
  (chars_cnn): Sequential(
    (0): Conv1d(74, 256, kernel_size=(5,), stride=(1,), padding=(2,))
    (1): ReLU()
    (2): MaxPool1d(kernel_size=8, stride=8, padding=0, dilation=1, ceil_mode=False)
  )
  (dropout): Dropout(p=0.5)
  (words_rnn): GRU(256, 128)
  (projector): Linear(in_features=128, out_features=2, bias=True)
)",charCNN,0.005,0.15,runs/May16_10-27-39_phobos-aijun_YoonKim_lr3_noise_level0.15_wordlen8_IMDB,Mokoron binary classification,249008
98,0.80968,0.7371764705882353,"MaxWordLen 8, MaxTexLen 128",0.5,30,0.8285652518555885,0.7788556721441298,,0.001,"YoonKimModel(
  (embedding): Linear(in_features=74, out_features=74, bias=True)
  (chars_cnn): Sequential(
    (0): Conv1d(74, 256, kernel_size=(5,), stride=(1,), padding=(2,))
    (1): ReLU()
    (2): MaxPool1d(kernel_size=8, stride=8, padding=0, dilation=1, ceil_mode=False)
  )
  (dropout): Dropout(p=0.5)
  (words_rnn): GRU(256, 128)
  (projector): Linear(in_features=128, out_features=2, bias=True)
)",charCNN,0.01,0.15,runs/May16_10-27-39_phobos-aijun_YoonKim_lr3_noise_level0.15_wordlen8_IMDB,Mokoron binary classification,249008
99,0.80104,0.7371764705882353,"MaxWordLen 8, MaxTexLen 128",0.5,30,0.8219629178896127,0.7788556721441298,,0.001,"YoonKimModel(
  (embedding): Linear(in_features=74, out_features=74, bias=True)
  (chars_cnn): Sequential(
    (0): Conv1d(74, 256, kernel_size=(5,), stride=(1,), padding=(2,))
    (1): ReLU()
    (2): MaxPool1d(kernel_size=8, stride=8, padding=0, dilation=1, ceil_mode=False)
  )
  (dropout): Dropout(p=0.5)
  (words_rnn): GRU(256, 128)
  (projector): Linear(in_features=128, out_features=2, bias=True)
)",charCNN,0.025,0.15,runs/May16_10-27-39_phobos-aijun_YoonKim_lr3_noise_level0.15_wordlen8_IMDB,Mokoron binary classification,249008
100,0.78936,0.7371764705882353,"MaxWordLen 8, MaxTexLen 128",0.5,30,0.8139748480994772,0.7788556721441298,,0.001,"YoonKimModel(
  (embedding): Linear(in_features=74, out_features=74, bias=True)
  (chars_cnn): Sequential(
    (0): Conv1d(74, 256, kernel_size=(5,), stride=(1,), padding=(2,))
    (1): ReLU()
    (2): MaxPool1d(kernel_size=8, stride=8, padding=0, dilation=1, ceil_mode=False)
  )
  (dropout): Dropout(p=0.5)
  (words_rnn): GRU(256, 128)
  (projector): Linear(in_features=128, out_features=2, bias=True)
)",charCNN,0.05,0.15,runs/May16_10-27-39_phobos-aijun_YoonKim_lr3_noise_level0.15_wordlen8_IMDB,Mokoron binary classification,249008
101,0.77152,0.7371764705882353,"MaxWordLen 8, MaxTexLen 128",0.5,30,0.8005586592178771,0.7788556721441298,,0.001,"YoonKimModel(
  (embedding): Linear(in_features=74, out_features=74, bias=True)
  (chars_cnn): Sequential(
    (0): Conv1d(74, 256, kernel_size=(5,), stride=(1,), padding=(2,))
    (1): ReLU()
    (2): MaxPool1d(kernel_size=8, stride=8, padding=0, dilation=1, ceil_mode=False)
  )
  (dropout): Dropout(p=0.5)
  (words_rnn): GRU(256, 128)
  (projector): Linear(in_features=128, out_features=2, bias=True)
)",charCNN,0.075,0.15,runs/May16_10-27-39_phobos-aijun_YoonKim_lr3_noise_level0.15_wordlen8_IMDB,Mokoron binary classification,249008
102,0.75684,0.7371764705882353,"MaxWordLen 8, MaxTexLen 128",0.5,30,0.7907184907219333,0.7788556721441298,,0.001,"YoonKimModel(
  (embedding): Linear(in_features=74, out_features=74, bias=True)
  (chars_cnn): Sequential(
    (0): Conv1d(74, 256, kernel_size=(5,), stride=(1,), padding=(2,))
    (1): ReLU()
    (2): MaxPool1d(kernel_size=8, stride=8, padding=0, dilation=1, ceil_mode=False)
  )
  (dropout): Dropout(p=0.5)
  (words_rnn): GRU(256, 128)
  (projector): Linear(in_features=128, out_features=2, bias=True)
)",charCNN,0.1,0.15,runs/May16_10-27-39_phobos-aijun_YoonKim_lr3_noise_level0.15_wordlen8_IMDB,Mokoron binary classification,249008
103,0.74028,0.7371764705882353,"MaxWordLen 8, MaxTexLen 128",0.5,30,0.7788412411866888,0.7788556721441298,,0.001,"YoonKimModel(
  (embedding): Linear(in_features=74, out_features=74, bias=True)
  (chars_cnn): Sequential(
    (0): Conv1d(74, 256, kernel_size=(5,), stride=(1,), padding=(2,))
    (1): ReLU()
    (2): MaxPool1d(kernel_size=8, stride=8, padding=0, dilation=1, ceil_mode=False)
  )
  (dropout): Dropout(p=0.5)
  (words_rnn): GRU(256, 128)
  (projector): Linear(in_features=128, out_features=2, bias=True)
)",charCNN,0.125,0.15,runs/May16_10-27-39_phobos-aijun_YoonKim_lr3_noise_level0.15_wordlen8_IMDB,Mokoron binary classification,249008
104,0.72148,0.7371764705882353,"MaxWordLen 8, MaxTexLen 128",0.5,30,0.7663658021004597,0.7788556721441298,,0.001,"YoonKimModel(
  (embedding): Linear(in_features=74, out_features=74, bias=True)
  (chars_cnn): Sequential(
    (0): Conv1d(74, 256, kernel_size=(5,), stride=(1,), padding=(2,))
    (1): ReLU()
    (2): MaxPool1d(kernel_size=8, stride=8, padding=0, dilation=1, ceil_mode=False)
  )
  (dropout): Dropout(p=0.5)
  (words_rnn): GRU(256, 128)
  (projector): Linear(in_features=128, out_features=2, bias=True)
)",charCNN,0.15,0.15,runs/May16_10-27-39_phobos-aijun_YoonKim_lr3_noise_level0.15_wordlen8_IMDB,Mokoron binary classification,249008
105,0.7062,0.7371764705882353,"MaxWordLen 8, MaxTexLen 128",0.5,30,0.755939524838013,0.7788556721441298,,0.001,"YoonKimModel(
  (embedding): Linear(in_features=74, out_features=74, bias=True)
  (chars_cnn): Sequential(
    (0): Conv1d(74, 256, kernel_size=(5,), stride=(1,), padding=(2,))
    (1): ReLU()
    (2): MaxPool1d(kernel_size=8, stride=8, padding=0, dilation=1, ceil_mode=False)
  )
  (dropout): Dropout(p=0.5)
  (words_rnn): GRU(256, 128)
  (projector): Linear(in_features=128, out_features=2, bias=True)
)",charCNN,0.175,0.15,runs/May16_10-27-39_phobos-aijun_YoonKim_lr3_noise_level0.15_wordlen8_IMDB,Mokoron binary classification,249008
106,0.69428,0.7371764705882353,"MaxWordLen 8, MaxTexLen 128",0.5,30,0.7483123127078737,0.7788556721441298,,0.001,"YoonKimModel(
  (embedding): Linear(in_features=74, out_features=74, bias=True)
  (chars_cnn): Sequential(
    (0): Conv1d(74, 256, kernel_size=(5,), stride=(1,), padding=(2,))
    (1): ReLU()
    (2): MaxPool1d(kernel_size=8, stride=8, padding=0, dilation=1, ceil_mode=False)
  )
  (dropout): Dropout(p=0.5)
  (words_rnn): GRU(256, 128)
  (projector): Linear(in_features=128, out_features=2, bias=True)
)",charCNN,0.2,0.15,runs/May16_10-27-39_phobos-aijun_YoonKim_lr3_noise_level0.15_wordlen8_IMDB,Mokoron binary classification,249008
107,0.72008,0.7371764705882353,"MaxWordLen 8, MaxTexLen 128",0.5,30,0.7651204940592066,0.7788556721441298,,0.001,"YoonKimModel(
  (embedding): Linear(in_features=74, out_features=74, bias=True)
  (chars_cnn): Sequential(
    (0): Conv1d(74, 256, kernel_size=(5,), stride=(1,), padding=(2,))
    (1): ReLU()
    (2): MaxPool1d(kernel_size=8, stride=8, padding=0, dilation=1, ceil_mode=False)
  )
  (dropout): Dropout(p=0.5)
  (words_rnn): GRU(256, 128)
  (projector): Linear(in_features=128, out_features=2, bias=True)
)",charCNN,-1.0,0.15,runs/May16_10-27-39_phobos-aijun_YoonKim_lr3_noise_level0.15_wordlen8_IMDB,Mokoron binary classification,249008
108,0.81128,0.7429176470588236,"MaxWordLen 8, MaxTexLen 128",0.5,30,0.8233091154220659,0.7723085900054183,,0.001,"YoonKimModel(
  (embedding): Linear(in_features=74, out_features=74, bias=True)
  (chars_cnn): Sequential(
    (0): Conv1d(74, 256, kernel_size=(5,), stride=(1,), padding=(2,))
    (1): ReLU()
    (2): MaxPool1d(kernel_size=8, stride=8, padding=0, dilation=1, ceil_mode=False)
  )
  (dropout): Dropout(p=0.5)
  (words_rnn): GRU(256, 128)
  (projector): Linear(in_features=128, out_features=2, bias=True)
)",charCNN,0.0,0.175,runs/May16_11-18-19_phobos-aijun_YoonKim_lr3_noise_level0.175_wordlen8_IMDB,Mokoron binary classification,249008
109,0.8098,0.7429176470588236,"MaxWordLen 8, MaxTexLen 128",0.5,30,0.8219567903545887,0.7723085900054183,,0.001,"YoonKimModel(
  (embedding): Linear(in_features=74, out_features=74, bias=True)
  (chars_cnn): Sequential(
    (0): Conv1d(74, 256, kernel_size=(5,), stride=(1,), padding=(2,))
    (1): ReLU()
    (2): MaxPool1d(kernel_size=8, stride=8, padding=0, dilation=1, ceil_mode=False)
  )
  (dropout): Dropout(p=0.5)
  (words_rnn): GRU(256, 128)
  (projector): Linear(in_features=128, out_features=2, bias=True)
)",charCNN,0.005,0.175,runs/May16_11-18-19_phobos-aijun_YoonKim_lr3_noise_level0.175_wordlen8_IMDB,Mokoron binary classification,249008
110,0.80712,0.7429176470588236,"MaxWordLen 8, MaxTexLen 128",0.5,30,0.8197517942583733,0.7723085900054183,,0.001,"YoonKimModel(
  (embedding): Linear(in_features=74, out_features=74, bias=True)
  (chars_cnn): Sequential(
    (0): Conv1d(74, 256, kernel_size=(5,), stride=(1,), padding=(2,))
    (1): ReLU()
    (2): MaxPool1d(kernel_size=8, stride=8, padding=0, dilation=1, ceil_mode=False)
  )
  (dropout): Dropout(p=0.5)
  (words_rnn): GRU(256, 128)
  (projector): Linear(in_features=128, out_features=2, bias=True)
)",charCNN,0.01,0.175,runs/May16_11-18-19_phobos-aijun_YoonKim_lr3_noise_level0.175_wordlen8_IMDB,Mokoron binary classification,249008
111,0.80164,0.7429176470588236,"MaxWordLen 8, MaxTexLen 128",0.5,30,0.8156711147455675,0.7723085900054183,,0.001,"YoonKimModel(
  (embedding): Linear(in_features=74, out_features=74, bias=True)
  (chars_cnn): Sequential(
    (0): Conv1d(74, 256, kernel_size=(5,), stride=(1,), padding=(2,))
    (1): ReLU()
    (2): MaxPool1d(kernel_size=8, stride=8, padding=0, dilation=1, ceil_mode=False)
  )
  (dropout): Dropout(p=0.5)
  (words_rnn): GRU(256, 128)
  (projector): Linear(in_features=128, out_features=2, bias=True)
)",charCNN,0.025,0.175,runs/May16_11-18-19_phobos-aijun_YoonKim_lr3_noise_level0.175_wordlen8_IMDB,Mokoron binary classification,249008
112,0.79116,0.7429176470588236,"MaxWordLen 8, MaxTexLen 128",0.5,30,0.8075349283002174,0.7723085900054183,,0.001,"YoonKimModel(
  (embedding): Linear(in_features=74, out_features=74, bias=True)
  (chars_cnn): Sequential(
    (0): Conv1d(74, 256, kernel_size=(5,), stride=(1,), padding=(2,))
    (1): ReLU()
    (2): MaxPool1d(kernel_size=8, stride=8, padding=0, dilation=1, ceil_mode=False)
  )
  (dropout): Dropout(p=0.5)
  (words_rnn): GRU(256, 128)
  (projector): Linear(in_features=128, out_features=2, bias=True)
)",charCNN,0.05,0.175,runs/May16_11-18-19_phobos-aijun_YoonKim_lr3_noise_level0.175_wordlen8_IMDB,Mokoron binary classification,249008
113,0.77652,0.7429176470588236,"MaxWordLen 8, MaxTexLen 128",0.5,30,0.7954753450232456,0.7723085900054183,,0.001,"YoonKimModel(
  (embedding): Linear(in_features=74, out_features=74, bias=True)
  (chars_cnn): Sequential(
    (0): Conv1d(74, 256, kernel_size=(5,), stride=(1,), padding=(2,))
    (1): ReLU()
    (2): MaxPool1d(kernel_size=8, stride=8, padding=0, dilation=1, ceil_mode=False)
  )
  (dropout): Dropout(p=0.5)
  (words_rnn): GRU(256, 128)
  (projector): Linear(in_features=128, out_features=2, bias=True)
)",charCNN,0.075,0.175,runs/May16_11-18-19_phobos-aijun_YoonKim_lr3_noise_level0.175_wordlen8_IMDB,Mokoron binary classification,249008
114,0.76652,0.7429176470588236,"MaxWordLen 8, MaxTexLen 128",0.5,30,0.7882459640848902,0.7723085900054183,,0.001,"YoonKimModel(
  (embedding): Linear(in_features=74, out_features=74, bias=True)
  (chars_cnn): Sequential(
    (0): Conv1d(74, 256, kernel_size=(5,), stride=(1,), padding=(2,))
    (1): ReLU()
    (2): MaxPool1d(kernel_size=8, stride=8, padding=0, dilation=1, ceil_mode=False)
  )
  (dropout): Dropout(p=0.5)
  (words_rnn): GRU(256, 128)
  (projector): Linear(in_features=128, out_features=2, bias=True)
)",charCNN,0.1,0.175,runs/May16_11-18-19_phobos-aijun_YoonKim_lr3_noise_level0.175_wordlen8_IMDB,Mokoron binary classification,249008
115,0.74872,0.7429176470588236,"MaxWordLen 8, MaxTexLen 128",0.5,30,0.7744182706118932,0.7723085900054183,,0.001,"YoonKimModel(
  (embedding): Linear(in_features=74, out_features=74, bias=True)
  (chars_cnn): Sequential(
    (0): Conv1d(74, 256, kernel_size=(5,), stride=(1,), padding=(2,))
    (1): ReLU()
    (2): MaxPool1d(kernel_size=8, stride=8, padding=0, dilation=1, ceil_mode=False)
  )
  (dropout): Dropout(p=0.5)
  (words_rnn): GRU(256, 128)
  (projector): Linear(in_features=128, out_features=2, bias=True)
)",charCNN,0.125,0.175,runs/May16_11-18-19_phobos-aijun_YoonKim_lr3_noise_level0.175_wordlen8_IMDB,Mokoron binary classification,249008
116,0.73572,0.7429176470588236,"MaxWordLen 8, MaxTexLen 128",0.5,30,0.7652847348040782,0.7723085900054183,,0.001,"YoonKimModel(
  (embedding): Linear(in_features=74, out_features=74, bias=True)
  (chars_cnn): Sequential(
    (0): Conv1d(74, 256, kernel_size=(5,), stride=(1,), padding=(2,))
    (1): ReLU()
    (2): MaxPool1d(kernel_size=8, stride=8, padding=0, dilation=1, ceil_mode=False)
  )
  (dropout): Dropout(p=0.5)
  (words_rnn): GRU(256, 128)
  (projector): Linear(in_features=128, out_features=2, bias=True)
)",charCNN,0.15,0.175,runs/May16_11-18-19_phobos-aijun_YoonKim_lr3_noise_level0.175_wordlen8_IMDB,Mokoron binary classification,249008
117,0.7246,0.7429176470588236,"MaxWordLen 8, MaxTexLen 128",0.5,30,0.7570657351540171,0.7723085900054183,,0.001,"YoonKimModel(
  (embedding): Linear(in_features=74, out_features=74, bias=True)
  (chars_cnn): Sequential(
    (0): Conv1d(74, 256, kernel_size=(5,), stride=(1,), padding=(2,))
    (1): ReLU()
    (2): MaxPool1d(kernel_size=8, stride=8, padding=0, dilation=1, ceil_mode=False)
  )
  (dropout): Dropout(p=0.5)
  (words_rnn): GRU(256, 128)
  (projector): Linear(in_features=128, out_features=2, bias=True)
)",charCNN,0.175,0.175,runs/May16_11-18-19_phobos-aijun_YoonKim_lr3_noise_level0.175_wordlen8_IMDB,Mokoron binary classification,249008
118,0.70892,0.7429176470588236,"MaxWordLen 8, MaxTexLen 128",0.5,30,0.745051326069439,0.7723085900054183,,0.001,"YoonKimModel(
  (embedding): Linear(in_features=74, out_features=74, bias=True)
  (chars_cnn): Sequential(
    (0): Conv1d(74, 256, kernel_size=(5,), stride=(1,), padding=(2,))
    (1): ReLU()
    (2): MaxPool1d(kernel_size=8, stride=8, padding=0, dilation=1, ceil_mode=False)
  )
  (dropout): Dropout(p=0.5)
  (words_rnn): GRU(256, 128)
  (projector): Linear(in_features=128, out_features=2, bias=True)
)",charCNN,0.2,0.175,runs/May16_11-18-19_phobos-aijun_YoonKim_lr3_noise_level0.175_wordlen8_IMDB,Mokoron binary classification,249008
119,0.72012,0.7429176470588236,"MaxWordLen 8, MaxTexLen 128",0.5,30,0.7524149888538976,0.7723085900054183,,0.001,"YoonKimModel(
  (embedding): Linear(in_features=74, out_features=74, bias=True)
  (chars_cnn): Sequential(
    (0): Conv1d(74, 256, kernel_size=(5,), stride=(1,), padding=(2,))
    (1): ReLU()
    (2): MaxPool1d(kernel_size=8, stride=8, padding=0, dilation=1, ceil_mode=False)
  )
  (dropout): Dropout(p=0.5)
  (words_rnn): GRU(256, 128)
  (projector): Linear(in_features=128, out_features=2, bias=True)
)",charCNN,-1.0,0.175,runs/May16_11-18-19_phobos-aijun_YoonKim_lr3_noise_level0.175_wordlen8_IMDB,Mokoron binary classification,249008
120,0.81112,0.7345882352941177,"MaxWordLen 8, MaxTexLen 128",0.5,30,0.8130197196483725,0.7190395536514894,,0.001,"YoonKimModel(
  (embedding): Linear(in_features=74, out_features=74, bias=True)
  (chars_cnn): Sequential(
    (0): Conv1d(74, 256, kernel_size=(5,), stride=(1,), padding=(2,))
    (1): ReLU()
    (2): MaxPool1d(kernel_size=8, stride=8, padding=0, dilation=1, ceil_mode=False)
  )
  (dropout): Dropout(p=0.5)
  (words_rnn): GRU(256, 128)
  (projector): Linear(in_features=128, out_features=2, bias=True)
)",charCNN,0.0,0.2,runs/May16_12-31-28_phobos-aijun_YoonKim_lr3_noise_level0.2_wordlen8_IMDB,Mokoron binary classification,249008
121,0.80796,0.7345882352941177,"MaxWordLen 8, MaxTexLen 128",0.5,30,0.8099140832244527,0.7190395536514894,,0.001,"YoonKimModel(
  (embedding): Linear(in_features=74, out_features=74, bias=True)
  (chars_cnn): Sequential(
    (0): Conv1d(74, 256, kernel_size=(5,), stride=(1,), padding=(2,))
    (1): ReLU()
    (2): MaxPool1d(kernel_size=8, stride=8, padding=0, dilation=1, ceil_mode=False)
  )
  (dropout): Dropout(p=0.5)
  (words_rnn): GRU(256, 128)
  (projector): Linear(in_features=128, out_features=2, bias=True)
)",charCNN,0.005,0.2,runs/May16_12-31-28_phobos-aijun_YoonKim_lr3_noise_level0.2_wordlen8_IMDB,Mokoron binary classification,249008
122,0.80516,0.7345882352941177,"MaxWordLen 8, MaxTexLen 128",0.5,30,0.8067753580070609,0.7190395536514894,,0.001,"YoonKimModel(
  (embedding): Linear(in_features=74, out_features=74, bias=True)
  (chars_cnn): Sequential(
    (0): Conv1d(74, 256, kernel_size=(5,), stride=(1,), padding=(2,))
    (1): ReLU()
    (2): MaxPool1d(kernel_size=8, stride=8, padding=0, dilation=1, ceil_mode=False)
  )
  (dropout): Dropout(p=0.5)
  (words_rnn): GRU(256, 128)
  (projector): Linear(in_features=128, out_features=2, bias=True)
)",charCNN,0.01,0.2,runs/May16_12-31-28_phobos-aijun_YoonKim_lr3_noise_level0.2_wordlen8_IMDB,Mokoron binary classification,249008
123,0.80196,0.7345882352941177,"MaxWordLen 8, MaxTexLen 128",0.5,30,0.8028825098538839,0.7190395536514894,,0.001,"YoonKimModel(
  (embedding): Linear(in_features=74, out_features=74, bias=True)
  (chars_cnn): Sequential(
    (0): Conv1d(74, 256, kernel_size=(5,), stride=(1,), padding=(2,))
    (1): ReLU()
    (2): MaxPool1d(kernel_size=8, stride=8, padding=0, dilation=1, ceil_mode=False)
  )
  (dropout): Dropout(p=0.5)
  (words_rnn): GRU(256, 128)
  (projector): Linear(in_features=128, out_features=2, bias=True)
)",charCNN,0.025,0.2,runs/May16_12-31-28_phobos-aijun_YoonKim_lr3_noise_level0.2_wordlen8_IMDB,Mokoron binary classification,249008
124,0.79156,0.7345882352941177,"MaxWordLen 8, MaxTexLen 128",0.5,30,0.7913513513513515,0.7190395536514894,,0.001,"YoonKimModel(
  (embedding): Linear(in_features=74, out_features=74, bias=True)
  (chars_cnn): Sequential(
    (0): Conv1d(74, 256, kernel_size=(5,), stride=(1,), padding=(2,))
    (1): ReLU()
    (2): MaxPool1d(kernel_size=8, stride=8, padding=0, dilation=1, ceil_mode=False)
  )
  (dropout): Dropout(p=0.5)
  (words_rnn): GRU(256, 128)
  (projector): Linear(in_features=128, out_features=2, bias=True)
)",charCNN,0.05,0.2,runs/May16_12-31-28_phobos-aijun_YoonKim_lr3_noise_level0.2_wordlen8_IMDB,Mokoron binary classification,249008
125,0.77924,0.7345882352941177,"MaxWordLen 8, MaxTexLen 128",0.5,30,0.778841915447806,0.7190395536514894,,0.001,"YoonKimModel(
  (embedding): Linear(in_features=74, out_features=74, bias=True)
  (chars_cnn): Sequential(
    (0): Conv1d(74, 256, kernel_size=(5,), stride=(1,), padding=(2,))
    (1): ReLU()
    (2): MaxPool1d(kernel_size=8, stride=8, padding=0, dilation=1, ceil_mode=False)
  )
  (dropout): Dropout(p=0.5)
  (words_rnn): GRU(256, 128)
  (projector): Linear(in_features=128, out_features=2, bias=True)
)",charCNN,0.075,0.2,runs/May16_12-31-28_phobos-aijun_YoonKim_lr3_noise_level0.2_wordlen8_IMDB,Mokoron binary classification,249008
126,0.76516,0.7345882352941177,"MaxWordLen 8, MaxTexLen 128",0.5,30,0.7620861530980265,0.7190395536514894,,0.001,"YoonKimModel(
  (embedding): Linear(in_features=74, out_features=74, bias=True)
  (chars_cnn): Sequential(
    (0): Conv1d(74, 256, kernel_size=(5,), stride=(1,), padding=(2,))
    (1): ReLU()
    (2): MaxPool1d(kernel_size=8, stride=8, padding=0, dilation=1, ceil_mode=False)
  )
  (dropout): Dropout(p=0.5)
  (words_rnn): GRU(256, 128)
  (projector): Linear(in_features=128, out_features=2, bias=True)
)",charCNN,0.1,0.2,runs/May16_12-31-28_phobos-aijun_YoonKim_lr3_noise_level0.2_wordlen8_IMDB,Mokoron binary classification,249008
127,0.7556,0.7345882352941177,"MaxWordLen 8, MaxTexLen 128",0.5,30,0.7489522557317775,0.7190395536514894,,0.001,"YoonKimModel(
  (embedding): Linear(in_features=74, out_features=74, bias=True)
  (chars_cnn): Sequential(
    (0): Conv1d(74, 256, kernel_size=(5,), stride=(1,), padding=(2,))
    (1): ReLU()
    (2): MaxPool1d(kernel_size=8, stride=8, padding=0, dilation=1, ceil_mode=False)
  )
  (dropout): Dropout(p=0.5)
  (words_rnn): GRU(256, 128)
  (projector): Linear(in_features=128, out_features=2, bias=True)
)",charCNN,0.125,0.2,runs/May16_12-31-28_phobos-aijun_YoonKim_lr3_noise_level0.2_wordlen8_IMDB,Mokoron binary classification,249008
128,0.74232,0.7345882352941177,"MaxWordLen 8, MaxTexLen 128",0.5,30,0.7328965917571938,0.7190395536514894,,0.001,"YoonKimModel(
  (embedding): Linear(in_features=74, out_features=74, bias=True)
  (chars_cnn): Sequential(
    (0): Conv1d(74, 256, kernel_size=(5,), stride=(1,), padding=(2,))
    (1): ReLU()
    (2): MaxPool1d(kernel_size=8, stride=8, padding=0, dilation=1, ceil_mode=False)
  )
  (dropout): Dropout(p=0.5)
  (words_rnn): GRU(256, 128)
  (projector): Linear(in_features=128, out_features=2, bias=True)
)",charCNN,0.15,0.2,runs/May16_12-31-28_phobos-aijun_YoonKim_lr3_noise_level0.2_wordlen8_IMDB,Mokoron binary classification,249008
129,0.72584,0.7345882352941177,"MaxWordLen 8, MaxTexLen 128",0.5,30,0.7117503574732947,0.7190395536514894,,0.001,"YoonKimModel(
  (embedding): Linear(in_features=74, out_features=74, bias=True)
  (chars_cnn): Sequential(
    (0): Conv1d(74, 256, kernel_size=(5,), stride=(1,), padding=(2,))
    (1): ReLU()
    (2): MaxPool1d(kernel_size=8, stride=8, padding=0, dilation=1, ceil_mode=False)
  )
  (dropout): Dropout(p=0.5)
  (words_rnn): GRU(256, 128)
  (projector): Linear(in_features=128, out_features=2, bias=True)
)",charCNN,0.175,0.2,runs/May16_12-31-28_phobos-aijun_YoonKim_lr3_noise_level0.2_wordlen8_IMDB,Mokoron binary classification,249008
130,0.71444,0.7345882352941177,"MaxWordLen 8, MaxTexLen 128",0.5,30,0.696122249180607,0.7190395536514894,,0.001,"YoonKimModel(
  (embedding): Linear(in_features=74, out_features=74, bias=True)
  (chars_cnn): Sequential(
    (0): Conv1d(74, 256, kernel_size=(5,), stride=(1,), padding=(2,))
    (1): ReLU()
    (2): MaxPool1d(kernel_size=8, stride=8, padding=0, dilation=1, ceil_mode=False)
  )
  (dropout): Dropout(p=0.5)
  (words_rnn): GRU(256, 128)
  (projector): Linear(in_features=128, out_features=2, bias=True)
)",charCNN,0.2,0.2,runs/May16_12-31-28_phobos-aijun_YoonKim_lr3_noise_level0.2_wordlen8_IMDB,Mokoron binary classification,249008
131,0.71008,0.7345882352941177,"MaxWordLen 8, MaxTexLen 128",0.5,30,0.6917318815923783,0.7190395536514894,,0.001,"YoonKimModel(
  (embedding): Linear(in_features=74, out_features=74, bias=True)
  (chars_cnn): Sequential(
    (0): Conv1d(74, 256, kernel_size=(5,), stride=(1,), padding=(2,))
    (1): ReLU()
    (2): MaxPool1d(kernel_size=8, stride=8, padding=0, dilation=1, ceil_mode=False)
  )
  (dropout): Dropout(p=0.5)
  (words_rnn): GRU(256, 128)
  (projector): Linear(in_features=128, out_features=2, bias=True)
)",charCNN,-1.0,0.2,runs/May16_12-31-28_phobos-aijun_YoonKim_lr3_noise_level0.2_wordlen8_IMDB,Mokoron binary classification,249008
