,acc_test,acc_train,data_desc,dropout,epochs,f1_test,f1_train,init_function,lr,model_desc,model_type,noise_level_test,noise_level_train,run_name,task,trainable_params
12,0.808560215844984,0.9357589614212131,"MaxWordLen 8, MaxTexLen 32",0.5,30,0.8124136273508381,0.9368493115296185,,0.001,"YoonKimModel(
  (embedding): Linear(in_features=104, out_features=106, bias=True)
  (chars_cnn): Sequential(
    (0): Conv1d(106, 256, kernel_size=(5,), stride=(1,), padding=(2,))
    (1): ReLU()
    (2): MaxPool1d(kernel_size=8, stride=8, padding=0, dilation=1, ceil_mode=False)
  )
  (dropout): Dropout(p=0.5)
  (words_rnn): GRU(256, 128)
  (projector): Linear(in_features=128, out_features=2, bias=True)
)",charCNN,0.0,0.0,runs/May13_01-35-55_phobos-aijun_YoonKim_lr3_noise_level0_wordlen8_no_emoji,Mokoron binary classification,295548
13,0.8019683590875644,0.9357589614212131,"MaxWordLen 8, MaxTexLen 32",0.5,30,0.8064719101123595,0.9368493115296185,,0.001,"YoonKimModel(
  (embedding): Linear(in_features=104, out_features=106, bias=True)
  (chars_cnn): Sequential(
    (0): Conv1d(106, 256, kernel_size=(5,), stride=(1,), padding=(2,))
    (1): ReLU()
    (2): MaxPool1d(kernel_size=8, stride=8, padding=0, dilation=1, ceil_mode=False)
  )
  (dropout): Dropout(p=0.5)
  (words_rnn): GRU(256, 128)
  (projector): Linear(in_features=128, out_features=2, bias=True)
)",charCNN,0.005,0.0,runs/May13_01-35-55_phobos-aijun_YoonKim_lr3_noise_level0_wordlen8_no_emoji,Mokoron binary classification,295548
14,0.7917279862644101,0.9357589614212131,"MaxWordLen 8, MaxTexLen 32",0.5,30,0.7969025622626842,0.9368493115296185,,0.001,"YoonKimModel(
  (embedding): Linear(in_features=104, out_features=106, bias=True)
  (chars_cnn): Sequential(
    (0): Conv1d(106, 256, kernel_size=(5,), stride=(1,), padding=(2,))
    (1): ReLU()
    (2): MaxPool1d(kernel_size=8, stride=8, padding=0, dilation=1, ceil_mode=False)
  )
  (dropout): Dropout(p=0.5)
  (words_rnn): GRU(256, 128)
  (projector): Linear(in_features=128, out_features=2, bias=True)
)",charCNN,0.01,0.0,runs/May13_01-35-55_phobos-aijun_YoonKim_lr3_noise_level0_wordlen8_no_emoji,Mokoron binary classification,295548
15,0.7735773853323522,0.9357589614212131,"MaxWordLen 8, MaxTexLen 32",0.5,30,0.7819411226267456,0.9368493115296185,,0.001,"YoonKimModel(
  (embedding): Linear(in_features=104, out_features=106, bias=True)
  (chars_cnn): Sequential(
    (0): Conv1d(106, 256, kernel_size=(5,), stride=(1,), padding=(2,))
    (1): ReLU()
    (2): MaxPool1d(kernel_size=8, stride=8, padding=0, dilation=1, ceil_mode=False)
  )
  (dropout): Dropout(p=0.5)
  (words_rnn): GRU(256, 128)
  (projector): Linear(in_features=128, out_features=2, bias=True)
)",charCNN,0.025,0.0,runs/May13_01-35-55_phobos-aijun_YoonKim_lr3_noise_level0_wordlen8_no_emoji,Mokoron binary classification,295548
16,0.7424576894775571,0.9357589614212131,"MaxWordLen 8, MaxTexLen 32",0.5,30,0.7558281495261903,0.9368493115296185,,0.001,"YoonKimModel(
  (embedding): Linear(in_features=104, out_features=106, bias=True)
  (chars_cnn): Sequential(
    (0): Conv1d(106, 256, kernel_size=(5,), stride=(1,), padding=(2,))
    (1): ReLU()
    (2): MaxPool1d(kernel_size=8, stride=8, padding=0, dilation=1, ceil_mode=False)
  )
  (dropout): Dropout(p=0.5)
  (words_rnn): GRU(256, 128)
  (projector): Linear(in_features=128, out_features=2, bias=True)
)",charCNN,0.05,0.0,runs/May13_01-35-55_phobos-aijun_YoonKim_lr3_noise_level0_wordlen8_no_emoji,Mokoron binary classification,295548
17,0.7106328182487123,0.9357589614212131,"MaxWordLen 8, MaxTexLen 32",0.5,30,0.7298179319821365,0.9368493115296185,,0.001,"YoonKimModel(
  (embedding): Linear(in_features=104, out_features=106, bias=True)
  (chars_cnn): Sequential(
    (0): Conv1d(106, 256, kernel_size=(5,), stride=(1,), padding=(2,))
    (1): ReLU()
    (2): MaxPool1d(kernel_size=8, stride=8, padding=0, dilation=1, ceil_mode=False)
  )
  (dropout): Dropout(p=0.5)
  (words_rnn): GRU(256, 128)
  (projector): Linear(in_features=128, out_features=2, bias=True)
)",charCNN,0.075,0.0,runs/May13_01-35-55_phobos-aijun_YoonKim_lr3_noise_level0_wordlen8_no_emoji,Mokoron binary classification,295548
18,0.6891096394407653,0.9357589614212131,"MaxWordLen 8, MaxTexLen 32",0.5,30,0.7131866266900493,0.9368493115296185,,0.001,"YoonKimModel(
  (embedding): Linear(in_features=104, out_features=106, bias=True)
  (chars_cnn): Sequential(
    (0): Conv1d(106, 256, kernel_size=(5,), stride=(1,), padding=(2,))
    (1): ReLU()
    (2): MaxPool1d(kernel_size=8, stride=8, padding=0, dilation=1, ceil_mode=False)
  )
  (dropout): Dropout(p=0.5)
  (words_rnn): GRU(256, 128)
  (projector): Linear(in_features=128, out_features=2, bias=True)
)",charCNN,0.1,0.0,runs/May13_01-35-55_phobos-aijun_YoonKim_lr3_noise_level0_wordlen8_no_emoji,Mokoron binary classification,295548
19,0.6635087073828796,0.9357589614212131,"MaxWordLen 8, MaxTexLen 32",0.5,30,0.6913580246913579,0.9368493115296185,,0.001,"YoonKimModel(
  (embedding): Linear(in_features=104, out_features=106, bias=True)
  (chars_cnn): Sequential(
    (0): Conv1d(106, 256, kernel_size=(5,), stride=(1,), padding=(2,))
    (1): ReLU()
    (2): MaxPool1d(kernel_size=8, stride=8, padding=0, dilation=1, ceil_mode=False)
  )
  (dropout): Dropout(p=0.5)
  (words_rnn): GRU(256, 128)
  (projector): Linear(in_features=128, out_features=2, bias=True)
)",charCNN,0.125,0.0,runs/May13_01-35-55_phobos-aijun_YoonKim_lr3_noise_level0_wordlen8_no_emoji,Mokoron binary classification,295548
20,0.6467991169977925,0.9357589614212131,"MaxWordLen 8, MaxTexLen 32",0.5,30,0.681486396814864,0.9368493115296185,,0.001,"YoonKimModel(
  (embedding): Linear(in_features=104, out_features=106, bias=True)
  (chars_cnn): Sequential(
    (0): Conv1d(106, 256, kernel_size=(5,), stride=(1,), padding=(2,))
    (1): ReLU()
    (2): MaxPool1d(kernel_size=8, stride=8, padding=0, dilation=1, ceil_mode=False)
  )
  (dropout): Dropout(p=0.5)
  (words_rnn): GRU(256, 128)
  (projector): Linear(in_features=128, out_features=2, bias=True)
)",charCNN,0.15,0.0,runs/May13_01-35-55_phobos-aijun_YoonKim_lr3_noise_level0_wordlen8_no_emoji,Mokoron binary classification,295548
21,0.6285565366691195,0.9357589614212131,"MaxWordLen 8, MaxTexLen 32",0.5,30,0.6649890772336365,0.9368493115296185,,0.001,"YoonKimModel(
  (embedding): Linear(in_features=104, out_features=106, bias=True)
  (chars_cnn): Sequential(
    (0): Conv1d(106, 256, kernel_size=(5,), stride=(1,), padding=(2,))
    (1): ReLU()
    (2): MaxPool1d(kernel_size=8, stride=8, padding=0, dilation=1, ceil_mode=False)
  )
  (dropout): Dropout(p=0.5)
  (words_rnn): GRU(256, 128)
  (projector): Linear(in_features=128, out_features=2, bias=True)
)",charCNN,0.175,0.0,runs/May13_01-35-55_phobos-aijun_YoonKim_lr3_noise_level0_wordlen8_no_emoji,Mokoron binary classification,295548
22,0.6192666176109884,0.9357589614212131,"MaxWordLen 8, MaxTexLen 32",0.5,30,0.6604877515310587,0.9368493115296185,,0.001,"YoonKimModel(
  (embedding): Linear(in_features=104, out_features=106, bias=True)
  (chars_cnn): Sequential(
    (0): Conv1d(106, 256, kernel_size=(5,), stride=(1,), padding=(2,))
    (1): ReLU()
    (2): MaxPool1d(kernel_size=8, stride=8, padding=0, dilation=1, ceil_mode=False)
  )
  (dropout): Dropout(p=0.5)
  (words_rnn): GRU(256, 128)
  (projector): Linear(in_features=128, out_features=2, bias=True)
)",charCNN,0.2,0.0,runs/May13_01-35-55_phobos-aijun_YoonKim_lr3_noise_level0_wordlen8_no_emoji,Mokoron binary classification,295548
23,0.8066899681138092,0.9357589614212131,"MaxWordLen 8, MaxTexLen 32",0.5,30,0.8108140546703874,0.9368493115296185,,0.001,"YoonKimModel(
  (embedding): Linear(in_features=104, out_features=106, bias=True)
  (chars_cnn): Sequential(
    (0): Conv1d(106, 256, kernel_size=(5,), stride=(1,), padding=(2,))
    (1): ReLU()
    (2): MaxPool1d(kernel_size=8, stride=8, padding=0, dilation=1, ceil_mode=False)
  )
  (dropout): Dropout(p=0.5)
  (words_rnn): GRU(256, 128)
  (projector): Linear(in_features=128, out_features=2, bias=True)
)",charCNN,-1.0,0.0,runs/May13_01-35-55_phobos-aijun_YoonKim_lr3_noise_level0_wordlen8_no_emoji,Mokoron binary classification,295548
24,0.8092960510179054,0.9068248712288447,"MaxWordLen 8, MaxTexLen 32",0.5,30,0.8174132566195034,0.9104716933488207,,0.001,"YoonKimModel(
  (embedding): Linear(in_features=104, out_features=106, bias=True)
  (chars_cnn): Sequential(
    (0): Conv1d(106, 256, kernel_size=(5,), stride=(1,), padding=(2,))
    (1): ReLU()
    (2): MaxPool1d(kernel_size=8, stride=8, padding=0, dilation=1, ceil_mode=False)
  )
  (dropout): Dropout(p=0.5)
  (words_rnn): GRU(256, 128)
  (projector): Linear(in_features=128, out_features=2, bias=True)
)",charCNN,0.0,0.005,runs/May13_02-50-45_phobos-aijun_YoonKim_lr3_noise_level0.005_wordlen8_no_emoji,Mokoron binary classification,295548
25,0.8042985038018151,0.9068248712288447,"MaxWordLen 8, MaxTexLen 32",0.5,30,0.8132151113452141,0.9104716933488207,,0.001,"YoonKimModel(
  (embedding): Linear(in_features=104, out_features=106, bias=True)
  (chars_cnn): Sequential(
    (0): Conv1d(106, 256, kernel_size=(5,), stride=(1,), padding=(2,))
    (1): ReLU()
    (2): MaxPool1d(kernel_size=8, stride=8, padding=0, dilation=1, ceil_mode=False)
  )
  (dropout): Dropout(p=0.5)
  (words_rnn): GRU(256, 128)
  (projector): Linear(in_features=128, out_features=2, bias=True)
)",charCNN,0.005,0.005,runs/May13_02-50-45_phobos-aijun_YoonKim_lr3_noise_level0.005_wordlen8_no_emoji,Mokoron binary classification,295548
26,0.7987490802060339,0.9068248712288447,"MaxWordLen 8, MaxTexLen 32",0.5,30,0.8085739282589676,0.9104716933488207,,0.001,"YoonKimModel(
  (embedding): Linear(in_features=104, out_features=106, bias=True)
  (chars_cnn): Sequential(
    (0): Conv1d(106, 256, kernel_size=(5,), stride=(1,), padding=(2,))
    (1): ReLU()
    (2): MaxPool1d(kernel_size=8, stride=8, padding=0, dilation=1, ceil_mode=False)
  )
  (dropout): Dropout(p=0.5)
  (words_rnn): GRU(256, 128)
  (projector): Linear(in_features=128, out_features=2, bias=True)
)",charCNN,0.01,0.005,runs/May13_02-50-45_phobos-aijun_YoonKim_lr3_noise_level0.005_wordlen8_no_emoji,Mokoron binary classification,295548
27,0.7840017169487368,0.9068248712288447,"MaxWordLen 8, MaxTexLen 32",0.5,30,0.7954354075321584,0.9104716933488207,,0.001,"YoonKimModel(
  (embedding): Linear(in_features=104, out_features=106, bias=True)
  (chars_cnn): Sequential(
    (0): Conv1d(106, 256, kernel_size=(5,), stride=(1,), padding=(2,))
    (1): ReLU()
    (2): MaxPool1d(kernel_size=8, stride=8, padding=0, dilation=1, ceil_mode=False)
  )
  (dropout): Dropout(p=0.5)
  (words_rnn): GRU(256, 128)
  (projector): Linear(in_features=128, out_features=2, bias=True)
)",charCNN,0.025,0.005,runs/May13_02-50-45_phobos-aijun_YoonKim_lr3_noise_level0.005_wordlen8_no_emoji,Mokoron binary classification,295548
28,0.7615587441746382,0.9068248712288447,"MaxWordLen 8, MaxTexLen 32",0.5,30,0.7773865750679835,0.9104716933488207,,0.001,"YoonKimModel(
  (embedding): Linear(in_features=104, out_features=106, bias=True)
  (chars_cnn): Sequential(
    (0): Conv1d(106, 256, kernel_size=(5,), stride=(1,), padding=(2,))
    (1): ReLU()
    (2): MaxPool1d(kernel_size=8, stride=8, padding=0, dilation=1, ceil_mode=False)
  )
  (dropout): Dropout(p=0.5)
  (words_rnn): GRU(256, 128)
  (projector): Linear(in_features=128, out_features=2, bias=True)
)",charCNN,0.05,0.005,runs/May13_02-50-45_phobos-aijun_YoonKim_lr3_noise_level0.005_wordlen8_no_emoji,Mokoron binary classification,295548
29,0.7413845965170468,0.9068248712288447,"MaxWordLen 8, MaxTexLen 32",0.5,30,0.7600762294848822,0.9104716933488207,,0.001,"YoonKimModel(
  (embedding): Linear(in_features=104, out_features=106, bias=True)
  (chars_cnn): Sequential(
    (0): Conv1d(106, 256, kernel_size=(5,), stride=(1,), padding=(2,))
    (1): ReLU()
    (2): MaxPool1d(kernel_size=8, stride=8, padding=0, dilation=1, ceil_mode=False)
  )
  (dropout): Dropout(p=0.5)
  (words_rnn): GRU(256, 128)
  (projector): Linear(in_features=128, out_features=2, bias=True)
)",charCNN,0.075,0.005,runs/May13_02-50-45_phobos-aijun_YoonKim_lr3_noise_level0.005_wordlen8_no_emoji,Mokoron binary classification,295548
30,0.7187270051508462,0.9068248712288447,"MaxWordLen 8, MaxTexLen 32",0.5,30,0.7412421729565071,0.9104716933488207,,0.001,"YoonKimModel(
  (embedding): Linear(in_features=104, out_features=106, bias=True)
  (chars_cnn): Sequential(
    (0): Conv1d(106, 256, kernel_size=(5,), stride=(1,), padding=(2,))
    (1): ReLU()
    (2): MaxPool1d(kernel_size=8, stride=8, padding=0, dilation=1, ceil_mode=False)
  )
  (dropout): Dropout(p=0.5)
  (words_rnn): GRU(256, 128)
  (projector): Linear(in_features=128, out_features=2, bias=True)
)",charCNN,0.1,0.005,runs/May13_02-50-45_phobos-aijun_YoonKim_lr3_noise_level0.005_wordlen8_no_emoji,Mokoron binary classification,295548
31,0.6974491047338729,0.9068248712288447,"MaxWordLen 8, MaxTexLen 32",0.5,30,0.7246498130476032,0.9104716933488207,,0.001,"YoonKimModel(
  (embedding): Linear(in_features=104, out_features=106, bias=True)
  (chars_cnn): Sequential(
    (0): Conv1d(106, 256, kernel_size=(5,), stride=(1,), padding=(2,))
    (1): ReLU()
    (2): MaxPool1d(kernel_size=8, stride=8, padding=0, dilation=1, ceil_mode=False)
  )
  (dropout): Dropout(p=0.5)
  (words_rnn): GRU(256, 128)
  (projector): Linear(in_features=128, out_features=2, bias=True)
)",charCNN,0.125,0.005,runs/May13_02-50-45_phobos-aijun_YoonKim_lr3_noise_level0.005_wordlen8_no_emoji,Mokoron binary classification,295548
32,0.6880672062791268,0.9068248712288447,"MaxWordLen 8, MaxTexLen 32",0.5,30,0.7181717451523546,0.9104716933488207,,0.001,"YoonKimModel(
  (embedding): Linear(in_features=104, out_features=106, bias=True)
  (chars_cnn): Sequential(
    (0): Conv1d(106, 256, kernel_size=(5,), stride=(1,), padding=(2,))
    (1): ReLU()
    (2): MaxPool1d(kernel_size=8, stride=8, padding=0, dilation=1, ceil_mode=False)
  )
  (dropout): Dropout(p=0.5)
  (words_rnn): GRU(256, 128)
  (projector): Linear(in_features=128, out_features=2, bias=True)
)",charCNN,0.15,0.005,runs/May13_02-50-45_phobos-aijun_YoonKim_lr3_noise_level0.005_wordlen8_no_emoji,Mokoron binary classification,295548
33,0.6672492028452294,0.9068248712288447,"MaxWordLen 8, MaxTexLen 32",0.5,30,0.7021597738686571,0.9104716933488207,,0.001,"YoonKimModel(
  (embedding): Linear(in_features=104, out_features=106, bias=True)
  (chars_cnn): Sequential(
    (0): Conv1d(106, 256, kernel_size=(5,), stride=(1,), padding=(2,))
    (1): ReLU()
    (2): MaxPool1d(kernel_size=8, stride=8, padding=0, dilation=1, ceil_mode=False)
  )
  (dropout): Dropout(p=0.5)
  (words_rnn): GRU(256, 128)
  (projector): Linear(in_features=128, out_features=2, bias=True)
)",charCNN,0.175,0.005,runs/May13_02-50-45_phobos-aijun_YoonKim_lr3_noise_level0.005_wordlen8_no_emoji,Mokoron binary classification,295548
34,0.6547093451066961,0.9068248712288447,"MaxWordLen 8, MaxTexLen 32",0.5,30,0.6923287072451098,0.9104716933488207,,0.001,"YoonKimModel(
  (embedding): Linear(in_features=104, out_features=106, bias=True)
  (chars_cnn): Sequential(
    (0): Conv1d(106, 256, kernel_size=(5,), stride=(1,), padding=(2,))
    (1): ReLU()
    (2): MaxPool1d(kernel_size=8, stride=8, padding=0, dilation=1, ceil_mode=False)
  )
  (dropout): Dropout(p=0.5)
  (words_rnn): GRU(256, 128)
  (projector): Linear(in_features=128, out_features=2, bias=True)
)",charCNN,0.2,0.005,runs/May13_02-50-45_phobos-aijun_YoonKim_lr3_noise_level0.005_wordlen8_no_emoji,Mokoron binary classification,295548
35,0.8035013490311503,0.9068248712288447,"MaxWordLen 8, MaxTexLen 32",0.5,30,0.8126187761307488,0.9104716933488207,,0.001,"YoonKimModel(
  (embedding): Linear(in_features=104, out_features=106, bias=True)
  (chars_cnn): Sequential(
    (0): Conv1d(106, 256, kernel_size=(5,), stride=(1,), padding=(2,))
    (1): ReLU()
    (2): MaxPool1d(kernel_size=8, stride=8, padding=0, dilation=1, ceil_mode=False)
  )
  (dropout): Dropout(p=0.5)
  (words_rnn): GRU(256, 128)
  (projector): Linear(in_features=128, out_features=2, bias=True)
)",charCNN,-1.0,0.005,runs/May13_02-50-45_phobos-aijun_YoonKim_lr3_noise_level0.005_wordlen8_no_emoji,Mokoron binary classification,295548
36,0.8149987736080452,0.899932986439609,"MaxWordLen 8, MaxTexLen 32",0.5,30,0.8179788838612368,0.9017690725106898,,0.001,"YoonKimModel(
  (embedding): Linear(in_features=104, out_features=106, bias=True)
  (chars_cnn): Sequential(
    (0): Conv1d(106, 256, kernel_size=(5,), stride=(1,), padding=(2,))
    (1): ReLU()
    (2): MaxPool1d(kernel_size=8, stride=8, padding=0, dilation=1, ceil_mode=False)
  )
  (dropout): Dropout(p=0.5)
  (words_rnn): GRU(256, 128)
  (projector): Linear(in_features=128, out_features=2, bias=True)
)",charCNN,0.0,0.01,runs/May13_04-05-37_phobos-aijun_YoonKim_lr3_noise_level0.01_wordlen8_no_emoji,Mokoron binary classification,295548
37,0.8109210203581064,0.899932986439609,"MaxWordLen 8, MaxTexLen 32",0.5,30,0.814286144487608,0.9017690725106898,,0.001,"YoonKimModel(
  (embedding): Linear(in_features=104, out_features=106, bias=True)
  (chars_cnn): Sequential(
    (0): Conv1d(106, 256, kernel_size=(5,), stride=(1,), padding=(2,))
    (1): ReLU()
    (2): MaxPool1d(kernel_size=8, stride=8, padding=0, dilation=1, ceil_mode=False)
  )
  (dropout): Dropout(p=0.5)
  (words_rnn): GRU(256, 128)
  (projector): Linear(in_features=128, out_features=2, bias=True)
)",charCNN,0.005,0.01,runs/May13_04-05-37_phobos-aijun_YoonKim_lr3_noise_level0.01_wordlen8_no_emoji,Mokoron binary classification,295548
38,0.8050036791758646,0.899932986439609,"MaxWordLen 8, MaxTexLen 32",0.5,30,0.8083529199059845,0.9017690725106898,,0.001,"YoonKimModel(
  (embedding): Linear(in_features=104, out_features=106, bias=True)
  (chars_cnn): Sequential(
    (0): Conv1d(106, 256, kernel_size=(5,), stride=(1,), padding=(2,))
    (1): ReLU()
    (2): MaxPool1d(kernel_size=8, stride=8, padding=0, dilation=1, ceil_mode=False)
  )
  (dropout): Dropout(p=0.5)
  (words_rnn): GRU(256, 128)
  (projector): Linear(in_features=128, out_features=2, bias=True)
)",charCNN,0.01,0.01,runs/May13_04-05-37_phobos-aijun_YoonKim_lr3_noise_level0.01_wordlen8_no_emoji,Mokoron binary classification,295548
39,0.7943953887662497,0.899932986439609,"MaxWordLen 8, MaxTexLen 32",0.5,30,0.799761122723201,0.9017690725106898,,0.001,"YoonKimModel(
  (embedding): Linear(in_features=104, out_features=106, bias=True)
  (chars_cnn): Sequential(
    (0): Conv1d(106, 256, kernel_size=(5,), stride=(1,), padding=(2,))
    (1): ReLU()
    (2): MaxPool1d(kernel_size=8, stride=8, padding=0, dilation=1, ceil_mode=False)
  )
  (dropout): Dropout(p=0.5)
  (words_rnn): GRU(256, 128)
  (projector): Linear(in_features=128, out_features=2, bias=True)
)",charCNN,0.025,0.01,runs/May13_04-05-37_phobos-aijun_YoonKim_lr3_noise_level0.01_wordlen8_no_emoji,Mokoron binary classification,295548
40,0.7729641893549178,0.899932986439609,"MaxWordLen 8, MaxTexLen 32",0.5,30,0.7806120937398157,0.9017690725106898,,0.001,"YoonKimModel(
  (embedding): Linear(in_features=104, out_features=106, bias=True)
  (chars_cnn): Sequential(
    (0): Conv1d(106, 256, kernel_size=(5,), stride=(1,), padding=(2,))
    (1): ReLU()
    (2): MaxPool1d(kernel_size=8, stride=8, padding=0, dilation=1, ceil_mode=False)
  )
  (dropout): Dropout(p=0.5)
  (words_rnn): GRU(256, 128)
  (projector): Linear(in_features=128, out_features=2, bias=True)
)",charCNN,0.05,0.01,runs/May13_04-05-37_phobos-aijun_YoonKim_lr3_noise_level0.01_wordlen8_no_emoji,Mokoron binary classification,295548
41,0.7515943095413294,0.899932986439609,"MaxWordLen 8, MaxTexLen 32",0.5,30,0.7621815193143125,0.9017690725106898,,0.001,"YoonKimModel(
  (embedding): Linear(in_features=104, out_features=106, bias=True)
  (chars_cnn): Sequential(
    (0): Conv1d(106, 256, kernel_size=(5,), stride=(1,), padding=(2,))
    (1): ReLU()
    (2): MaxPool1d(kernel_size=8, stride=8, padding=0, dilation=1, ceil_mode=False)
  )
  (dropout): Dropout(p=0.5)
  (words_rnn): GRU(256, 128)
  (projector): Linear(in_features=128, out_features=2, bias=True)
)",charCNN,0.075,0.01,runs/May13_04-05-37_phobos-aijun_YoonKim_lr3_noise_level0.01_wordlen8_no_emoji,Mokoron binary classification,295548
42,0.7332597498160413,0.899932986439609,"MaxWordLen 8, MaxTexLen 32",0.5,30,0.7467986030267754,0.9017690725106898,,0.001,"YoonKimModel(
  (embedding): Linear(in_features=104, out_features=106, bias=True)
  (chars_cnn): Sequential(
    (0): Conv1d(106, 256, kernel_size=(5,), stride=(1,), padding=(2,))
    (1): ReLU()
    (2): MaxPool1d(kernel_size=8, stride=8, padding=0, dilation=1, ceil_mode=False)
  )
  (dropout): Dropout(p=0.5)
  (words_rnn): GRU(256, 128)
  (projector): Linear(in_features=128, out_features=2, bias=True)
)",charCNN,0.1,0.01,runs/May13_04-05-37_phobos-aijun_YoonKim_lr3_noise_level0.01_wordlen8_no_emoji,Mokoron binary classification,295548
43,0.7197387785136129,0.899932986439609,"MaxWordLen 8, MaxTexLen 32",0.5,30,0.7362285384504401,0.9017690725106898,,0.001,"YoonKimModel(
  (embedding): Linear(in_features=104, out_features=106, bias=True)
  (chars_cnn): Sequential(
    (0): Conv1d(106, 256, kernel_size=(5,), stride=(1,), padding=(2,))
    (1): ReLU()
    (2): MaxPool1d(kernel_size=8, stride=8, padding=0, dilation=1, ceil_mode=False)
  )
  (dropout): Dropout(p=0.5)
  (words_rnn): GRU(256, 128)
  (projector): Linear(in_features=128, out_features=2, bias=True)
)",charCNN,0.125,0.01,runs/May13_04-05-37_phobos-aijun_YoonKim_lr3_noise_level0.01_wordlen8_no_emoji,Mokoron binary classification,295548
44,0.6997179298503802,0.899932986439609,"MaxWordLen 8, MaxTexLen 32",0.5,30,0.719739025925714,0.9017690725106898,,0.001,"YoonKimModel(
  (embedding): Linear(in_features=104, out_features=106, bias=True)
  (chars_cnn): Sequential(
    (0): Conv1d(106, 256, kernel_size=(5,), stride=(1,), padding=(2,))
    (1): ReLU()
    (2): MaxPool1d(kernel_size=8, stride=8, padding=0, dilation=1, ceil_mode=False)
  )
  (dropout): Dropout(p=0.5)
  (words_rnn): GRU(256, 128)
  (projector): Linear(in_features=128, out_features=2, bias=True)
)",charCNN,0.15,0.01,runs/May13_04-05-37_phobos-aijun_YoonKim_lr3_noise_level0.01_wordlen8_no_emoji,Mokoron binary classification,295548
45,0.6806168751532989,0.899932986439609,"MaxWordLen 8, MaxTexLen 32",0.5,30,0.7045409422242392,0.9017690725106898,,0.001,"YoonKimModel(
  (embedding): Linear(in_features=104, out_features=106, bias=True)
  (chars_cnn): Sequential(
    (0): Conv1d(106, 256, kernel_size=(5,), stride=(1,), padding=(2,))
    (1): ReLU()
    (2): MaxPool1d(kernel_size=8, stride=8, padding=0, dilation=1, ceil_mode=False)
  )
  (dropout): Dropout(p=0.5)
  (words_rnn): GRU(256, 128)
  (projector): Linear(in_features=128, out_features=2, bias=True)
)",charCNN,0.175,0.01,runs/May13_04-05-37_phobos-aijun_YoonKim_lr3_noise_level0.01_wordlen8_no_emoji,Mokoron binary classification,295548
46,0.6698246259504538,0.899932986439609,"MaxWordLen 8, MaxTexLen 32",0.5,30,0.6945397815912636,0.9017690725106898,,0.001,"YoonKimModel(
  (embedding): Linear(in_features=104, out_features=106, bias=True)
  (chars_cnn): Sequential(
    (0): Conv1d(106, 256, kernel_size=(5,), stride=(1,), padding=(2,))
    (1): ReLU()
    (2): MaxPool1d(kernel_size=8, stride=8, padding=0, dilation=1, ceil_mode=False)
  )
  (dropout): Dropout(p=0.5)
  (words_rnn): GRU(256, 128)
  (projector): Linear(in_features=128, out_features=2, bias=True)
)",charCNN,0.2,0.01,runs/May13_04-05-37_phobos-aijun_YoonKim_lr3_noise_level0.01_wordlen8_no_emoji,Mokoron binary classification,295548
47,0.8063220505273485,0.899932986439609,"MaxWordLen 8, MaxTexLen 32",0.5,30,0.8102832086974803,0.9017690725106898,,0.001,"YoonKimModel(
  (embedding): Linear(in_features=104, out_features=106, bias=True)
  (chars_cnn): Sequential(
    (0): Conv1d(106, 256, kernel_size=(5,), stride=(1,), padding=(2,))
    (1): ReLU()
    (2): MaxPool1d(kernel_size=8, stride=8, padding=0, dilation=1, ceil_mode=False)
  )
  (dropout): Dropout(p=0.5)
  (words_rnn): GRU(256, 128)
  (projector): Linear(in_features=128, out_features=2, bias=True)
)",charCNN,-1.0,0.01,runs/May13_04-05-37_phobos-aijun_YoonKim_lr3_noise_level0.01_wordlen8_no_emoji,Mokoron binary classification,295548
48,0.8191071866568556,0.8618206664564281,"MaxWordLen 8, MaxTexLen 32",0.5,30,0.8191515448749387,0.8623109656301146,,0.001,"YoonKimModel(
  (embedding): Linear(in_features=104, out_features=106, bias=True)
  (chars_cnn): Sequential(
    (0): Conv1d(106, 256, kernel_size=(5,), stride=(1,), padding=(2,))
    (1): ReLU()
    (2): MaxPool1d(kernel_size=8, stride=8, padding=0, dilation=1, ceil_mode=False)
  )
  (dropout): Dropout(p=0.5)
  (words_rnn): GRU(256, 128)
  (projector): Linear(in_features=128, out_features=2, bias=True)
)",charCNN,0.0,0.025,runs/May13_05-20-28_phobos-aijun_YoonKim_lr3_noise_level0.025_wordlen8_no_emoji,Mokoron binary classification,295548
49,0.8176661761098847,0.8618206664564281,"MaxWordLen 8, MaxTexLen 32",0.5,30,0.8179842683561349,0.8623109656301146,,0.001,"YoonKimModel(
  (embedding): Linear(in_features=104, out_features=106, bias=True)
  (chars_cnn): Sequential(
    (0): Conv1d(106, 256, kernel_size=(5,), stride=(1,), padding=(2,))
    (1): ReLU()
    (2): MaxPool1d(kernel_size=8, stride=8, padding=0, dilation=1, ceil_mode=False)
  )
  (dropout): Dropout(p=0.5)
  (words_rnn): GRU(256, 128)
  (projector): Linear(in_features=128, out_features=2, bias=True)
)",charCNN,0.005,0.025,runs/May13_05-20-28_phobos-aijun_YoonKim_lr3_noise_level0.025_wordlen8_no_emoji,Mokoron binary classification,295548
50,0.8131285258768702,0.8618206664564281,"MaxWordLen 8, MaxTexLen 32",0.5,30,0.8133174063524152,0.8623109656301146,,0.001,"YoonKimModel(
  (embedding): Linear(in_features=104, out_features=106, bias=True)
  (chars_cnn): Sequential(
    (0): Conv1d(106, 256, kernel_size=(5,), stride=(1,), padding=(2,))
    (1): ReLU()
    (2): MaxPool1d(kernel_size=8, stride=8, padding=0, dilation=1, ceil_mode=False)
  )
  (dropout): Dropout(p=0.5)
  (words_rnn): GRU(256, 128)
  (projector): Linear(in_features=128, out_features=2, bias=True)
)",charCNN,0.01,0.025,runs/May13_05-20-28_phobos-aijun_YoonKim_lr3_noise_level0.025_wordlen8_no_emoji,Mokoron binary classification,295548
51,0.8034093696345352,0.8618206664564281,"MaxWordLen 8, MaxTexLen 32",0.5,30,0.8031438044946579,0.8623109656301146,,0.001,"YoonKimModel(
  (embedding): Linear(in_features=104, out_features=106, bias=True)
  (chars_cnn): Sequential(
    (0): Conv1d(106, 256, kernel_size=(5,), stride=(1,), padding=(2,))
    (1): ReLU()
    (2): MaxPool1d(kernel_size=8, stride=8, padding=0, dilation=1, ceil_mode=False)
  )
  (dropout): Dropout(p=0.5)
  (words_rnn): GRU(256, 128)
  (projector): Linear(in_features=128, out_features=2, bias=True)
)",charCNN,0.025,0.025,runs/May13_05-20-28_phobos-aijun_YoonKim_lr3_noise_level0.025_wordlen8_no_emoji,Mokoron binary classification,295548
52,0.7848601913171449,0.8618206664564281,"MaxWordLen 8, MaxTexLen 32",0.5,30,0.7850381398768496,0.8623109656301146,,0.001,"YoonKimModel(
  (embedding): Linear(in_features=104, out_features=106, bias=True)
  (chars_cnn): Sequential(
    (0): Conv1d(106, 256, kernel_size=(5,), stride=(1,), padding=(2,))
    (1): ReLU()
    (2): MaxPool1d(kernel_size=8, stride=8, padding=0, dilation=1, ceil_mode=False)
  )
  (dropout): Dropout(p=0.5)
  (words_rnn): GRU(256, 128)
  (projector): Linear(in_features=128, out_features=2, bias=True)
)",charCNN,0.05,0.025,runs/May13_05-20-28_phobos-aijun_YoonKim_lr3_noise_level0.025_wordlen8_no_emoji,Mokoron binary classification,295548
53,0.7688251165072357,0.8618206664564281,"MaxWordLen 8, MaxTexLen 32",0.5,30,0.7693484245946772,0.8623109656301146,,0.001,"YoonKimModel(
  (embedding): Linear(in_features=104, out_features=106, bias=True)
  (chars_cnn): Sequential(
    (0): Conv1d(106, 256, kernel_size=(5,), stride=(1,), padding=(2,))
    (1): ReLU()
    (2): MaxPool1d(kernel_size=8, stride=8, padding=0, dilation=1, ceil_mode=False)
  )
  (dropout): Dropout(p=0.5)
  (words_rnn): GRU(256, 128)
  (projector): Linear(in_features=128, out_features=2, bias=True)
)",charCNN,0.075,0.025,runs/May13_05-20-28_phobos-aijun_YoonKim_lr3_noise_level0.025_wordlen8_no_emoji,Mokoron binary classification,295548
54,0.7540777532499386,0.8618206664564281,"MaxWordLen 8, MaxTexLen 32",0.5,30,0.7552259757697825,0.8623109656301146,,0.001,"YoonKimModel(
  (embedding): Linear(in_features=104, out_features=106, bias=True)
  (chars_cnn): Sequential(
    (0): Conv1d(106, 256, kernel_size=(5,), stride=(1,), padding=(2,))
    (1): ReLU()
    (2): MaxPool1d(kernel_size=8, stride=8, padding=0, dilation=1, ceil_mode=False)
  )
  (dropout): Dropout(p=0.5)
  (words_rnn): GRU(256, 128)
  (projector): Linear(in_features=128, out_features=2, bias=True)
)",charCNN,0.1,0.025,runs/May13_05-20-28_phobos-aijun_YoonKim_lr3_noise_level0.025_wordlen8_no_emoji,Mokoron binary classification,295548
55,0.7370922246750061,0.8618206664564281,"MaxWordLen 8, MaxTexLen 32",0.5,30,0.7394171452882365,0.8623109656301146,,0.001,"YoonKimModel(
  (embedding): Linear(in_features=104, out_features=106, bias=True)
  (chars_cnn): Sequential(
    (0): Conv1d(106, 256, kernel_size=(5,), stride=(1,), padding=(2,))
    (1): ReLU()
    (2): MaxPool1d(kernel_size=8, stride=8, padding=0, dilation=1, ceil_mode=False)
  )
  (dropout): Dropout(p=0.5)
  (words_rnn): GRU(256, 128)
  (projector): Linear(in_features=128, out_features=2, bias=True)
)",charCNN,0.125,0.025,runs/May13_05-20-28_phobos-aijun_YoonKim_lr3_noise_level0.025_wordlen8_no_emoji,Mokoron binary classification,295548
56,0.7193402011282806,0.8618206664564281,"MaxWordLen 8, MaxTexLen 32",0.5,30,0.7223031185535735,0.8623109656301146,,0.001,"YoonKimModel(
  (embedding): Linear(in_features=104, out_features=106, bias=True)
  (chars_cnn): Sequential(
    (0): Conv1d(106, 256, kernel_size=(5,), stride=(1,), padding=(2,))
    (1): ReLU()
    (2): MaxPool1d(kernel_size=8, stride=8, padding=0, dilation=1, ceil_mode=False)
  )
  (dropout): Dropout(p=0.5)
  (words_rnn): GRU(256, 128)
  (projector): Linear(in_features=128, out_features=2, bias=True)
)",charCNN,0.15,0.025,runs/May13_05-20-28_phobos-aijun_YoonKim_lr3_noise_level0.025_wordlen8_no_emoji,Mokoron binary classification,295548
57,0.7132082413539367,0.8618206664564281,"MaxWordLen 8, MaxTexLen 32",0.5,30,0.7160808595884175,0.8623109656301146,,0.001,"YoonKimModel(
  (embedding): Linear(in_features=104, out_features=106, bias=True)
  (chars_cnn): Sequential(
    (0): Conv1d(106, 256, kernel_size=(5,), stride=(1,), padding=(2,))
    (1): ReLU()
    (2): MaxPool1d(kernel_size=8, stride=8, padding=0, dilation=1, ceil_mode=False)
  )
  (dropout): Dropout(p=0.5)
  (words_rnn): GRU(256, 128)
  (projector): Linear(in_features=128, out_features=2, bias=True)
)",charCNN,0.175,0.025,runs/May13_05-20-28_phobos-aijun_YoonKim_lr3_noise_level0.025_wordlen8_no_emoji,Mokoron binary classification,295548
58,0.6955788570026981,0.8618206664564281,"MaxWordLen 8, MaxTexLen 32",0.5,30,0.6988565709259652,0.8623109656301146,,0.001,"YoonKimModel(
  (embedding): Linear(in_features=104, out_features=106, bias=True)
  (chars_cnn): Sequential(
    (0): Conv1d(106, 256, kernel_size=(5,), stride=(1,), padding=(2,))
    (1): ReLU()
    (2): MaxPool1d(kernel_size=8, stride=8, padding=0, dilation=1, ceil_mode=False)
  )
  (dropout): Dropout(p=0.5)
  (words_rnn): GRU(256, 128)
  (projector): Linear(in_features=128, out_features=2, bias=True)
)",charCNN,0.2,0.025,runs/May13_05-20-28_phobos-aijun_YoonKim_lr3_noise_level0.025_wordlen8_no_emoji,Mokoron binary classification,295548
59,0.8020909982830513,0.8618206664564281,"MaxWordLen 8, MaxTexLen 32",0.5,30,0.8025329621585242,0.8623109656301146,,0.001,"YoonKimModel(
  (embedding): Linear(in_features=104, out_features=106, bias=True)
  (chars_cnn): Sequential(
    (0): Conv1d(106, 256, kernel_size=(5,), stride=(1,), padding=(2,))
    (1): ReLU()
    (2): MaxPool1d(kernel_size=8, stride=8, padding=0, dilation=1, ceil_mode=False)
  )
  (dropout): Dropout(p=0.5)
  (words_rnn): GRU(256, 128)
  (projector): Linear(in_features=128, out_features=2, bias=True)
)",charCNN,-1.0,0.025,runs/May13_05-20-28_phobos-aijun_YoonKim_lr3_noise_level0.025_wordlen8_no_emoji,Mokoron binary classification,295548
60,0.8192604856512141,0.8290628613476295,"MaxWordLen 8, MaxTexLen 32",0.5,30,0.8167490441107899,0.8287636071658923,,0.001,"YoonKimModel(
  (embedding): Linear(in_features=104, out_features=106, bias=True)
  (chars_cnn): Sequential(
    (0): Conv1d(106, 256, kernel_size=(5,), stride=(1,), padding=(2,))
    (1): ReLU()
    (2): MaxPool1d(kernel_size=8, stride=8, padding=0, dilation=1, ceil_mode=False)
  )
  (dropout): Dropout(p=0.5)
  (words_rnn): GRU(256, 128)
  (projector): Linear(in_features=128, out_features=2, bias=True)
)",charCNN,0.0,0.05,runs/May13_06-35-34_phobos-aijun_YoonKim_lr3_noise_level0.05_wordlen8_no_emoji,Mokoron binary classification,295548
61,0.8172982585234241,0.8290628613476295,"MaxWordLen 8, MaxTexLen 32",0.5,30,0.815184691250814,0.8287636071658923,,0.001,"YoonKimModel(
  (embedding): Linear(in_features=104, out_features=106, bias=True)
  (chars_cnn): Sequential(
    (0): Conv1d(106, 256, kernel_size=(5,), stride=(1,), padding=(2,))
    (1): ReLU()
    (2): MaxPool1d(kernel_size=8, stride=8, padding=0, dilation=1, ceil_mode=False)
  )
  (dropout): Dropout(p=0.5)
  (words_rnn): GRU(256, 128)
  (projector): Linear(in_features=128, out_features=2, bias=True)
)",charCNN,0.005,0.05,runs/May13_06-35-34_phobos-aijun_YoonKim_lr3_noise_level0.05_wordlen8_no_emoji,Mokoron binary classification,295548
62,0.8147841550159431,0.8290628613476295,"MaxWordLen 8, MaxTexLen 32",0.5,30,0.8128388635870744,0.8287636071658923,,0.001,"YoonKimModel(
  (embedding): Linear(in_features=104, out_features=106, bias=True)
  (chars_cnn): Sequential(
    (0): Conv1d(106, 256, kernel_size=(5,), stride=(1,), padding=(2,))
    (1): ReLU()
    (2): MaxPool1d(kernel_size=8, stride=8, padding=0, dilation=1, ceil_mode=False)
  )
  (dropout): Dropout(p=0.5)
  (words_rnn): GRU(256, 128)
  (projector): Linear(in_features=128, out_features=2, bias=True)
)",charCNN,0.01,0.05,runs/May13_06-35-34_phobos-aijun_YoonKim_lr3_noise_level0.05_wordlen8_no_emoji,Mokoron binary classification,295548
63,0.808345597252882,0.8290628613476295,"MaxWordLen 8, MaxTexLen 32",0.5,30,0.807026209366221,0.8287636071658923,,0.001,"YoonKimModel(
  (embedding): Linear(in_features=104, out_features=106, bias=True)
  (chars_cnn): Sequential(
    (0): Conv1d(106, 256, kernel_size=(5,), stride=(1,), padding=(2,))
    (1): ReLU()
    (2): MaxPool1d(kernel_size=8, stride=8, padding=0, dilation=1, ceil_mode=False)
  )
  (dropout): Dropout(p=0.5)
  (words_rnn): GRU(256, 128)
  (projector): Linear(in_features=128, out_features=2, bias=True)
)",charCNN,0.025,0.05,runs/May13_06-35-34_phobos-aijun_YoonKim_lr3_noise_level0.05_wordlen8_no_emoji,Mokoron binary classification,295548
64,0.7929850380181506,0.8290628613476295,"MaxWordLen 8, MaxTexLen 32",0.5,30,0.7920157713159192,0.8287636071658923,,0.001,"YoonKimModel(
  (embedding): Linear(in_features=104, out_features=106, bias=True)
  (chars_cnn): Sequential(
    (0): Conv1d(106, 256, kernel_size=(5,), stride=(1,), padding=(2,))
    (1): ReLU()
    (2): MaxPool1d(kernel_size=8, stride=8, padding=0, dilation=1, ceil_mode=False)
  )
  (dropout): Dropout(p=0.5)
  (words_rnn): GRU(256, 128)
  (projector): Linear(in_features=128, out_features=2, bias=True)
)",charCNN,0.05,0.05,runs/May13_06-35-34_phobos-aijun_YoonKim_lr3_noise_level0.05_wordlen8_no_emoji,Mokoron binary classification,295548
65,0.7802305616875154,0.8290628613476295,"MaxWordLen 8, MaxTexLen 32",0.5,30,0.7808755196869651,0.8287636071658923,,0.001,"YoonKimModel(
  (embedding): Linear(in_features=104, out_features=106, bias=True)
  (chars_cnn): Sequential(
    (0): Conv1d(106, 256, kernel_size=(5,), stride=(1,), padding=(2,))
    (1): ReLU()
    (2): MaxPool1d(kernel_size=8, stride=8, padding=0, dilation=1, ceil_mode=False)
  )
  (dropout): Dropout(p=0.5)
  (words_rnn): GRU(256, 128)
  (projector): Linear(in_features=128, out_features=2, bias=True)
)",charCNN,0.075,0.05,runs/May13_06-35-34_phobos-aijun_YoonKim_lr3_noise_level0.05_wordlen8_no_emoji,Mokoron binary classification,295548
66,0.7696222712779004,0.8290628613476295,"MaxWordLen 8, MaxTexLen 32",0.5,30,0.7721096688098993,0.8287636071658923,,0.001,"YoonKimModel(
  (embedding): Linear(in_features=104, out_features=106, bias=True)
  (chars_cnn): Sequential(
    (0): Conv1d(106, 256, kernel_size=(5,), stride=(1,), padding=(2,))
    (1): ReLU()
    (2): MaxPool1d(kernel_size=8, stride=8, padding=0, dilation=1, ceil_mode=False)
  )
  (dropout): Dropout(p=0.5)
  (words_rnn): GRU(256, 128)
  (projector): Linear(in_features=128, out_features=2, bias=True)
)",charCNN,0.1,0.05,runs/May13_06-35-34_phobos-aijun_YoonKim_lr3_noise_level0.05_wordlen8_no_emoji,Mokoron binary classification,295548
67,0.7558866813833701,0.8290628613476295,"MaxWordLen 8, MaxTexLen 32",0.5,30,0.7599203956096973,0.8287636071658923,,0.001,"YoonKimModel(
  (embedding): Linear(in_features=104, out_features=106, bias=True)
  (chars_cnn): Sequential(
    (0): Conv1d(106, 256, kernel_size=(5,), stride=(1,), padding=(2,))
    (1): ReLU()
    (2): MaxPool1d(kernel_size=8, stride=8, padding=0, dilation=1, ceil_mode=False)
  )
  (dropout): Dropout(p=0.5)
  (words_rnn): GRU(256, 128)
  (projector): Linear(in_features=128, out_features=2, bias=True)
)",charCNN,0.125,0.05,runs/May13_06-35-34_phobos-aijun_YoonKim_lr3_noise_level0.05_wordlen8_no_emoji,Mokoron binary classification,295548
68,0.7445118960019622,0.8290628613476295,"MaxWordLen 8, MaxTexLen 32",0.5,30,0.749119373776908,0.8287636071658923,,0.001,"YoonKimModel(
  (embedding): Linear(in_features=104, out_features=106, bias=True)
  (chars_cnn): Sequential(
    (0): Conv1d(106, 256, kernel_size=(5,), stride=(1,), padding=(2,))
    (1): ReLU()
    (2): MaxPool1d(kernel_size=8, stride=8, padding=0, dilation=1, ceil_mode=False)
  )
  (dropout): Dropout(p=0.5)
  (words_rnn): GRU(256, 128)
  (projector): Linear(in_features=128, out_features=2, bias=True)
)",charCNN,0.15,0.05,runs/May13_06-35-34_phobos-aijun_YoonKim_lr3_noise_level0.05_wordlen8_no_emoji,Mokoron binary classification,295548
69,0.7305923473142016,0.8290628613476295,"MaxWordLen 8, MaxTexLen 32",0.5,30,0.7393896254115135,0.8287636071658923,,0.001,"YoonKimModel(
  (embedding): Linear(in_features=104, out_features=106, bias=True)
  (chars_cnn): Sequential(
    (0): Conv1d(106, 256, kernel_size=(5,), stride=(1,), padding=(2,))
    (1): ReLU()
    (2): MaxPool1d(kernel_size=8, stride=8, padding=0, dilation=1, ceil_mode=False)
  )
  (dropout): Dropout(p=0.5)
  (words_rnn): GRU(256, 128)
  (projector): Linear(in_features=128, out_features=2, bias=True)
)",charCNN,0.175,0.05,runs/May13_06-35-34_phobos-aijun_YoonKim_lr3_noise_level0.05_wordlen8_no_emoji,Mokoron binary classification,295548
70,0.7159369634535198,0.8290628613476295,"MaxWordLen 8, MaxTexLen 32",0.5,30,0.7257821055435523,0.8287636071658923,,0.001,"YoonKimModel(
  (embedding): Linear(in_features=104, out_features=106, bias=True)
  (chars_cnn): Sequential(
    (0): Conv1d(106, 256, kernel_size=(5,), stride=(1,), padding=(2,))
    (1): ReLU()
    (2): MaxPool1d(kernel_size=8, stride=8, padding=0, dilation=1, ceil_mode=False)
  )
  (dropout): Dropout(p=0.5)
  (words_rnn): GRU(256, 128)
  (projector): Linear(in_features=128, out_features=2, bias=True)
)",charCNN,0.2,0.05,runs/May13_06-35-34_phobos-aijun_YoonKim_lr3_noise_level0.05_wordlen8_no_emoji,Mokoron binary classification,295548
71,0.7929850380181506,0.8290628613476295,"MaxWordLen 8, MaxTexLen 32",0.5,30,0.7927053911334888,0.8287636071658923,,0.001,"YoonKimModel(
  (embedding): Linear(in_features=104, out_features=106, bias=True)
  (chars_cnn): Sequential(
    (0): Conv1d(106, 256, kernel_size=(5,), stride=(1,), padding=(2,))
    (1): ReLU()
    (2): MaxPool1d(kernel_size=8, stride=8, padding=0, dilation=1, ceil_mode=False)
  )
  (dropout): Dropout(p=0.5)
  (words_rnn): GRU(256, 128)
  (projector): Linear(in_features=128, out_features=2, bias=True)
)",charCNN,-1.0,0.05,runs/May13_06-35-34_phobos-aijun_YoonKim_lr3_noise_level0.05_wordlen8_no_emoji,Mokoron binary classification,295548
72,0.821897228354182,0.8096223588773258,"MaxWordLen 8, MaxTexLen 32",0.5,30,0.826426031613231,0.8168967805124641,,0.001,"YoonKimModel(
  (embedding): Linear(in_features=104, out_features=106, bias=True)
  (chars_cnn): Sequential(
    (0): Conv1d(106, 256, kernel_size=(5,), stride=(1,), padding=(2,))
    (1): ReLU()
    (2): MaxPool1d(kernel_size=8, stride=8, padding=0, dilation=1, ceil_mode=False)
  )
  (dropout): Dropout(p=0.5)
  (words_rnn): GRU(256, 128)
  (projector): Linear(in_features=128, out_features=2, bias=True)
)",charCNN,0.0,0.075,runs/May13_07-50-42_phobos-aijun_YoonKim_lr3_noise_level0.075_wordlen8_no_emoji,Mokoron binary classification,295548
73,0.8202415992151092,0.8096223588773258,"MaxWordLen 8, MaxTexLen 32",0.5,30,0.824896215990204,0.8168967805124641,,0.001,"YoonKimModel(
  (embedding): Linear(in_features=104, out_features=106, bias=True)
  (chars_cnn): Sequential(
    (0): Conv1d(106, 256, kernel_size=(5,), stride=(1,), padding=(2,))
    (1): ReLU()
    (2): MaxPool1d(kernel_size=8, stride=8, padding=0, dilation=1, ceil_mode=False)
  )
  (dropout): Dropout(p=0.5)
  (words_rnn): GRU(256, 128)
  (projector): Linear(in_features=128, out_features=2, bias=True)
)",charCNN,0.005,0.075,runs/May13_07-50-42_phobos-aijun_YoonKim_lr3_noise_level0.075_wordlen8_no_emoji,Mokoron binary classification,295548
74,0.8191685062545989,0.8096223588773258,"MaxWordLen 8, MaxTexLen 32",0.5,30,0.823950808906931,0.8168967805124641,,0.001,"YoonKimModel(
  (embedding): Linear(in_features=104, out_features=106, bias=True)
  (chars_cnn): Sequential(
    (0): Conv1d(106, 256, kernel_size=(5,), stride=(1,), padding=(2,))
    (1): ReLU()
    (2): MaxPool1d(kernel_size=8, stride=8, padding=0, dilation=1, ceil_mode=False)
  )
  (dropout): Dropout(p=0.5)
  (words_rnn): GRU(256, 128)
  (projector): Linear(in_features=128, out_features=2, bias=True)
)",charCNN,0.01,0.075,runs/May13_07-50-42_phobos-aijun_YoonKim_lr3_noise_level0.075_wordlen8_no_emoji,Mokoron binary classification,295548
75,0.8096333088054942,0.8096223588773258,"MaxWordLen 8, MaxTexLen 32",0.5,30,0.8151698270473016,0.8168967805124641,,0.001,"YoonKimModel(
  (embedding): Linear(in_features=104, out_features=106, bias=True)
  (chars_cnn): Sequential(
    (0): Conv1d(106, 256, kernel_size=(5,), stride=(1,), padding=(2,))
    (1): ReLU()
    (2): MaxPool1d(kernel_size=8, stride=8, padding=0, dilation=1, ceil_mode=False)
  )
  (dropout): Dropout(p=0.5)
  (words_rnn): GRU(256, 128)
  (projector): Linear(in_features=128, out_features=2, bias=True)
)",charCNN,0.025,0.075,runs/May13_07-50-42_phobos-aijun_YoonKim_lr3_noise_level0.075_wordlen8_no_emoji,Mokoron binary classification,295548
76,0.7966948736816286,0.8096223588773258,"MaxWordLen 8, MaxTexLen 32",0.5,30,0.8032519360294337,0.8168967805124641,,0.001,"YoonKimModel(
  (embedding): Linear(in_features=104, out_features=106, bias=True)
  (chars_cnn): Sequential(
    (0): Conv1d(106, 256, kernel_size=(5,), stride=(1,), padding=(2,))
    (1): ReLU()
    (2): MaxPool1d(kernel_size=8, stride=8, padding=0, dilation=1, ceil_mode=False)
  )
  (dropout): Dropout(p=0.5)
  (words_rnn): GRU(256, 128)
  (projector): Linear(in_features=128, out_features=2, bias=True)
)",charCNN,0.05,0.075,runs/May13_07-50-42_phobos-aijun_YoonKim_lr3_noise_level0.075_wordlen8_no_emoji,Mokoron binary classification,295548
77,0.7891832229580574,0.8096223588773258,"MaxWordLen 8, MaxTexLen 32",0.5,30,0.7971322357939459,0.8168967805124641,,0.001,"YoonKimModel(
  (embedding): Linear(in_features=104, out_features=106, bias=True)
  (chars_cnn): Sequential(
    (0): Conv1d(106, 256, kernel_size=(5,), stride=(1,), padding=(2,))
    (1): ReLU()
    (2): MaxPool1d(kernel_size=8, stride=8, padding=0, dilation=1, ceil_mode=False)
  )
  (dropout): Dropout(p=0.5)
  (words_rnn): GRU(256, 128)
  (projector): Linear(in_features=128, out_features=2, bias=True)
)",charCNN,0.075,0.075,runs/May13_07-50-42_phobos-aijun_YoonKim_lr3_noise_level0.075_wordlen8_no_emoji,Mokoron binary classification,295548
78,0.7747117978906058,0.8096223588773258,"MaxWordLen 8, MaxTexLen 32",0.5,30,0.7843010626431045,0.8168967805124641,,0.001,"YoonKimModel(
  (embedding): Linear(in_features=104, out_features=106, bias=True)
  (chars_cnn): Sequential(
    (0): Conv1d(106, 256, kernel_size=(5,), stride=(1,), padding=(2,))
    (1): ReLU()
    (2): MaxPool1d(kernel_size=8, stride=8, padding=0, dilation=1, ceil_mode=False)
  )
  (dropout): Dropout(p=0.5)
  (words_rnn): GRU(256, 128)
  (projector): Linear(in_features=128, out_features=2, bias=True)
)",charCNN,0.1,0.075,runs/May13_07-50-42_phobos-aijun_YoonKim_lr3_noise_level0.075_wordlen8_no_emoji,Mokoron binary classification,295548
79,0.7634596517046848,0.8096223588773258,"MaxWordLen 8, MaxTexLen 32",0.5,30,0.7742105417191022,0.8168967805124641,,0.001,"YoonKimModel(
  (embedding): Linear(in_features=104, out_features=106, bias=True)
  (chars_cnn): Sequential(
    (0): Conv1d(106, 256, kernel_size=(5,), stride=(1,), padding=(2,))
    (1): ReLU()
    (2): MaxPool1d(kernel_size=8, stride=8, padding=0, dilation=1, ceil_mode=False)
  )
  (dropout): Dropout(p=0.5)
  (words_rnn): GRU(256, 128)
  (projector): Linear(in_features=128, out_features=2, bias=True)
)",charCNN,0.125,0.075,runs/May13_07-50-42_phobos-aijun_YoonKim_lr3_noise_level0.075_wordlen8_no_emoji,Mokoron binary classification,295548
80,0.7460142261466765,0.8096223588773258,"MaxWordLen 8, MaxTexLen 32",0.5,30,0.7582160994687992,0.8168967805124641,,0.001,"YoonKimModel(
  (embedding): Linear(in_features=104, out_features=106, bias=True)
  (chars_cnn): Sequential(
    (0): Conv1d(106, 256, kernel_size=(5,), stride=(1,), padding=(2,))
    (1): ReLU()
    (2): MaxPool1d(kernel_size=8, stride=8, padding=0, dilation=1, ceil_mode=False)
  )
  (dropout): Dropout(p=0.5)
  (words_rnn): GRU(256, 128)
  (projector): Linear(in_features=128, out_features=2, bias=True)
)",charCNN,0.15,0.075,runs/May13_07-50-42_phobos-aijun_YoonKim_lr3_noise_level0.075_wordlen8_no_emoji,Mokoron binary classification,295548
81,0.7419058130978661,0.8096223588773258,"MaxWordLen 8, MaxTexLen 32",0.5,30,0.756550407773729,0.8168967805124641,,0.001,"YoonKimModel(
  (embedding): Linear(in_features=104, out_features=106, bias=True)
  (chars_cnn): Sequential(
    (0): Conv1d(106, 256, kernel_size=(5,), stride=(1,), padding=(2,))
    (1): ReLU()
    (2): MaxPool1d(kernel_size=8, stride=8, padding=0, dilation=1, ceil_mode=False)
  )
  (dropout): Dropout(p=0.5)
  (words_rnn): GRU(256, 128)
  (projector): Linear(in_features=128, out_features=2, bias=True)
)",charCNN,0.175,0.075,runs/May13_07-50-42_phobos-aijun_YoonKim_lr3_noise_level0.075_wordlen8_no_emoji,Mokoron binary classification,295548
82,0.7250122639195486,0.8096223588773258,"MaxWordLen 8, MaxTexLen 32",0.5,30,0.7420551609099538,0.8168967805124641,,0.001,"YoonKimModel(
  (embedding): Linear(in_features=104, out_features=106, bias=True)
  (chars_cnn): Sequential(
    (0): Conv1d(106, 256, kernel_size=(5,), stride=(1,), padding=(2,))
    (1): ReLU()
    (2): MaxPool1d(kernel_size=8, stride=8, padding=0, dilation=1, ceil_mode=False)
  )
  (dropout): Dropout(p=0.5)
  (words_rnn): GRU(256, 128)
  (projector): Linear(in_features=128, out_features=2, bias=True)
)",charCNN,0.2,0.075,runs/May13_07-50-42_phobos-aijun_YoonKim_lr3_noise_level0.075_wordlen8_no_emoji,Mokoron binary classification,295548
83,0.7853200883002207,0.8096223588773258,"MaxWordLen 8, MaxTexLen 32",0.5,30,0.7938041109605984,0.8168967805124641,,0.001,"YoonKimModel(
  (embedding): Linear(in_features=104, out_features=106, bias=True)
  (chars_cnn): Sequential(
    (0): Conv1d(106, 256, kernel_size=(5,), stride=(1,), padding=(2,))
    (1): ReLU()
    (2): MaxPool1d(kernel_size=8, stride=8, padding=0, dilation=1, ceil_mode=False)
  )
  (dropout): Dropout(p=0.5)
  (words_rnn): GRU(256, 128)
  (projector): Linear(in_features=128, out_features=2, bias=True)
)",charCNN,-1.0,0.075,runs/May13_07-50-42_phobos-aijun_YoonKim_lr3_noise_level0.075_wordlen8_no_emoji,Mokoron binary classification,295548
84,0.8191685062545989,0.7915943971407547,"MaxWordLen 8, MaxTexLen 32",0.5,30,0.8189798048001964,0.7944026392372657,,0.001,"YoonKimModel(
  (embedding): Linear(in_features=104, out_features=106, bias=True)
  (chars_cnn): Sequential(
    (0): Conv1d(106, 256, kernel_size=(5,), stride=(1,), padding=(2,))
    (1): ReLU()
    (2): MaxPool1d(kernel_size=8, stride=8, padding=0, dilation=1, ceil_mode=False)
  )
  (dropout): Dropout(p=0.5)
  (words_rnn): GRU(256, 128)
  (projector): Linear(in_features=128, out_features=2, bias=True)
)",charCNN,0.0,0.1,runs/May13_09-05-54_phobos-aijun_YoonKim_lr3_noise_level0.1_wordlen8_no_emoji,Mokoron binary classification,295548
85,0.8178194751042434,0.7915943971407547,"MaxWordLen 8, MaxTexLen 32",0.5,30,0.8177747791952895,0.7944026392372657,,0.001,"YoonKimModel(
  (embedding): Linear(in_features=104, out_features=106, bias=True)
  (chars_cnn): Sequential(
    (0): Conv1d(106, 256, kernel_size=(5,), stride=(1,), padding=(2,))
    (1): ReLU()
    (2): MaxPool1d(kernel_size=8, stride=8, padding=0, dilation=1, ceil_mode=False)
  )
  (dropout): Dropout(p=0.5)
  (words_rnn): GRU(256, 128)
  (projector): Linear(in_features=128, out_features=2, bias=True)
)",charCNN,0.005,0.1,runs/May13_09-05-54_phobos-aijun_YoonKim_lr3_noise_level0.1_wordlen8_no_emoji,Mokoron binary classification,295548
86,0.8150907530046603,0.7915943971407547,"MaxWordLen 8, MaxTexLen 32",0.5,30,0.8153794349037254,0.7944026392372657,,0.001,"YoonKimModel(
  (embedding): Linear(in_features=104, out_features=106, bias=True)
  (chars_cnn): Sequential(
    (0): Conv1d(106, 256, kernel_size=(5,), stride=(1,), padding=(2,))
    (1): ReLU()
    (2): MaxPool1d(kernel_size=8, stride=8, padding=0, dilation=1, ceil_mode=False)
  )
  (dropout): Dropout(p=0.5)
  (words_rnn): GRU(256, 128)
  (projector): Linear(in_features=128, out_features=2, bias=True)
)",charCNN,0.01,0.1,runs/May13_09-05-54_phobos-aijun_YoonKim_lr3_noise_level0.1_wordlen8_no_emoji,Mokoron binary classification,295548
87,0.8097252882021094,0.7915943971407547,"MaxWordLen 8, MaxTexLen 32",0.5,30,0.8103880232202871,0.7944026392372657,,0.001,"YoonKimModel(
  (embedding): Linear(in_features=104, out_features=106, bias=True)
  (chars_cnn): Sequential(
    (0): Conv1d(106, 256, kernel_size=(5,), stride=(1,), padding=(2,))
    (1): ReLU()
    (2): MaxPool1d(kernel_size=8, stride=8, padding=0, dilation=1, ceil_mode=False)
  )
  (dropout): Dropout(p=0.5)
  (words_rnn): GRU(256, 128)
  (projector): Linear(in_features=128, out_features=2, bias=True)
)",charCNN,0.025,0.1,runs/May13_09-05-54_phobos-aijun_YoonKim_lr3_noise_level0.1_wordlen8_no_emoji,Mokoron binary classification,295548
88,0.7988410596026491,0.7915943971407547,"MaxWordLen 8, MaxTexLen 32",0.5,30,0.80012185833968,0.7944026392372657,,0.001,"YoonKimModel(
  (embedding): Linear(in_features=104, out_features=106, bias=True)
  (chars_cnn): Sequential(
    (0): Conv1d(106, 256, kernel_size=(5,), stride=(1,), padding=(2,))
    (1): ReLU()
    (2): MaxPool1d(kernel_size=8, stride=8, padding=0, dilation=1, ceil_mode=False)
  )
  (dropout): Dropout(p=0.5)
  (words_rnn): GRU(256, 128)
  (projector): Linear(in_features=128, out_features=2, bias=True)
)",charCNN,0.05,0.1,runs/May13_09-05-54_phobos-aijun_YoonKim_lr3_noise_level0.1_wordlen8_no_emoji,Mokoron binary classification,295548
89,0.7883247485896493,0.7915943971407547,"MaxWordLen 8, MaxTexLen 32",0.5,30,0.7906229150239583,0.7944026392372657,,0.001,"YoonKimModel(
  (embedding): Linear(in_features=104, out_features=106, bias=True)
  (chars_cnn): Sequential(
    (0): Conv1d(106, 256, kernel_size=(5,), stride=(1,), padding=(2,))
    (1): ReLU()
    (2): MaxPool1d(kernel_size=8, stride=8, padding=0, dilation=1, ceil_mode=False)
  )
  (dropout): Dropout(p=0.5)
  (words_rnn): GRU(256, 128)
  (projector): Linear(in_features=128, out_features=2, bias=True)
)",charCNN,0.075,0.1,runs/May13_09-05-54_phobos-aijun_YoonKim_lr3_noise_level0.1_wordlen8_no_emoji,Mokoron binary classification,295548
90,0.7784216335540839,0.7915943971407547,"MaxWordLen 8, MaxTexLen 32",0.5,30,0.7809269756585528,0.7944026392372657,,0.001,"YoonKimModel(
  (embedding): Linear(in_features=104, out_features=106, bias=True)
  (chars_cnn): Sequential(
    (0): Conv1d(106, 256, kernel_size=(5,), stride=(1,), padding=(2,))
    (1): ReLU()
    (2): MaxPool1d(kernel_size=8, stride=8, padding=0, dilation=1, ceil_mode=False)
  )
  (dropout): Dropout(p=0.5)
  (words_rnn): GRU(256, 128)
  (projector): Linear(in_features=128, out_features=2, bias=True)
)",charCNN,0.1,0.1,runs/May13_09-05-54_phobos-aijun_YoonKim_lr3_noise_level0.1_wordlen8_no_emoji,Mokoron binary classification,295548
91,0.7678133431444689,0.7915943971407547,"MaxWordLen 8, MaxTexLen 32",0.5,30,0.7717119344044856,0.7944026392372657,,0.001,"YoonKimModel(
  (embedding): Linear(in_features=104, out_features=106, bias=True)
  (chars_cnn): Sequential(
    (0): Conv1d(106, 256, kernel_size=(5,), stride=(1,), padding=(2,))
    (1): ReLU()
    (2): MaxPool1d(kernel_size=8, stride=8, padding=0, dilation=1, ceil_mode=False)
  )
  (dropout): Dropout(p=0.5)
  (words_rnn): GRU(256, 128)
  (projector): Linear(in_features=128, out_features=2, bias=True)
)",charCNN,0.125,0.1,runs/May13_09-05-54_phobos-aijun_YoonKim_lr3_noise_level0.1_wordlen8_no_emoji,Mokoron binary classification,295548
92,0.7568064753495217,0.7915943971407547,"MaxWordLen 8, MaxTexLen 32",0.5,30,0.7609259147627946,0.7944026392372657,,0.001,"YoonKimModel(
  (embedding): Linear(in_features=104, out_features=106, bias=True)
  (chars_cnn): Sequential(
    (0): Conv1d(106, 256, kernel_size=(5,), stride=(1,), padding=(2,))
    (1): ReLU()
    (2): MaxPool1d(kernel_size=8, stride=8, padding=0, dilation=1, ceil_mode=False)
  )
  (dropout): Dropout(p=0.5)
  (words_rnn): GRU(256, 128)
  (projector): Linear(in_features=128, out_features=2, bias=True)
)",charCNN,0.15,0.1,runs/May13_09-05-54_phobos-aijun_YoonKim_lr3_noise_level0.1_wordlen8_no_emoji,Mokoron binary classification,295548
93,0.7438373804267844,0.7915943971407547,"MaxWordLen 8, MaxTexLen 32",0.5,30,0.7488502119217242,0.7944026392372657,,0.001,"YoonKimModel(
  (embedding): Linear(in_features=104, out_features=106, bias=True)
  (chars_cnn): Sequential(
    (0): Conv1d(106, 256, kernel_size=(5,), stride=(1,), padding=(2,))
    (1): ReLU()
    (2): MaxPool1d(kernel_size=8, stride=8, padding=0, dilation=1, ceil_mode=False)
  )
  (dropout): Dropout(p=0.5)
  (words_rnn): GRU(256, 128)
  (projector): Linear(in_features=128, out_features=2, bias=True)
)",charCNN,0.175,0.1,runs/May13_09-05-54_phobos-aijun_YoonKim_lr3_noise_level0.1_wordlen8_no_emoji,Mokoron binary classification,295548
94,0.7331984302182978,0.7915943971407547,"MaxWordLen 8, MaxTexLen 32",0.5,30,0.7382069795427196,0.7944026392372657,,0.001,"YoonKimModel(
  (embedding): Linear(in_features=104, out_features=106, bias=True)
  (chars_cnn): Sequential(
    (0): Conv1d(106, 256, kernel_size=(5,), stride=(1,), padding=(2,))
    (1): ReLU()
    (2): MaxPool1d(kernel_size=8, stride=8, padding=0, dilation=1, ceil_mode=False)
  )
  (dropout): Dropout(p=0.5)
  (words_rnn): GRU(256, 128)
  (projector): Linear(in_features=128, out_features=2, bias=True)
)",charCNN,0.2,0.1,runs/May13_09-05-54_phobos-aijun_YoonKim_lr3_noise_level0.1_wordlen8_no_emoji,Mokoron binary classification,295548
95,0.7786362521461859,0.7915943971407547,"MaxWordLen 8, MaxTexLen 32",0.5,30,0.7811855982543339,0.7944026392372657,,0.001,"YoonKimModel(
  (embedding): Linear(in_features=104, out_features=106, bias=True)
  (chars_cnn): Sequential(
    (0): Conv1d(106, 256, kernel_size=(5,), stride=(1,), padding=(2,))
    (1): ReLU()
    (2): MaxPool1d(kernel_size=8, stride=8, padding=0, dilation=1, ceil_mode=False)
  )
  (dropout): Dropout(p=0.5)
  (words_rnn): GRU(256, 128)
  (projector): Linear(in_features=128, out_features=2, bias=True)
)",charCNN,-1.0,0.1,runs/May13_09-05-54_phobos-aijun_YoonKim_lr3_noise_level0.1_wordlen8_no_emoji,Mokoron binary classification,295548
96,0.8161638459651704,0.7783362241143698,"MaxWordLen 8, MaxTexLen 32",0.5,30,0.8158929010071236,0.7810137016531554,,0.001,"YoonKimModel(
  (embedding): Linear(in_features=104, out_features=106, bias=True)
  (chars_cnn): Sequential(
    (0): Conv1d(106, 256, kernel_size=(5,), stride=(1,), padding=(2,))
    (1): ReLU()
    (2): MaxPool1d(kernel_size=8, stride=8, padding=0, dilation=1, ceil_mode=False)
  )
  (dropout): Dropout(p=0.5)
  (words_rnn): GRU(256, 128)
  (projector): Linear(in_features=128, out_features=2, bias=True)
)",charCNN,0.0,0.125,runs/May13_10-21-03_phobos-aijun_YoonKim_lr3_noise_level0.125_wordlen8_no_emoji,Mokoron binary classification,295548
97,0.8152440519990188,0.7783362241143698,"MaxWordLen 8, MaxTexLen 32",0.5,30,0.8150853074751443,0.7810137016531554,,0.001,"YoonKimModel(
  (embedding): Linear(in_features=104, out_features=106, bias=True)
  (chars_cnn): Sequential(
    (0): Conv1d(106, 256, kernel_size=(5,), stride=(1,), padding=(2,))
    (1): ReLU()
    (2): MaxPool1d(kernel_size=8, stride=8, padding=0, dilation=1, ceil_mode=False)
  )
  (dropout): Dropout(p=0.5)
  (words_rnn): GRU(256, 128)
  (projector): Linear(in_features=128, out_features=2, bias=True)
)",charCNN,0.005,0.125,runs/May13_10-21-03_phobos-aijun_YoonKim_lr3_noise_level0.125_wordlen8_no_emoji,Mokoron binary classification,295548
98,0.8146615158204562,0.7783362241143698,"MaxWordLen 8, MaxTexLen 32",0.5,30,0.8149508678482872,0.7810137016531554,,0.001,"YoonKimModel(
  (embedding): Linear(in_features=104, out_features=106, bias=True)
  (chars_cnn): Sequential(
    (0): Conv1d(106, 256, kernel_size=(5,), stride=(1,), padding=(2,))
    (1): ReLU()
    (2): MaxPool1d(kernel_size=8, stride=8, padding=0, dilation=1, ceil_mode=False)
  )
  (dropout): Dropout(p=0.5)
  (words_rnn): GRU(256, 128)
  (projector): Linear(in_features=128, out_features=2, bias=True)
)",charCNN,0.01,0.125,runs/May13_10-21-03_phobos-aijun_YoonKim_lr3_noise_level0.125_wordlen8_no_emoji,Mokoron binary classification,295548
99,0.8080083394652932,0.7783362241143698,"MaxWordLen 8, MaxTexLen 32",0.5,30,0.8085015290519878,0.7810137016531554,,0.001,"YoonKimModel(
  (embedding): Linear(in_features=104, out_features=106, bias=True)
  (chars_cnn): Sequential(
    (0): Conv1d(106, 256, kernel_size=(5,), stride=(1,), padding=(2,))
    (1): ReLU()
    (2): MaxPool1d(kernel_size=8, stride=8, padding=0, dilation=1, ceil_mode=False)
  )
  (dropout): Dropout(p=0.5)
  (words_rnn): GRU(256, 128)
  (projector): Linear(in_features=128, out_features=2, bias=True)
)",charCNN,0.025,0.125,runs/May13_10-21-03_phobos-aijun_YoonKim_lr3_noise_level0.125_wordlen8_no_emoji,Mokoron binary classification,295548
100,0.7980439048319843,0.7783362241143698,"MaxWordLen 8, MaxTexLen 32",0.5,30,0.7986673594767247,0.7810137016531554,,0.001,"YoonKimModel(
  (embedding): Linear(in_features=104, out_features=106, bias=True)
  (chars_cnn): Sequential(
    (0): Conv1d(106, 256, kernel_size=(5,), stride=(1,), padding=(2,))
    (1): ReLU()
    (2): MaxPool1d(kernel_size=8, stride=8, padding=0, dilation=1, ceil_mode=False)
  )
  (dropout): Dropout(p=0.5)
  (words_rnn): GRU(256, 128)
  (projector): Linear(in_features=128, out_features=2, bias=True)
)",charCNN,0.05,0.125,runs/May13_10-21-03_phobos-aijun_YoonKim_lr3_noise_level0.125_wordlen8_no_emoji,Mokoron binary classification,295548
101,0.7888459651704685,0.7783362241143698,"MaxWordLen 8, MaxTexLen 32",0.5,30,0.7898703279938978,0.7810137016531554,,0.001,"YoonKimModel(
  (embedding): Linear(in_features=104, out_features=106, bias=True)
  (chars_cnn): Sequential(
    (0): Conv1d(106, 256, kernel_size=(5,), stride=(1,), padding=(2,))
    (1): ReLU()
    (2): MaxPool1d(kernel_size=8, stride=8, padding=0, dilation=1, ceil_mode=False)
  )
  (dropout): Dropout(p=0.5)
  (words_rnn): GRU(256, 128)
  (projector): Linear(in_features=128, out_features=2, bias=True)
)",charCNN,0.075,0.125,runs/May13_10-21-03_phobos-aijun_YoonKim_lr3_noise_level0.125_wordlen8_no_emoji,Mokoron binary classification,295548
102,0.7763980868285504,0.7783362241143698,"MaxWordLen 8, MaxTexLen 32",0.5,30,0.7783754216428117,0.7810137016531554,,0.001,"YoonKimModel(
  (embedding): Linear(in_features=104, out_features=106, bias=True)
  (chars_cnn): Sequential(
    (0): Conv1d(106, 256, kernel_size=(5,), stride=(1,), padding=(2,))
    (1): ReLU()
    (2): MaxPool1d(kernel_size=8, stride=8, padding=0, dilation=1, ceil_mode=False)
  )
  (dropout): Dropout(p=0.5)
  (words_rnn): GRU(256, 128)
  (projector): Linear(in_features=128, out_features=2, bias=True)
)",charCNN,0.1,0.125,runs/May13_10-21-03_phobos-aijun_YoonKim_lr3_noise_level0.125_wordlen8_no_emoji,Mokoron binary classification,295548
103,0.7663723325974982,0.7783362241143698,"MaxWordLen 8, MaxTexLen 32",0.5,30,0.7698302422521598,0.7810137016531554,,0.001,"YoonKimModel(
  (embedding): Linear(in_features=104, out_features=106, bias=True)
  (chars_cnn): Sequential(
    (0): Conv1d(106, 256, kernel_size=(5,), stride=(1,), padding=(2,))
    (1): ReLU()
    (2): MaxPool1d(kernel_size=8, stride=8, padding=0, dilation=1, ceil_mode=False)
  )
  (dropout): Dropout(p=0.5)
  (words_rnn): GRU(256, 128)
  (projector): Linear(in_features=128, out_features=2, bias=True)
)",charCNN,0.125,0.125,runs/May13_10-21-03_phobos-aijun_YoonKim_lr3_noise_level0.125_wordlen8_no_emoji,Mokoron binary classification,295548
104,0.7555187637969095,0.7783362241143698,"MaxWordLen 8, MaxTexLen 32",0.5,30,0.7593263310394784,0.7810137016531554,,0.001,"YoonKimModel(
  (embedding): Linear(in_features=104, out_features=106, bias=True)
  (chars_cnn): Sequential(
    (0): Conv1d(106, 256, kernel_size=(5,), stride=(1,), padding=(2,))
    (1): ReLU()
    (2): MaxPool1d(kernel_size=8, stride=8, padding=0, dilation=1, ceil_mode=False)
  )
  (dropout): Dropout(p=0.5)
  (words_rnn): GRU(256, 128)
  (projector): Linear(in_features=128, out_features=2, bias=True)
)",charCNN,0.15,0.125,runs/May13_10-21-03_phobos-aijun_YoonKim_lr3_noise_level0.125_wordlen8_no_emoji,Mokoron binary classification,295548
105,0.7457382879568311,0.7783362241143698,"MaxWordLen 8, MaxTexLen 32",0.5,30,0.7496603978627705,0.7810137016531554,,0.001,"YoonKimModel(
  (embedding): Linear(in_features=104, out_features=106, bias=True)
  (chars_cnn): Sequential(
    (0): Conv1d(106, 256, kernel_size=(5,), stride=(1,), padding=(2,))
    (1): ReLU()
    (2): MaxPool1d(kernel_size=8, stride=8, padding=0, dilation=1, ceil_mode=False)
  )
  (dropout): Dropout(p=0.5)
  (words_rnn): GRU(256, 128)
  (projector): Linear(in_features=128, out_features=2, bias=True)
)",charCNN,0.175,0.125,runs/May13_10-21-03_phobos-aijun_YoonKim_lr3_noise_level0.125_wordlen8_no_emoji,Mokoron binary classification,295548
106,0.7374294824625951,0.7783362241143698,"MaxWordLen 8, MaxTexLen 32",0.5,30,0.7425754478778405,0.7810137016531554,,0.001,"YoonKimModel(
  (embedding): Linear(in_features=104, out_features=106, bias=True)
  (chars_cnn): Sequential(
    (0): Conv1d(106, 256, kernel_size=(5,), stride=(1,), padding=(2,))
    (1): ReLU()
    (2): MaxPool1d(kernel_size=8, stride=8, padding=0, dilation=1, ceil_mode=False)
  )
  (dropout): Dropout(p=0.5)
  (words_rnn): GRU(256, 128)
  (projector): Linear(in_features=128, out_features=2, bias=True)
)",charCNN,0.2,0.125,runs/May13_10-21-03_phobos-aijun_YoonKim_lr3_noise_level0.125_wordlen8_no_emoji,Mokoron binary classification,295548
107,0.7664029923963699,0.7783362241143698,"MaxWordLen 8, MaxTexLen 32",0.5,30,0.7692261093442375,0.7810137016531554,,0.001,"YoonKimModel(
  (embedding): Linear(in_features=104, out_features=106, bias=True)
  (chars_cnn): Sequential(
    (0): Conv1d(106, 256, kernel_size=(5,), stride=(1,), padding=(2,))
    (1): ReLU()
    (2): MaxPool1d(kernel_size=8, stride=8, padding=0, dilation=1, ceil_mode=False)
  )
  (dropout): Dropout(p=0.5)
  (words_rnn): GRU(256, 128)
  (projector): Linear(in_features=128, out_features=2, bias=True)
)",charCNN,-1.0,0.125,runs/May13_10-21-03_phobos-aijun_YoonKim_lr3_noise_level0.125_wordlen8_no_emoji,Mokoron binary classification,295548
108,0.8092347314201619,0.7633895721644066,"MaxWordLen 8, MaxTexLen 32",0.5,30,0.8035860849801123,0.7603986481092156,,0.001,"YoonKimModel(
  (embedding): Linear(in_features=104, out_features=106, bias=True)
  (chars_cnn): Sequential(
    (0): Conv1d(106, 256, kernel_size=(5,), stride=(1,), padding=(2,))
    (1): ReLU()
    (2): MaxPool1d(kernel_size=8, stride=8, padding=0, dilation=1, ceil_mode=False)
  )
  (dropout): Dropout(p=0.5)
  (words_rnn): GRU(256, 128)
  (projector): Linear(in_features=128, out_features=2, bias=True)
)",charCNN,0.0,0.15,runs/May13_11-36-02_phobos-aijun_YoonKim_lr3_noise_level0.15_wordlen8_no_emoji,Mokoron binary classification,295548
109,0.80813097866078,0.7633895721644066,"MaxWordLen 8, MaxTexLen 32",0.5,30,0.8026365585971995,0.7603986481092156,,0.001,"YoonKimModel(
  (embedding): Linear(in_features=104, out_features=106, bias=True)
  (chars_cnn): Sequential(
    (0): Conv1d(106, 256, kernel_size=(5,), stride=(1,), padding=(2,))
    (1): ReLU()
    (2): MaxPool1d(kernel_size=8, stride=8, padding=0, dilation=1, ceil_mode=False)
  )
  (dropout): Dropout(p=0.5)
  (words_rnn): GRU(256, 128)
  (projector): Linear(in_features=128, out_features=2, bias=True)
)",charCNN,0.005,0.15,runs/May13_11-36-02_phobos-aijun_YoonKim_lr3_noise_level0.15_wordlen8_no_emoji,Mokoron binary classification,295548
110,0.8037159676232524,0.7633895721644066,"MaxWordLen 8, MaxTexLen 32",0.5,30,0.797776233495483,0.7603986481092156,,0.001,"YoonKimModel(
  (embedding): Linear(in_features=104, out_features=106, bias=True)
  (chars_cnn): Sequential(
    (0): Conv1d(106, 256, kernel_size=(5,), stride=(1,), padding=(2,))
    (1): ReLU()
    (2): MaxPool1d(kernel_size=8, stride=8, padding=0, dilation=1, ceil_mode=False)
  )
  (dropout): Dropout(p=0.5)
  (words_rnn): GRU(256, 128)
  (projector): Linear(in_features=128, out_features=2, bias=True)
)",charCNN,0.01,0.15,runs/May13_11-36-02_phobos-aijun_YoonKim_lr3_noise_level0.15_wordlen8_no_emoji,Mokoron binary classification,295548
111,0.7989943585970076,0.7633895721644066,"MaxWordLen 8, MaxTexLen 32",0.5,30,0.7933686333837621,0.7603986481092156,,0.001,"YoonKimModel(
  (embedding): Linear(in_features=104, out_features=106, bias=True)
  (chars_cnn): Sequential(
    (0): Conv1d(106, 256, kernel_size=(5,), stride=(1,), padding=(2,))
    (1): ReLU()
    (2): MaxPool1d(kernel_size=8, stride=8, padding=0, dilation=1, ceil_mode=False)
  )
  (dropout): Dropout(p=0.5)
  (words_rnn): GRU(256, 128)
  (projector): Linear(in_features=128, out_features=2, bias=True)
)",charCNN,0.025,0.15,runs/May13_11-36-02_phobos-aijun_YoonKim_lr3_noise_level0.15_wordlen8_no_emoji,Mokoron binary classification,295548
112,0.7934755948000981,0.7633895721644066,"MaxWordLen 8, MaxTexLen 32",0.5,30,0.7879894246506358,0.7603986481092156,,0.001,"YoonKimModel(
  (embedding): Linear(in_features=104, out_features=106, bias=True)
  (chars_cnn): Sequential(
    (0): Conv1d(106, 256, kernel_size=(5,), stride=(1,), padding=(2,))
    (1): ReLU()
    (2): MaxPool1d(kernel_size=8, stride=8, padding=0, dilation=1, ceil_mode=False)
  )
  (dropout): Dropout(p=0.5)
  (words_rnn): GRU(256, 128)
  (projector): Linear(in_features=128, out_features=2, bias=True)
)",charCNN,0.05,0.15,runs/May13_11-36-02_phobos-aijun_YoonKim_lr3_noise_level0.15_wordlen8_no_emoji,Mokoron binary classification,295548
113,0.7821008094186902,0.7633895721644066,"MaxWordLen 8, MaxTexLen 32",0.5,30,0.7779686963041643,0.7603986481092156,,0.001,"YoonKimModel(
  (embedding): Linear(in_features=104, out_features=106, bias=True)
  (chars_cnn): Sequential(
    (0): Conv1d(106, 256, kernel_size=(5,), stride=(1,), padding=(2,))
    (1): ReLU()
    (2): MaxPool1d(kernel_size=8, stride=8, padding=0, dilation=1, ceil_mode=False)
  )
  (dropout): Dropout(p=0.5)
  (words_rnn): GRU(256, 128)
  (projector): Linear(in_features=128, out_features=2, bias=True)
)",charCNN,0.075,0.15,runs/May13_11-36-02_phobos-aijun_YoonKim_lr3_noise_level0.15_wordlen8_no_emoji,Mokoron binary classification,295548
114,0.7745891586951189,0.7633895721644066,"MaxWordLen 8, MaxTexLen 32",0.5,30,0.7698904538341157,0.7603986481092156,,0.001,"YoonKimModel(
  (embedding): Linear(in_features=104, out_features=106, bias=True)
  (chars_cnn): Sequential(
    (0): Conv1d(106, 256, kernel_size=(5,), stride=(1,), padding=(2,))
    (1): ReLU()
    (2): MaxPool1d(kernel_size=8, stride=8, padding=0, dilation=1, ceil_mode=False)
  )
  (dropout): Dropout(p=0.5)
  (words_rnn): GRU(256, 128)
  (projector): Linear(in_features=128, out_features=2, bias=True)
)",charCNN,0.1,0.15,runs/May13_11-36-02_phobos-aijun_YoonKim_lr3_noise_level0.15_wordlen8_no_emoji,Mokoron binary classification,295548
115,0.7672001471670346,0.7633895721644066,"MaxWordLen 8, MaxTexLen 32",0.5,30,0.7630667457172278,0.7603986481092156,,0.001,"YoonKimModel(
  (embedding): Linear(in_features=104, out_features=106, bias=True)
  (chars_cnn): Sequential(
    (0): Conv1d(106, 256, kernel_size=(5,), stride=(1,), padding=(2,))
    (1): ReLU()
    (2): MaxPool1d(kernel_size=8, stride=8, padding=0, dilation=1, ceil_mode=False)
  )
  (dropout): Dropout(p=0.5)
  (words_rnn): GRU(256, 128)
  (projector): Linear(in_features=128, out_features=2, bias=True)
)",charCNN,0.125,0.15,runs/May13_11-36-02_phobos-aijun_YoonKim_lr3_noise_level0.15_wordlen8_no_emoji,Mokoron binary classification,295548
116,0.7533725778758892,0.7633895721644066,"MaxWordLen 8, MaxTexLen 32",0.5,30,0.7493143854400399,0.7603986481092156,,0.001,"YoonKimModel(
  (embedding): Linear(in_features=104, out_features=106, bias=True)
  (chars_cnn): Sequential(
    (0): Conv1d(106, 256, kernel_size=(5,), stride=(1,), padding=(2,))
    (1): ReLU()
    (2): MaxPool1d(kernel_size=8, stride=8, padding=0, dilation=1, ceil_mode=False)
  )
  (dropout): Dropout(p=0.5)
  (words_rnn): GRU(256, 128)
  (projector): Linear(in_features=128, out_features=2, bias=True)
)",charCNN,0.15,0.15,runs/May13_11-36-02_phobos-aijun_YoonKim_lr3_noise_level0.15_wordlen8_no_emoji,Mokoron binary classification,295548
117,0.7489269070394898,0.7633895721644066,"MaxWordLen 8, MaxTexLen 32",0.5,30,0.7451846780968976,0.7603986481092156,,0.001,"YoonKimModel(
  (embedding): Linear(in_features=104, out_features=106, bias=True)
  (chars_cnn): Sequential(
    (0): Conv1d(106, 256, kernel_size=(5,), stride=(1,), padding=(2,))
    (1): ReLU()
    (2): MaxPool1d(kernel_size=8, stride=8, padding=0, dilation=1, ceil_mode=False)
  )
  (dropout): Dropout(p=0.5)
  (words_rnn): GRU(256, 128)
  (projector): Linear(in_features=128, out_features=2, bias=True)
)",charCNN,0.175,0.15,runs/May13_11-36-02_phobos-aijun_YoonKim_lr3_noise_level0.15_wordlen8_no_emoji,Mokoron binary classification,295548
118,0.7396983075791023,0.7633895721644066,"MaxWordLen 8, MaxTexLen 32",0.5,30,0.7377525174522765,0.7603986481092156,,0.001,"YoonKimModel(
  (embedding): Linear(in_features=104, out_features=106, bias=True)
  (chars_cnn): Sequential(
    (0): Conv1d(106, 256, kernel_size=(5,), stride=(1,), padding=(2,))
    (1): ReLU()
    (2): MaxPool1d(kernel_size=8, stride=8, padding=0, dilation=1, ceil_mode=False)
  )
  (dropout): Dropout(p=0.5)
  (words_rnn): GRU(256, 128)
  (projector): Linear(in_features=128, out_features=2, bias=True)
)",charCNN,0.2,0.15,runs/May13_11-36-02_phobos-aijun_YoonKim_lr3_noise_level0.15_wordlen8_no_emoji,Mokoron binary classification,295548
119,0.7555187637969095,0.7633895721644066,"MaxWordLen 8, MaxTexLen 32",0.5,30,0.752083074244497,0.7603986481092156,,0.001,"YoonKimModel(
  (embedding): Linear(in_features=104, out_features=106, bias=True)
  (chars_cnn): Sequential(
    (0): Conv1d(106, 256, kernel_size=(5,), stride=(1,), padding=(2,))
    (1): ReLU()
    (2): MaxPool1d(kernel_size=8, stride=8, padding=0, dilation=1, ceil_mode=False)
  )
  (dropout): Dropout(p=0.5)
  (words_rnn): GRU(256, 128)
  (projector): Linear(in_features=128, out_features=2, bias=True)
)",charCNN,-1.0,0.15,runs/May13_11-36-02_phobos-aijun_YoonKim_lr3_noise_level0.15_wordlen8_no_emoji,Mokoron binary classification,295548
120,0.8056168751532989,0.7533638179333544,"MaxWordLen 8, MaxTexLen 32",0.5,30,0.8027993779160187,0.7511567169125933,,0.001,"YoonKimModel(
  (embedding): Linear(in_features=104, out_features=106, bias=True)
  (chars_cnn): Sequential(
    (0): Conv1d(106, 256, kernel_size=(5,), stride=(1,), padding=(2,))
    (1): ReLU()
    (2): MaxPool1d(kernel_size=8, stride=8, padding=0, dilation=1, ceil_mode=False)
  )
  (dropout): Dropout(p=0.5)
  (words_rnn): GRU(256, 128)
  (projector): Linear(in_features=128, out_features=2, bias=True)
)",charCNN,0.0,0.175,runs/May13_12-51-31_phobos-aijun_YoonKim_lr3_noise_level0.175_wordlen8_no_emoji,Mokoron binary classification,295548
121,0.8046970811871474,0.7533638179333544,"MaxWordLen 8, MaxTexLen 32",0.5,30,0.8019648075607784,0.7511567169125933,,0.001,"YoonKimModel(
  (embedding): Linear(in_features=104, out_features=106, bias=True)
  (chars_cnn): Sequential(
    (0): Conv1d(106, 256, kernel_size=(5,), stride=(1,), padding=(2,))
    (1): ReLU()
    (2): MaxPool1d(kernel_size=8, stride=8, padding=0, dilation=1, ceil_mode=False)
  )
  (dropout): Dropout(p=0.5)
  (words_rnn): GRU(256, 128)
  (projector): Linear(in_features=128, out_features=2, bias=True)
)",charCNN,0.005,0.175,runs/May13_12-51-31_phobos-aijun_YoonKim_lr3_noise_level0.175_wordlen8_no_emoji,Mokoron binary classification,295548
122,0.8029801324503312,0.7533638179333544,"MaxWordLen 8, MaxTexLen 32",0.5,30,0.7999750980514225,0.7511567169125933,,0.001,"YoonKimModel(
  (embedding): Linear(in_features=104, out_features=106, bias=True)
  (chars_cnn): Sequential(
    (0): Conv1d(106, 256, kernel_size=(5,), stride=(1,), padding=(2,))
    (1): ReLU()
    (2): MaxPool1d(kernel_size=8, stride=8, padding=0, dilation=1, ceil_mode=False)
  )
  (dropout): Dropout(p=0.5)
  (words_rnn): GRU(256, 128)
  (projector): Linear(in_features=128, out_features=2, bias=True)
)",charCNN,0.01,0.175,runs/May13_12-51-31_phobos-aijun_YoonKim_lr3_noise_level0.175_wordlen8_no_emoji,Mokoron binary classification,295548
123,0.7988717194015207,0.7533638179333544,"MaxWordLen 8, MaxTexLen 32",0.5,30,0.796690014256493,0.7511567169125933,,0.001,"YoonKimModel(
  (embedding): Linear(in_features=104, out_features=106, bias=True)
  (chars_cnn): Sequential(
    (0): Conv1d(106, 256, kernel_size=(5,), stride=(1,), padding=(2,))
    (1): ReLU()
    (2): MaxPool1d(kernel_size=8, stride=8, padding=0, dilation=1, ceil_mode=False)
  )
  (dropout): Dropout(p=0.5)
  (words_rnn): GRU(256, 128)
  (projector): Linear(in_features=128, out_features=2, bias=True)
)",charCNN,0.025,0.175,runs/May13_12-51-31_phobos-aijun_YoonKim_lr3_noise_level0.175_wordlen8_no_emoji,Mokoron binary classification,295548
124,0.7899190581309786,0.7533638179333544,"MaxWordLen 8, MaxTexLen 32",0.5,30,0.7867413632119515,0.7511567169125933,,0.001,"YoonKimModel(
  (embedding): Linear(in_features=104, out_features=106, bias=True)
  (chars_cnn): Sequential(
    (0): Conv1d(106, 256, kernel_size=(5,), stride=(1,), padding=(2,))
    (1): ReLU()
    (2): MaxPool1d(kernel_size=8, stride=8, padding=0, dilation=1, ceil_mode=False)
  )
  (dropout): Dropout(p=0.5)
  (words_rnn): GRU(256, 128)
  (projector): Linear(in_features=128, out_features=2, bias=True)
)",charCNN,0.05,0.175,runs/May13_12-51-31_phobos-aijun_YoonKim_lr3_noise_level0.175_wordlen8_no_emoji,Mokoron binary classification,295548
125,0.7796786853078244,0.7533638179333544,"MaxWordLen 8, MaxTexLen 32",0.5,30,0.7763739341507437,0.7511567169125933,,0.001,"YoonKimModel(
  (embedding): Linear(in_features=104, out_features=106, bias=True)
  (chars_cnn): Sequential(
    (0): Conv1d(106, 256, kernel_size=(5,), stride=(1,), padding=(2,))
    (1): ReLU()
    (2): MaxPool1d(kernel_size=8, stride=8, padding=0, dilation=1, ceil_mode=False)
  )
  (dropout): Dropout(p=0.5)
  (words_rnn): GRU(256, 128)
  (projector): Linear(in_features=128, out_features=2, bias=True)
)",charCNN,0.075,0.175,runs/May13_12-51-31_phobos-aijun_YoonKim_lr3_noise_level0.175_wordlen8_no_emoji,Mokoron binary classification,295548
126,0.7749877360804514,0.7533638179333544,"MaxWordLen 8, MaxTexLen 32",0.5,30,0.7720311869039854,0.7511567169125933,,0.001,"YoonKimModel(
  (embedding): Linear(in_features=104, out_features=106, bias=True)
  (chars_cnn): Sequential(
    (0): Conv1d(106, 256, kernel_size=(5,), stride=(1,), padding=(2,))
    (1): ReLU()
    (2): MaxPool1d(kernel_size=8, stride=8, padding=0, dilation=1, ceil_mode=False)
  )
  (dropout): Dropout(p=0.5)
  (words_rnn): GRU(256, 128)
  (projector): Linear(in_features=128, out_features=2, bias=True)
)",charCNN,0.1,0.175,runs/May13_12-51-31_phobos-aijun_YoonKim_lr3_noise_level0.175_wordlen8_no_emoji,Mokoron binary classification,295548
127,0.7656671572234486,0.7533638179333544,"MaxWordLen 8, MaxTexLen 32",0.5,30,0.7629710032563188,0.7511567169125933,,0.001,"YoonKimModel(
  (embedding): Linear(in_features=104, out_features=106, bias=True)
  (chars_cnn): Sequential(
    (0): Conv1d(106, 256, kernel_size=(5,), stride=(1,), padding=(2,))
    (1): ReLU()
    (2): MaxPool1d(kernel_size=8, stride=8, padding=0, dilation=1, ceil_mode=False)
  )
  (dropout): Dropout(p=0.5)
  (words_rnn): GRU(256, 128)
  (projector): Linear(in_features=128, out_features=2, bias=True)
)",charCNN,0.125,0.175,runs/May13_12-51-31_phobos-aijun_YoonKim_lr3_noise_level0.175_wordlen8_no_emoji,Mokoron binary classification,295548
128,0.7529126808928134,0.7533638179333544,"MaxWordLen 8, MaxTexLen 32",0.5,30,0.7491674188427901,0.7511567169125933,,0.001,"YoonKimModel(
  (embedding): Linear(in_features=104, out_features=106, bias=True)
  (chars_cnn): Sequential(
    (0): Conv1d(106, 256, kernel_size=(5,), stride=(1,), padding=(2,))
    (1): ReLU()
    (2): MaxPool1d(kernel_size=8, stride=8, padding=0, dilation=1, ceil_mode=False)
  )
  (dropout): Dropout(p=0.5)
  (words_rnn): GRU(256, 128)
  (projector): Linear(in_features=128, out_features=2, bias=True)
)",charCNN,0.15,0.175,runs/May13_12-51-31_phobos-aijun_YoonKim_lr3_noise_level0.175_wordlen8_no_emoji,Mokoron binary classification,295548
129,0.7449104733872945,0.7533638179333544,"MaxWordLen 8, MaxTexLen 32",0.5,30,0.7426857178202512,0.7511567169125933,,0.001,"YoonKimModel(
  (embedding): Linear(in_features=104, out_features=106, bias=True)
  (chars_cnn): Sequential(
    (0): Conv1d(106, 256, kernel_size=(5,), stride=(1,), padding=(2,))
    (1): ReLU()
    (2): MaxPool1d(kernel_size=8, stride=8, padding=0, dilation=1, ceil_mode=False)
  )
  (dropout): Dropout(p=0.5)
  (words_rnn): GRU(256, 128)
  (projector): Linear(in_features=128, out_features=2, bias=True)
)",charCNN,0.175,0.175,runs/May13_12-51-31_phobos-aijun_YoonKim_lr3_noise_level0.175_wordlen8_no_emoji,Mokoron binary classification,295548
130,0.7345474613686535,0.7533638179333544,"MaxWordLen 8, MaxTexLen 32",0.5,30,0.7319006626617948,0.7511567169125933,,0.001,"YoonKimModel(
  (embedding): Linear(in_features=104, out_features=106, bias=True)
  (chars_cnn): Sequential(
    (0): Conv1d(106, 256, kernel_size=(5,), stride=(1,), padding=(2,))
    (1): ReLU()
    (2): MaxPool1d(kernel_size=8, stride=8, padding=0, dilation=1, ceil_mode=False)
  )
  (dropout): Dropout(p=0.5)
  (words_rnn): GRU(256, 128)
  (projector): Linear(in_features=128, out_features=2, bias=True)
)",charCNN,0.2,0.175,runs/May13_12-51-31_phobos-aijun_YoonKim_lr3_noise_level0.175_wordlen8_no_emoji,Mokoron binary classification,295548
131,0.7447878341918077,0.7533638179333544,"MaxWordLen 8, MaxTexLen 32",0.5,30,0.7406692005732445,0.7511567169125933,,0.001,"YoonKimModel(
  (embedding): Linear(in_features=104, out_features=106, bias=True)
  (chars_cnn): Sequential(
    (0): Conv1d(106, 256, kernel_size=(5,), stride=(1,), padding=(2,))
    (1): ReLU()
    (2): MaxPool1d(kernel_size=8, stride=8, padding=0, dilation=1, ceil_mode=False)
  )
  (dropout): Dropout(p=0.5)
  (words_rnn): GRU(256, 128)
  (projector): Linear(in_features=128, out_features=2, bias=True)
)",charCNN,-1.0,0.175,runs/May13_12-51-31_phobos-aijun_YoonKim_lr3_noise_level0.175_wordlen8_no_emoji,Mokoron binary classification,295548
132,0.8007726269315674,0.7424773993482603,"MaxWordLen 8, MaxTexLen 32",0.5,30,0.7949769672493215,0.7423741513141897,,0.001,"YoonKimModel(
  (embedding): Linear(in_features=104, out_features=106, bias=True)
  (chars_cnn): Sequential(
    (0): Conv1d(106, 256, kernel_size=(5,), stride=(1,), padding=(2,))
    (1): ReLU()
    (2): MaxPool1d(kernel_size=8, stride=8, padding=0, dilation=1, ceil_mode=False)
  )
  (dropout): Dropout(p=0.5)
  (words_rnn): GRU(256, 128)
  (projector): Linear(in_features=128, out_features=2, bias=True)
)",charCNN,0.0,0.2,runs/May13_14-07-25_phobos-aijun_YoonKim_lr3_noise_level0.2_wordlen8_no_emoji,Mokoron binary classification,295548
133,0.8001287711552613,0.7424773993482603,"MaxWordLen 8, MaxTexLen 32",0.5,30,0.794359799375414,0.7423741513141897,,0.001,"YoonKimModel(
  (embedding): Linear(in_features=104, out_features=106, bias=True)
  (chars_cnn): Sequential(
    (0): Conv1d(106, 256, kernel_size=(5,), stride=(1,), padding=(2,))
    (1): ReLU()
    (2): MaxPool1d(kernel_size=8, stride=8, padding=0, dilation=1, ceil_mode=False)
  )
  (dropout): Dropout(p=0.5)
  (words_rnn): GRU(256, 128)
  (projector): Linear(in_features=128, out_features=2, bias=True)
)",charCNN,0.005,0.2,runs/May13_14-07-25_phobos-aijun_YoonKim_lr3_noise_level0.2_wordlen8_no_emoji,Mokoron binary classification,295548
134,0.7979825852342408,0.7424773993482603,"MaxWordLen 8, MaxTexLen 32",0.5,30,0.7926096125397374,0.7423741513141897,,0.001,"YoonKimModel(
  (embedding): Linear(in_features=104, out_features=106, bias=True)
  (chars_cnn): Sequential(
    (0): Conv1d(106, 256, kernel_size=(5,), stride=(1,), padding=(2,))
    (1): ReLU()
    (2): MaxPool1d(kernel_size=8, stride=8, padding=0, dilation=1, ceil_mode=False)
  )
  (dropout): Dropout(p=0.5)
  (words_rnn): GRU(256, 128)
  (projector): Linear(in_features=128, out_features=2, bias=True)
)",charCNN,0.01,0.2,runs/May13_14-07-25_phobos-aijun_YoonKim_lr3_noise_level0.2_wordlen8_no_emoji,Mokoron binary classification,295548
135,0.7953765023301447,0.7424773993482603,"MaxWordLen 8, MaxTexLen 32",0.5,30,0.790086179782349,0.7423741513141897,,0.001,"YoonKimModel(
  (embedding): Linear(in_features=104, out_features=106, bias=True)
  (chars_cnn): Sequential(
    (0): Conv1d(106, 256, kernel_size=(5,), stride=(1,), padding=(2,))
    (1): ReLU()
    (2): MaxPool1d(kernel_size=8, stride=8, padding=0, dilation=1, ceil_mode=False)
  )
  (dropout): Dropout(p=0.5)
  (words_rnn): GRU(256, 128)
  (projector): Linear(in_features=128, out_features=2, bias=True)
)",charCNN,0.025,0.2,runs/May13_14-07-25_phobos-aijun_YoonKim_lr3_noise_level0.2_wordlen8_no_emoji,Mokoron binary classification,295548
136,0.7836951189600196,0.7424773993482603,"MaxWordLen 8, MaxTexLen 32",0.5,30,0.777970102281668,0.7423741513141897,,0.001,"YoonKimModel(
  (embedding): Linear(in_features=104, out_features=106, bias=True)
  (chars_cnn): Sequential(
    (0): Conv1d(106, 256, kernel_size=(5,), stride=(1,), padding=(2,))
    (1): ReLU()
    (2): MaxPool1d(kernel_size=8, stride=8, padding=0, dilation=1, ceil_mode=False)
  )
  (dropout): Dropout(p=0.5)
  (words_rnn): GRU(256, 128)
  (projector): Linear(in_features=128, out_features=2, bias=True)
)",charCNN,0.05,0.2,runs/May13_14-07-25_phobos-aijun_YoonKim_lr3_noise_level0.2_wordlen8_no_emoji,Mokoron binary classification,295548
137,0.7794334069168506,0.7424773993482603,"MaxWordLen 8, MaxTexLen 32",0.5,30,0.7748074876353848,0.7423741513141897,,0.001,"YoonKimModel(
  (embedding): Linear(in_features=104, out_features=106, bias=True)
  (chars_cnn): Sequential(
    (0): Conv1d(106, 256, kernel_size=(5,), stride=(1,), padding=(2,))
    (1): ReLU()
    (2): MaxPool1d(kernel_size=8, stride=8, padding=0, dilation=1, ceil_mode=False)
  )
  (dropout): Dropout(p=0.5)
  (words_rnn): GRU(256, 128)
  (projector): Linear(in_features=128, out_features=2, bias=True)
)",charCNN,0.075,0.2,runs/May13_14-07-25_phobos-aijun_YoonKim_lr3_noise_level0.2_wordlen8_no_emoji,Mokoron binary classification,295548
138,0.7702661270542065,0.7424773993482603,"MaxWordLen 8, MaxTexLen 32",0.5,30,0.7667548638132294,0.7423741513141897,,0.001,"YoonKimModel(
  (embedding): Linear(in_features=104, out_features=106, bias=True)
  (chars_cnn): Sequential(
    (0): Conv1d(106, 256, kernel_size=(5,), stride=(1,), padding=(2,))
    (1): ReLU()
    (2): MaxPool1d(kernel_size=8, stride=8, padding=0, dilation=1, ceil_mode=False)
  )
  (dropout): Dropout(p=0.5)
  (words_rnn): GRU(256, 128)
  (projector): Linear(in_features=128, out_features=2, bias=True)
)",charCNN,0.1,0.2,runs/May13_14-07-25_phobos-aijun_YoonKim_lr3_noise_level0.2_wordlen8_no_emoji,Mokoron binary classification,295548
139,0.762233259749816,0.7424773993482603,"MaxWordLen 8, MaxTexLen 32",0.5,30,0.7594229874360168,0.7423741513141897,,0.001,"YoonKimModel(
  (embedding): Linear(in_features=104, out_features=106, bias=True)
  (chars_cnn): Sequential(
    (0): Conv1d(106, 256, kernel_size=(5,), stride=(1,), padding=(2,))
    (1): ReLU()
    (2): MaxPool1d(kernel_size=8, stride=8, padding=0, dilation=1, ceil_mode=False)
  )
  (dropout): Dropout(p=0.5)
  (words_rnn): GRU(256, 128)
  (projector): Linear(in_features=128, out_features=2, bias=True)
)",charCNN,0.125,0.2,runs/May13_14-07-25_phobos-aijun_YoonKim_lr3_noise_level0.2_wordlen8_no_emoji,Mokoron binary classification,295548
140,0.7538018150600932,0.7424773993482603,"MaxWordLen 8, MaxTexLen 32",0.5,30,0.7511620700340873,0.7423741513141897,,0.001,"YoonKimModel(
  (embedding): Linear(in_features=104, out_features=106, bias=True)
  (chars_cnn): Sequential(
    (0): Conv1d(106, 256, kernel_size=(5,), stride=(1,), padding=(2,))
    (1): ReLU()
    (2): MaxPool1d(kernel_size=8, stride=8, padding=0, dilation=1, ceil_mode=False)
  )
  (dropout): Dropout(p=0.5)
  (words_rnn): GRU(256, 128)
  (projector): Linear(in_features=128, out_features=2, bias=True)
)",charCNN,0.15,0.2,runs/May13_14-07-25_phobos-aijun_YoonKim_lr3_noise_level0.2_wordlen8_no_emoji,Mokoron binary classification,295548
141,0.7443279372087319,0.7424773993482603,"MaxWordLen 8, MaxTexLen 32",0.5,30,0.7429645840397004,0.7423741513141897,,0.001,"YoonKimModel(
  (embedding): Linear(in_features=104, out_features=106, bias=True)
  (chars_cnn): Sequential(
    (0): Conv1d(106, 256, kernel_size=(5,), stride=(1,), padding=(2,))
    (1): ReLU()
    (2): MaxPool1d(kernel_size=8, stride=8, padding=0, dilation=1, ceil_mode=False)
  )
  (dropout): Dropout(p=0.5)
  (words_rnn): GRU(256, 128)
  (projector): Linear(in_features=128, out_features=2, bias=True)
)",charCNN,0.175,0.2,runs/May13_14-07-25_phobos-aijun_YoonKim_lr3_noise_level0.2_wordlen8_no_emoji,Mokoron binary classification,295548
142,0.7352219769438313,0.7424773993482603,"MaxWordLen 8, MaxTexLen 32",0.5,30,0.7349294045426642,0.7423741513141897,,0.001,"YoonKimModel(
  (embedding): Linear(in_features=104, out_features=106, bias=True)
  (chars_cnn): Sequential(
    (0): Conv1d(106, 256, kernel_size=(5,), stride=(1,), padding=(2,))
    (1): ReLU()
    (2): MaxPool1d(kernel_size=8, stride=8, padding=0, dilation=1, ceil_mode=False)
  )
  (dropout): Dropout(p=0.5)
  (words_rnn): GRU(256, 128)
  (projector): Linear(in_features=128, out_features=2, bias=True)
)",charCNN,0.2,0.2,runs/May13_14-07-25_phobos-aijun_YoonKim_lr3_noise_level0.2_wordlen8_no_emoji,Mokoron binary classification,295548
143,0.7381653176355163,0.7424773993482603,"MaxWordLen 8, MaxTexLen 32",0.5,30,0.7383738741498682,0.7423741513141897,,0.001,"YoonKimModel(
  (embedding): Linear(in_features=104, out_features=106, bias=True)
  (chars_cnn): Sequential(
    (0): Conv1d(106, 256, kernel_size=(5,), stride=(1,), padding=(2,))
    (1): ReLU()
    (2): MaxPool1d(kernel_size=8, stride=8, padding=0, dilation=1, ceil_mode=False)
  )
  (dropout): Dropout(p=0.5)
  (words_rnn): GRU(256, 128)
  (projector): Linear(in_features=128, out_features=2, bias=True)
)",charCNN,-1.0,0.2,runs/May13_14-07-25_phobos-aijun_YoonKim_lr3_noise_level0.2_wordlen8_no_emoji,Mokoron binary classification,295548
